model/saved_model/premier_league_model.pth (torch, 359764 bytes, 48 tensors)

fc1.weight f4 [128, 18]
0	0xbe13675f	-0.14394902
1	0x3ead7f9d	0.33886424
2	0x3d015917	0.031579103
3	0x3e8921b9	0.2678354
4	0x3e357f39	0.17724313
5	0xbecd0f1d	-0.40050593
6	0x3db38457	0.08765476
7	0x3e9a3a2b	0.30122504
8	0xbe09f51f	-0.13472413
9	0xbe29898d	-0.16556378
10	0x3db1a4ad	0.086739875
11	0xbd87587c	-0.06608674
12	0xbdf40ec5	-0.119168796
13	0x3df51190	0.119662404
14	0xbec0097a	-0.3750723
15	0xbe6815e9	-0.22664608
16	0x3c9cc780	0.019138098
17	0xbe5baed5	-0.21453412
18	0xbdf2824a	-0.11841257
19	0xbd93fbff	-0.07225799
20	0xbcc1c1a2	-0.023651902
21	0xbe94d16f	-0.29066035
22	0xbe8800d9	-0.26563147
23	0xbee5b4fc	-0.44864643
24	0x3e213a93	0.15745
25	0xbd5bcc05	-0.053661365
26	0xbe734072	-0.23755053
27	0x3ed62339	0.41823748
28	0x3df2643a	0.11835523
29	0xbc45cd4d	-0.012072873
30	0x3e0868f9	0.13321294
31	0x3e0452cb	0.12922208
32	0xbc2c668a	-0.010522494
33	0x3eabf7e3	0.3358756
34	0xbda39750	-0.07987845
35	0xbc8a9d69	-0.016920762
36	0x3e9c6459	0.3054531
37	0xbd47b098	-0.048752397
38	0x3e4490dc	0.19195884
39	0xbe9913dc	-0.29897964
40	0xbe1e49a2	-0.15457776
41	0x3ddde4bb	0.108346425
42	0xbe1dbd61	-0.15404274
43	0xbdd83177	-0.1055631
44	0x3de8f34b	0.113745295
45	0xbb2ea4a5	-0.0026648429
46	0x3db392d8	0.087682426
47	0xbd962189	-0.07330615
48	0xbe9b942b	-0.3038648
49	0x3d0d3d45	0.03448226
50	0xbd65899a	-0.05603943
51	0xbe171d9d	-0.1475739
52	0xbee54515	-0.44779268
53	0x3eaf1440	0.34195137
54	0xbeb9be91	-0.36278203
55	0xbc8040bc	-0.015655868
56	0x3c3f0e34	0.011661101
57	0xbee6368e	-0.44963497
58	0x3e590de6	0.21196708
59	0xbda7f05a	-0.0820014
60	0x3e41482e	0.1887519
61	0xbd01611f	-0.031586763
62	0x3d8acbc2	0.06777145
63	0xbcd84bd3	-0.026403343
64	0xbdab9a9e	-0.083791
65	0xbf072096	-0.527841
66	0x3d9aa0f0	0.07550228
67	0xbde46561	-0.11152149
68	0x3d38a498	0.045078844
69	0xbd2ebd85	-0.04266121
70	0xbe9a8f27	-0.30187342
71	0xbe867a55	-0.26265207
72	0xbe61599e	-0.22006842
73	0x3d18a616	0.037267767
74	0x3e3e56ec	0.18587846
75	0x3e258c2f	0.16166757
76	0x3cf23e9c	0.02957087
77	0x3d6633a3	0.05620159
78	0x3da61e1d	0.081112124
79	0xbd0f83b3	-0.035037708
80	0xbd9e2512	-0.07721914
81	0xbeab3d8d	-0.33445397
82	0x3d173080	0.036911488
83	0xbe70d0e5	-0.23517187
84	0x3e869521	0.2628565
85	0xbdd679f3	-0.10472479
86	0x3e0c55c6	0.13704595
87	0xbf2cd0c9	-0.6750608
88	0xbe0ec176	-0.13940987
89	0xbe5f4162	-0.21802285
90	0xbe604fb4	-0.21905404
91	0xbe001d3a	-0.12511149
92	0x3d3a9a5b	0.04555736
93	0x3e5c605a	0.2152113
94	0x3cd7c90b	0.026340982
95	0x3e8847b7	0.26617214
96	0x3da0ca54	0.07851091
97	0xbea4422a	-0.3208173
98	0x3e540695	0.20705636
99	0xbdf91f3b	-0.1216416
100	0x3e1e68de	0.15469691
101	0xbf0208d3	-0.50794715
102	0xbe35e73d	-0.17763992
103	0x3e3b5424	0.18293816
104	0xbe488b82	-0.19584468
105	0x3e65c29a	0.22437516
106	0xbe8c5ef2	-0.27416188
107	0xbdff1b75	-0.12456409
108	0x3d33f4ad	0.043934513
109	0xbde4ca4a	-0.11171396
110	0x3e3a64ed	0.18202563
111	0xbe5cb436	-0.2155312
112	0xbe501aa2	-0.2032266
113	0xbe3676d4	-0.17818767
114	0x3e4b60b1	0.19861104
115	0xbd8efc35	-0.069816984
116	0x3e00cb7b	0.12577622
117	0xbe0a1386	-0.1348401
118	0x3e33015e	0.1748099
119	0x3e05c2da	0.13062611
120	0x3e95c278	0.2924993
121	0xbcc31923	-0.023815697
122	0xbd3c6398	-0.045993418
123	0xbf2d8912	-0.6778728
124	0xbd5d75b4	-0.05406733
125	0xbe9c7203	-0.30555734
126	0x3d7a0db5	0.06104823
127	0x3e3ef1fe	0.18647
128	0xbe7d2f1b	-0.24725
129	0xbdc383c9	-0.095466204
130	0xbc904a99	-0.017613696
131	0xbe5b971c	-0.21444362
132	0xbddeafe1	-0.1087339
133	0xbcde7e93	-0.027159965
134	0x3c1a6eeb	0.009425859
135	0xbe9132f6	-0.28359193
136	0xbea575d6	-0.32316464
137	0x3e5d11c7	0.21588813
138	0x3ec3ebd1	0.3826585
139	0x3d123553	0.035695385
140	0x3ea45418	0.32095408
141	0x3df8b03e	0.121429905
142	0x3ecb4fa8	0.3970921
143	0xbe7162f3	-0.23572902
144	0xbe60d861	-0.21957542
145	0x3e0d3368	0.13789141
146	0x3e069851	0.13144042
147	0x3eabad68	0.33530736
148	0xbe900eec	-0.28136384
149	0xbd1e971c	-0.038718328
150	0x3ce3b240	0.027794957
151	0xbddeb85d	-0.10875008
152	0x3dc32be7	0.09529858
153	0x3d8c227a	0.068425134
154	0xbcf4c884	-0.02988077
155	0xbd5ac5b4	-0.0534112
156	0xbcebdde9	-0.028792338
157	0x3ee50d75	0.4473683
158	0xbe24bb92	-0.16087177
159	0x3e3401c9	0.17578806
160	0x3eccdd06	0.40012378
161	0xbea5dbd3	-0.32394275
162	0x3e5ad55a	0.2137045
163	0x3e50eaec	0.20402116
164	0x3e2ea7c0	0.17056179
165	0x3e841a69	0.258014
166	0x3e4b2da8	0.19841635
167	0xbdf17a11	-0.117908604
168	0xbe0fe05c	-0.1405043
169	0x3de92fd6	0.11386077
170	0x3dbd0c9d	0.092309214
171	0xbed4e613	-0.41581783
172	0x3dd58527	0.104257874
173	0x3e25e580	0.16200829
174	0x3e5ff358	0.21870172
175	0xbe673602	-0.22579196
176	0x3ee58857	0.44830582
177	0xbe8dc40a	-0.27688628
178	0x3e8310f7	0.2559888
179	0xbe6f515d	-0.23370881
180	0x3ca68206	0.020325672
181	0xbcde878c	-0.027164243
182	0xbda18ac5	-0.07887796
183	0xba1cedf0	-0.0005986383
184	0x3ed38916	0.41315526
185	0x3dd00615	0.1015741
186	0x3dd25950	0.10270941
187	0xbdc36a1e	-0.095417246
188	0xbe0aff86	-0.13574037
189	0xbf15b7fd	-0.5848387
190	0xbeb6ef7d	-0.3572959
191	0x3e47ba72	0.19504717
192	0xbd0809cf	-0.03321248
193	0x3ea2dce4	0.3180915
194	0x3c9ff82b	0.019527515
195	0xbe0c6203	-0.13709264
196	0x3dff0c83	0.12453558
197	0xbe1cd460	-0.1531539
198	0x3eb0fcd7	0.34567901
199	0xbdd33608	-0.1031304
200	0x3e47b00c	0.1950075
201	0xbe90749d	-0.2821397
202	0xbe94c5b5	-0.29057088
203	0x3d1d8cf8	0.038464516
204	0xbea0c903	-0.3140336
205	0x3dc0b61d	0.09409735
206	0xbb9c6c50	-0.004773654
207	0xbde4632b	-0.11151727
208	0xbce01845	-0.027355323
209	0x3ea4c4fd	0.3218154
210	0x3edec1f8	0.4350736
211	0x3def3bd6	0.11681335
212	0xbba45ba6	-0.005015808
213	0xbe9d62db	-0.30739483
214	0xbe2ecb7e	-0.17069814
215	0x3cd648ab	0.026157698
216	0xbc90842a	-0.017641146
217	0x3e020571	0.12697388
218	0x3e4514a4	0.19246155
219	0x3e5e5c03	0.21714787
220	0xbd0ed243	-0.03486849
221	0x3dfe74b2	0.124246016
222	0xbdb58187	-0.08862596
223	0xbe50a48b	-0.20375268
224	0xbd89752c	-0.06711802
225	0xbcd76d5b	-0.026297262
226	0xbd39d834	-0.045372203
227	0xbdf4cd93	-0.11953273
228	0xbe1f8d1b	-0.15581171
229	0x3de71c51	0.11284698
230	0xbd1ac341	-0.037783865
231	0xbea09bac	-0.31368768
232	0xbf588120	-0.8457203
233	0x3ea7b02c	0.32751596
234	0x3e319586	0.17342195
235	0xbda80220	-0.0820353
236	0x3e7a4de3	0.24443774
237	0xbe879424	-0.2648021
238	0xbd304570	-0.04303497
239	0x3e7e8f0a	0.24859253
240	0x3e242bf2	0.16032389
241	0xbe1b8955	-0.15189107
242	0x3e685eee	0.22692463
243	0x3d620586	0.05518105
244	0xbe583f95	-0.21118005
245	0xbdd445d7	-0.103648834
246	0xbe135f98	-0.14391935
247	0xbe766da6	-0.24065265
248	0x3d7f5d1d	0.06234466
249	0x3dfffcb3	0.124993704
250	0xbed7727a	-0.42079526
251	0x3eabf7c9	0.33587483
252	0x3e2e19a5	0.1700197
253	0x3dbd1a41	0.09233523
254	0xbca2c3d2	-0.019868765
255	0x3ef7c9ba	0.48396093

fc1.bias f4 [128]
0	0x3e58b2fb	0.21162026
1	0x3e45723b	0.19281857
2	0xbd910f6b	-0.07083019
3	0x3e6f39bd	0.23361869
4	0xbe30737b	-0.17231552
5	0x3d8bd5be	0.068278775
6	0x3d88eb46	0.066855
7	0xbe729ea9	-0.23693337
8	0xbe2af717	-0.1669582
9	0xbc118b10	-0.008883253
10	0xbe48a4e9	-0.19594158
11	0xbd6a47a6	-0.057197236
12	0xbd38c845	-0.045112867
13	0x3deaec76	0.114708826
14	0x3df77466	0.12082748
15	0x3e1bfe70	0.15233779
16	0x3dafd103	0.08584788
17	0xbdb347a3	-0.08753898
18	0x3e3d00cd	0.18457337
19	0xbdd46400	-0.10370636
20	0x3dc384ab	0.09546789
21	0x3b917fb3	0.0044402718
22	0xbdc95da3	-0.09832313
23	0xbe0b8aa0	-0.136271
24	0xbe4c7d69	-0.19969715
25	0xbdaddabb	-0.08488985
26	0x3dd4c543	0.10389187
27	0x3e63bbe2	0.2223964
28	0xbdfaa9f0	-0.12239444
29	0xbcba0518	-0.022707507
30	0xbe5d61d6	-0.21619353
31	0xbe0f7458	-0.14009225
32	0x3da93045	0.0826116
33	0x3e71bcf6	0.23607239
34	0xbe28c585	-0.16481598
35	0x3dc1891a	0.09449978
36	0xbd7c60af	-0.061615642
37	0xbe23249a	-0.15931931
38	0x3e2251b4	0.1585148
39	0xbdfc60ea	-0.123231724
40	0x3e379159	0.1792654
41	0x3d7c560b	0.061605494
42	0xbe139d64	-0.14415509
43	0x3d786e64	0.06065215
44	0x3e4fe05e	0.20300433
45	0x3d45ed98	0.04832229
46	0x3d9745b1	0.073863395
47	0x3e0f27aa	0.13979974
48	0xbd9e5a09	-0.077320166
49	0x3d9ff4bf	0.078103535
50	0xbe4b37dd	-0.19845529
51	0x3c83af84	0.016074903
52	0xbe188c06	-0.14897165
53	0x3d1963b3	0.037448596
54	0xbe3cc4e3	-0.18434481
55	0xbd494d90	-0.049146235
56	0x3e6c255a	0.23061123
57	0xbdd7fa86	-0.105458304
58	0xbc4c79b5	-0.012480189
59	0xbe44dedf	-0.19225644
60	0x3e2501d8	0.16113985
61	0xba3e8096	-0.00072670856
62	0x3d0422ad	0.032259632
63	0xbe56216c	-0.20911187
64	0x3e0c151c	0.13679928
65	0xbe319dae	-0.17345306
66	0x3e4c2020	0.1993413
67	0xbe495aea	-0.19663587
68	0x3e028c5a	0.12748852
69	0x3ce55997	0.027996821
70	0xbe326b5d	-0.17423768
71	0xbe603496	-0.2189506
72	0x3de6128a	0.11234005
73	0xbe277bcc	-0.16355819
74	0x3cf2e0a8	0.02964814
75	0x3e3a2a2b	0.18180148
76	0x3dedf37d	0.11618707
77	0xbe716e57	-0.23577248
78	0x3e04f32e	0.1298339
79	0x3e2c3c8e	0.16819975
80	0x3e4dc013	0.20092802
81	0xbe1c773e	-0.15279862
82	0xbe4a81b2	-0.19776037
83	0x3e0c694d	0.13712044
84	0x3d5ed2d6	0.054400288
85	0x3db93e44	0.09045079
86	0xbdd7ac34	-0.10530892
87	0x3e3cb501	0.18428423
88	0xbe429b8f	-0.19004653
89	0xbdd3603f	-0.10321092
90	0xbdc78c2a	-0.09743531
91	0xbe4de9de	-0.20108745
92	0xbe0a3709	-0.13497557
93	0xbe65d001	-0.22442628
94	0x3db5fb86	0.08885865
95	0xbd66cd30	-0.056348026
96	0x3e57a1de	0.21057841
97	0xbe6dba73	-0.23215656
98	0xbd83bc3e	-0.06432389
99	0xbde00dee	-0.10940157
100	0xbc4ceb97	-0.012507341
101	0xbe6bbcc2	-0.23021224
102	0xbe4ef12f	-0.20209192
103	0x3e2c1175	0.16803534
104	0xbcb983e7	-0.022645904
105	0xbe17d6d4	-0.14828044
106	0x3dfd9902	0.123826995
107	0x3c14be56	0.009078583
108	0x3e1984ff	0.1499214
109	0xbe5fef1c	-0.21868557
110	0xbd21146a	-0.03932611
111	0xbc2c42cb	-0.010513972
112	0xbe01f5e3	-0.12691455
113	0xbe3c37de	-0.18380687
114	0xbe23875f	-0.15969609
115	0xbd3f821e	-0.04675495
116	0xbd46f392	-0.04857213
117	0xbc64db93	-0.013968366
118	0xbdf67853	-0.12034669
119	0x3d9215c7	0.0713306
120	0x3e2983aa	0.16554132
121	0x3ce85811	0.028362306
122	0xbe1ebfa1	-0.15502788
123	0x3d9a5c37	0.0753712
124	0x3e681088	0.22662556
125	0x3e2a053d	0.16603561
126	0xbe103b39	-0.14085092
127	0x3e2604c9	0.16212763

fc2.weight f4 [128, 128]
0	0xbeba2468	-0.363559
1	0x3de9fb5b	0.114248954
2	0xbe3c0669	-0.1836182
3	0xbe50c22a	-0.20386568
4	0xbf2927e8	-0.6607652
5	0x3ddb6c90	0.10714066
6	0x3e7d25c0	0.24721432
7	0x3e490b90	0.19633317
8	0xbebed266	-0.37269896
9	0xbd3b6c90	-0.04575783
10	0xbcba0c62	-0.022710983
11	0xbe432b62	-0.19059518
12	0x3c3ab7ca	0.011396358
13	0x3e1b0dd5	0.15141995
14	0x3d1879b7	0.03722545
15	0x3e135c38	0.14390647
16	0xbe8568ee	-0.26056617
17	0xbdee69ec	-0.11641297
18	0xbb76ff4e	-0.0037688795
19	0x3e3efb10	0.1865046
20	0x3c9af1ae	0.01891407
21	0x3d27af62	0.040938742
22	0xbd061fda	-0.03274522
23	0xbd9f097f	-0.07765483
24	0xbdf93762	-0.121687666
25	0xbde67c8b	-0.112542234
26	0x3dc9ced4	0.098539025
27	0xbec21ff3	-0.37915
28	0x3d3cfe79	0.04614112
29	0xbeb7512e	-0.35804123
30	0x3e144c2b	0.14482181
31	0x3e11afeb	0.14227264
32	0xbce2dba0	-0.027692616
33	0x3e75f248	0.24018204
34	0x3de5338d	0.11191473
35	0xbe8c80c9	-0.27442005
36	0x3e91395b	0.2836407
37	0x3e13f8d0	0.14450383
38	0xbdcdc2b2	-0.10046901
39	0xbe989be7	-0.29806444
40	0xbe6de6eb	-0.2323262
41	0x3a9c164d	0.0011908502
42	0x3e3a3997	0.18186031
43	0x3e890cbe	0.26767534
44	0x3ce0bad4	0.027432837
45	0xbe3cc0b5	-0.18432887
46	0x3e1ee4f8	0.15517032
47	0xbdc542d2	-0.096318856
48	0xbe05afb4	-0.13055307
49	0xbe8a52d6	-0.27016324
50	0x3ea95e0b	0.33079562
51	0x3e2b73ff	0.16743468
52	0x3daec40f	0.08533489
53	0x3cd1bcd3	0.025602734
54	0xbe774a28	-0.24149382
55	0x3df8bf5f	0.12145876
56	0x3d9d0558	0.07667035
57	0x3e108197	0.14111935
58	0x3e791ac9	0.24326624
59	0x3e32378b	0.17404
60	0xbedac47d	-0.42728034
61	0xbd9ec8c2	-0.07753135
62	0xbd20b290	-0.03923279
63	0x3eab489d	0.33453837
64	0x3d6507d3	0.055915665
65	0x3dd3eb77	0.10347646
66	0x3d34fc70	0.044186056
67	0x3dc9d52f	0.09855115
68	0xbea7bbc4	-0.3276044
69	0x3e6813d1	0.2266381
70	0x3e3b1d9f	0.18273018
71	0xbd304cd8	-0.043042034
72	0x3d53f1f9	0.051744435
73	0xbddaf2fd	-0.106908776
74	0xbea4aac8	-0.32161546
75	0x3cfbf35a	0.030755688
76	0xbe141efc	-0.14464945
77	0xbe0ea419	-0.13929786
78	0xbe67a06d	-0.22619791
79	0x3dfc56da	0.12321253
80	0x3d48b3ad	0.048999477
81	0xbd93993c	-0.072069615
82	0x3de2e4c5	0.110787906
83	0x3cb479ff	0.022030829
84	0x3ddc4bc7	0.10756641
85	0xbcb47643	-0.022029048
86	0x3e196648	0.14980423
87	0xbdc7d24c	-0.09756908
88	0x3e44372c	0.19161671
89	0x3d59412a	0.05304066
90	0x3e13d0e7	0.14435159
91	0xbcf1a374	-0.029496886
92	0x3df62157	0.12018078
93	0xbdc9182f	-0.09819066
94	0x3dc76a7b	0.097371064
95	0xbd07b673	-0.03313298
96	0xbdd43660	-0.10361934
97	0x3d0f5fc3	0.035003435
98	0xbe46714b	-0.19379155
99	0xbd1d1199	-0.03834686
100	0x3d14534a	0.036212243
101	0x3e0fe757	0.14053093
102	0x3df0338b	0.11728581
103	0xbd235cfd	-0.039883602
104	0x3e1db0c3	0.1539946
105	0xbe6f48e9	-0.23367657
106	0x3e2edfe0	0.17077589
107	0xbcb6132d	-0.02222594
108	0x3dea9044	0.11453298
109	0xbec1df66	-0.37865752
110	0x3dc2e0be	0.095155224
111	0x3da50cf2	0.0805911
112	0x3e0c6623	0.13710837
113	0x3d29e841	0.04148126
114	0xbde968b2	-0.11396922
115	0x3de17c74	0.11010066
116	0x3e716aed	0.23575945
117	0x3c911af7	0.017713053
118	0x3d503950	0.050835907
119	0x3d19f0c5	0.03758313
120	0x3c00d805	0.007864003
121	0xbe712a21	-0.23551227
122	0x3e1dcd20	0.1541028
123	0x3d577fd7	0.052612152
124	0xbd73a380	-0.059482098
125	0xbeaf1695	-0.34196916
126	0xbbbbbc0e	-0.005729205
127	0x3e16844a	0.14698902
128	0x3e726732	0.23672178
129	0xbe2c02be	-0.16797921
130	0x3e007ed4	0.12548381
131	0xbe1d59a9	-0.15366234
132	0x3ea82412	0.3284002
133	0xbe127485	-0.14302261
134	0xbe20820c	-0.15674609
135	0x3e0420ba	0.12903109
136	0xbd933e06	-0.071895644
137	0xbe01368f	-0.12618469
138	0xbdefbf40	-0.117064
139	0xbe88ce22	-0.26719767
140	0x3d6aafbe	0.057296507
141	0x3cbd916d	0.023140633
142	0xbd6f331d	-0.058398355
143	0x3db711f6	0.08938973
144	0x3d3d80f0	0.046265543
145	0xbe305a58	-0.17221963
146	0xbde098c3	-0.10966637
147	0x3ca8f70b	0.020625612
148	0x3d962588	0.07331377
149	0x3c10d853	0.008840638
150	0x3b495ef8	0.0030726772
151	0xbe177b30	-0.14793086
152	0xbe45254b	-0.19252507
153	0xbe542d3f	-0.20720385
154	0xbdf60d78	-0.12014288
155	0xbebf5584	-0.3736993
156	0xbe35c427	-0.17750607
157	0xbe05bb8c	-0.13059825
158	0x3e151d5f	0.14561985
159	0x3cad7b2e	0.0211769
160	0x3e34ea5d	0.17667527
161	0x3e179886	0.14804277
162	0x3e2fbfeb	0.17163055
163	0x3e7d387a	0.24728575
164	0xbec754f9	-0.38932016
165	0x3d918993	0.07106318
166	0xbe41556c	-0.18880242
167	0x3d3a0a0a	0.04541973
168	0x3cb7e259	0.022446798
169	0xb8cd7e1b	-9.798651e-05
170	0xbedae080	-0.42749405
171	0xbe1a662d	-0.1507804
172	0x3e49d9d7	0.19712006
173	0xbcb25b87	-0.02177216
174	0xbc87c9ec	-0.016575776
175	0xbe14c1f2	-0.1452711
176	0x3db1eb38	0.086874425
177	0x3bc43865	0.005988168
178	0xbe879f23	-0.264886
179	0x3e035576	0.1282557
180	0x3abf2409	0.0014582883
181	0x3cd0fb6a	0.025510509
182	0x3ec97141	0.39344218
183	0x3da628f3	0.08113279
184	0x3db0d2b2	0.08633937
185	0x3e7ab070	0.24481368
186	0x3e97f793	0.29681072
187	0x3ea530ad	0.322637
188	0xbe3ac9ba	-0.18241015
189	0x3d3b77c9	0.045768533
190	0xbe723260	-0.23652029
191	0x3d8e560d	0.06950007
192	0x3e2b46e6	0.16726264
193	0x3dace0aa	0.08441289
194	0x3e56c42d	0.20973273
195	0xbc6a8c4a	-0.014315674
196	0x3e3c54b2	0.18391684
197	0xbd3bcba9	-0.045848522
198	0xbf103270	-0.5632696
199	0xbd81e910	-0.06343281
200	0xbda66a46	-0.08125739
201	0x3cb76869	0.022388654
202	0xbdafedaf	-0.085902564
203	0xbde10ea4	-0.109891206
204	0xbe3e5ff3	-0.18591289
205	0x3decbe29	0.11559708
206	0xbd653b4d	-0.055964757
207	0x3e1b0e57	0.15142189
208	0xbe892316	-0.2678458
209	0xbeb22b95	-0.34798875
210	0xbdb851d0	-0.089999795
211	0xbdd0863b	-0.101818524
212	0xbd8cf026	-0.06881742
213	0xbd910315	-0.07080666
214	0xbde03806	-0.109481856
215	0xbcb4f130	-0.022087663
216	0xbe9c996d	-0.30585805
217	0xbdfce859	-0.12349004
218	0xbdbe9c47	-0.09307151
219	0xbe6ed7fd	-0.2332458
220	0x3d6a2fab	0.057174366
221	0x3e6f2502	0.23353961
222	0x3daf3ca9	0.08556492
223	0xbce90ed6	-0.028449457
224	0x3dbe7e35	0.09301416
225	0x3d2b400d	0.04180913
226	0xbf2fbea8	-0.68650293
227	0x3d9825d8	0.07429093
228	0xbde9fef3	-0.11425581
229	0x3dedbd09	0.11608321
230	0x3e810764	0.2520095
231	0x3e174a17	0.14774357
232	0x3d4fe9d6	0.050760113
233	0x3cb9a7e5	0.022663066
234	0xbe97c246	-0.29640406
235	0xbdc7a137	-0.09747546
236	0x3d4e87b5	0.05042239
237	0xbf0b9040	-0.54516983
238	0x3e1d6e64	0.15374142
239	0xbdb87baf	-0.09007966
240	0x3c483f00	0.012222052
241	0xbe33e363	-0.1756721
242	0xbcd46b67	-0.02593012
243	0xbcc914ab	-0.024545988
244	0xbc84cf67	-0.016212178
245	0xbf15d6e9	-0.5853105
246	0xbde0b1d2	-0.109714165
247	0x3d6e9d24	0.05825533
248	0x3d816dbf	0.063197605
249	0xbdb7a15f	-0.08966326
250	0x3dea595b	0.114428245
251	0x3e191174	0.14948064
252	0x3d1ad0c0	0.037796736
253	0xbdb03d14	-0.086054
254	0x3ea7495f	0.32673165
255	0x3e0cf84f	0.13766597

fc2.bias f4 [128]
0	0xbd2bb5a0	-0.041921258
1	0x3d76cb63	0.06025256
2	0x3c49da3b	0.012320097
3	0x3d9f1aaa	0.07768758
4	0x3ccecf05	0.025245199
5	0xbd1dc745	-0.038520116
6	0xbb597e6e	-0.003318693
7	0x3cca37d0	0.024684817
8	0xbce4dbd8	-0.02793686
9	0xbd0de2ef	-0.03464025
10	0xbda36132	-0.07977523
11	0x3d434b25	0.047679085
12	0xbd56c447	-0.05243328
13	0x3d5e402e	0.054260425
14	0xbd2f70ec	-0.0428323
15	0x3d1322e9	0.035921965
16	0xbbd957dc	-0.006632788
17	0xbd71bd80	-0.059018612
18	0xbd324a06	-0.043527626
19	0x3d0326f9	0.03201959
20	0xbb8dee8d	-0.004331416
21	0x3d875fc5	0.066100635
22	0x3ce15cfc	0.027510159
23	0xbd5f582f	-0.054527458
24	0xbd18fc4f	-0.037349995
25	0x3d080626	0.03320899
26	0xbd9f94fd	-0.07792089
27	0xbd3a2abb	-0.045450907
28	0xbdaa948a	-0.08329113
29	0xbcaedbcc	-0.021345042
30	0x3d6269a6	0.055276535
31	0xbd1b2bac	-0.037883446
32	0xbd324828	-0.043525845
33	0x3bdf5f77	0.0068168
34	0xbd549188	-0.051896602
35	0x3d67d6cc	0.05660133
36	0xbb361b55	-0.0027787287
37	0xbc6c5040	-0.01442343
38	0x3cd2eecc	0.025748633
39	0xbc6dbad0	-0.014509872
40	0xbd93e468	-0.072212994
41	0x3cfa6650	0.030566365
42	0xbcdad043	-0.026710635
43	0xbc7be184	-0.015373591
44	0x3b7641ac	0.0037575765
45	0x3cd31798	0.025768086
46	0xbd773f3d	-0.060363043
47	0x3db24a0f	0.08705532
48	0xbdb682ec	-0.0891169
49	0xbb728cbb	-0.0037010151
50	0xbd966757	-0.07343929
51	0x3cbd5bf2	0.023115132
52	0xba961055	-0.0011448959
53	0xbcad4f84	-0.02115608
54	0xbd120e2e	-0.035658054
55	0x3dace538	0.084421575
56	0x3d5276ae	0.051382713
57	0x3d755c8a	0.059902705
58	0x3cb560d3	0.022140896
59	0x3d837cb2	0.06420268
60	0xbc0ef6c8	-0.008725829
61	0x3ccdc659	0.025118994
62	0x3da05cd2	0.07830204
63	0xbc8741d7	-0.016510887
64	0xbda5eaed	-0.08101449
65	0xbc5c2467	-0.013436413
66	0xbdb3d9fd	-0.08781812
67	0xbd84bb8d	-0.06481085
68	0x3d83e6f2	0.06440534
69	0x3d5ae5ec	0.053441927
70	0xbc0a277f	-0.008432268
71	0x3cb20875	0.021732548
72	0xbce99f05	-0.02851821
73	0x3d20fad1	0.039301697
74	0x3ce8be4a	0.02841105
75	0x3d752a2e	0.05985468
76	0x3d8eeec4	0.06979135
77	0xbcb6e2a8	-0.022324875
78	0xbdbae441	-0.09125567
79	0x3d1e91e6	0.03871336
80	0x3bd73907	0.0065680775
81	0x3d747b3f	0.05968785
82	0xbda7c8ba	-0.081925824
83	0x3d749fa8	0.059722573
84	0xbda26765	-0.07929877
85	0x3c93c596	0.018038552
86	0xbd85886a	-0.065201595
87	0x3d63fae1	0.05565918
88	0xbd3cd7d7	-0.04610428
89	0x3d5b3d1d	0.05352508
90	0xbc5cd12d	-0.013477606
91	0xbd95be49	-0.07311685
92	0x3d762720	0.060095906
93	0xbd8a3d59	-0.067499824
94	0x3d318514	0.043339804
95	0xbac8b2fd	-0.0015312132
96	0x3d70b369	0.05876485
97	0x3d95b41a	0.07309742
98	0xbc5c1dcc	-0.0134348385
99	0x3d5d5f8a	0.05404619
100	0x3d9e90fd	0.07742498
101	0xbd1e0eab	-0.038588207
102	0xbd98e79e	-0.074660525
103	0xb8f5a419	-0.00011713076
104	0xbd4e29b0	-0.050332725
105	0x3db4a45f	0.08820414
106	0x3c555431	0.013020561
107	0x3d584ca0	0.05280745
108	0xbd84ac4e	-0.06478177
109	0xbc91ae28	-0.01778324
110	0xbd3d3e13	-0.046201777
111	0x3d82858e	0.0637313
112	0xbd8a8af4	-0.067647845
113	0x3d5349d6	0.051584087
114	0x3cf0eb4f	0.029409079
115	0x3b95b9d2	0.0045692706
116	0x3d1c319e	0.038133256
117	0x3db5e791	0.088820584
118	0xbad1e040	-0.0016012266
119	0x3ccb63f7	0.02482794
120	0x3d207838	0.03917715
121	0x3d357d90	0.0443092
122	0x3b9a3201	0.004705668
123	0xbcd6dabb	-0.026227346
124	0x3ccdff53	0.025146162
125	0x3cc072ba	0.023492206
126	0xbc218909	-0.009859332
127	0x3d84cb31	0.06484068

fc3.weight f4 [64, 128]
0	0x3b289105	0.0025721204
1	0xbb5cbd4b	-0.0033682163
2	0xbebecdea	-0.37266475
3	0xbd0dc321	-0.034609918
4	0xbe005057	-0.12530647
5	0xbd0dbb3f	-0.0346024
6	0x3c1a23b1	0.009407924
7	0x3b0c9019	0.0021448194
8	0xbdfef017	-0.12448137
9	0xbe34c4ac	-0.1765315
10	0xbdcb9b70	-0.09941757
11	0xbe7dbbe6	-0.24778709
12	0x3e025bc0	0.12730312
13	0xbe90dc1c	-0.2829293
14	0xbe8608c6	-0.2617857
15	0x3c59508a	0.013263831
16	0x3d1c27c4	0.03812386
17	0xbd88e4e8	-0.066842854
18	0xbe5cb25a	-0.2155241
19	0xbdb262ba	-0.08710237
20	0x3da9c8f8	0.08290285
21	0xbe6cb8ea	-0.23117414
22	0x3d3c2839	0.045936797
23	0xbeac2413	-0.33621272
24	0xbe2c087e	-0.16800115
25	0xbb37ac7a	-0.0028026388
26	0xbefb9378	-0.49135947
27	0xbdae1a1c	-0.08501074
28	0x3ce5c6aa	0.028048832
29	0x3ce1f30a	0.02758171
30	0x3d001cea	0.031277575
31	0x3e47cd2e	0.19511864
32	0xbe57e7f2	-0.21084574
33	0xbe7716f5	-0.24129851
34	0xbed25c06	-0.41085833
35	0x3d27455a	0.040837623
36	0x3d9db0cd	0.07699738
37	0x3eaa64f5	0.3328015
38	0xbd9655ec	-0.07340607
39	0x3ded1a59	0.11577291
40	0xbcb1885b	-0.021671465
41	0xbdd3f0cc	-0.10348663
42	0x3d9e8098	0.07739371
43	0xbf1182b9	-0.5684009
44	0x3da11e3b	0.07867094
45	0xbe9733cf	-0.29531714
46	0x3e23613a	0.15955058
47	0xbe713f82	-0.23559383
48	0xbe152951	-0.14566542
49	0xbe86d0d5	-0.263312
50	0xbdf23253	-0.11826005
51	0x3dce6e51	0.10079635
52	0xbeb5594f	-0.354197
53	0xbea5f5e0	-0.3241415
54	0x3cccb6e4	0.024989553
55	0x3e598d9d	0.21245427
56	0xbe46c7d7	-0.1941217
57	0xbcc1d455	-0.023660818
58	0xbd60a61c	-0.054845914
59	0xbe628591	-0.22121264
60	0x3df82c08	0.12117773
61	0xbe9729ce	-0.29524082
62	0x3d841d71	0.06450928
63	0x3dcdcb51	0.10048545
64	0xbe0b9e47	-0.13634597
65	0xbd23e70b	-0.04001526
66	0xbe0e52ae	-0.13898727
67	0xbdfa2fb6	-0.122161314
68	0x3e36c3ed	0.17848177
69	0xbecd6d09	-0.4012225
70	0x3d46c273	0.048525285
71	0xbd4bb362	-0.04973162
72	0x3da98433	0.08277168
73	0xbe2c1791	-0.16805865
74	0x3c0c8a53	0.008577901
75	0xbdaeea93	-0.08540835
76	0x3ddcfc4d	0.1079031
77	0x3e176646	0.14785108
78	0xbd90642c	-0.07050356
79	0xbef13962	-0.47114092
80	0xbce3c58c	-0.027804159
81	0xbec2e096	-0.3806197
82	0xbcda172c	-0.026622377
83	0xbd17fae7	-0.037104513
84	0xbeb4df3d	-0.35326567
85	0xbdc8ab65	-0.09798316
86	0xbe8f3bbc	-0.2797526
87	0x3d5f969f	0.054587003
88	0x3de62536	0.11237566
89	0xbd5cfa74	-0.05394979
90	0x3d637484	0.05553104
91	0xbeb33cd3	-0.35007343
92	0xbc83284c	-0.016010426
93	0x3e19c7d6	0.15017638
94	0xbe1fc8d2	-0.1560395
95	0x3d7e4019	0.062072847
96	0xbda54ead	-0.08071647
97	0xbd2f0f4f	-0.04273921
98	0xbece6ff3	-0.40319785
99	0x3d3d1129	0.046158943
100	0xbb45825e	-0.003013752
101	0x3e0e10cd	0.13873596
102	0xbee54355	-0.44777933
103	0x3dc4d78a	0.09611423
104	0xbc851045	-0.01624311
105	0xbe0584e0	-0.13038969
106	0x3d3488af	0.044075664
107	0x3e300de5	0.171928
108	0xbe9ee632	-0.31035
109	0xbe927077	-0.2860143
110	0xbd6e1dbe	-0.058133833
111	0x3d7262d8	0.059176296
112	0xbdafb3d4	-0.08579221
113	0x3be102df	0.0068667973
114	0xbe87c4ea	-0.2651742
115	0x3cc44195	0.023957053
116	0xbdfb0ad9	-0.122579284
117	0xbce7d51e	-0.028299864
118	0xbd365651	-0.04451591
119	0xbdacceff	-0.08437919
120	0xbe7058d8	-0.23471391
121	0xbbc3f1fe	-0.0059797755
122	0xbe3b930c	-0.18317813
123	0x3e234c13	0.15946989
124	0xbea9a405	-0.3313295
125	0x3df0b985	0.11754135
126	0x3dc90be2	0.098167196
127	0x3d2a3e05	0.041563053
128	0x3d36ce83	0.04463054
129	0x3c6a32e3	0.014294359
130	0xbe0a6aa0	-0.13517237
131	0xbf0ca914	-0.5494549
132	0x3d4fc5c4	0.050725713
133	0x3e280fdd	0.16412301
134	0x3da7ade4	0.08187464
135	0xbe292fd7	-0.16522156
136	0x3d4d6970	0.05014938
137	0x3e2b6b24	0.1674009
138	0x3c7e3bc7	0.015517182
139	0xbe2e05d2	-0.16994408
140	0x3ea0465c	0.3130368
141	0xbe1cce6f	-0.15313123
142	0xbe20634a	-0.15662876
143	0x3d8e6c78	0.069542825
144	0xbe80ddac	-0.25169122
145	0xbd352826	-0.04422774
146	0xbe848de6	-0.2588951
147	0xbe0576d5	-0.13033612
148	0x3e1a13ef	0.15046667
149	0xbe254ef9	-0.16143407
150	0xbc82cb80	-0.015966177
151	0x3ca8e7b0	0.02061829
152	0xbc29ce10	-0.010364071
153	0xbdf937ea	-0.12168868
154	0xbdf531c6	-0.11972384
155	0xbe2cc722	-0.16872838
156	0x3da7bbd2	0.08190121
157	0xbc29bb9c	-0.010359671
158	0x3e58ac54	0.21159488
159	0x3df90a78	0.121602
160	0xbe3e0ca6	-0.18559512
161	0xbdfb8159	-0.122805305
162	0xbe8b72ba	-0.27235967
163	0xbc04ef1b	-0.008113648
164	0xbd98b009	-0.07455451
165	0x3eb4af65	0.35290065
166	0xbc240b8f	-0.010012521
167	0xbd8e6e97	-0.06954687
168	0x3c1b8eea	0.009494523
169	0xbdc22b53	-0.0948092
170	0x3c9cdf91	0.019149574
171	0xbe56f5f6	-0.20992264
172	0x3dcffbc6	0.10155444
173	0xbe6ad2b7	-0.22931944
174	0x3dabd831	0.083908446
175	0xbe99af9b	-0.3001679
176	0xbe29da54	-0.16587192
177	0xbea2e64e	-0.31816334
178	0xbe72f0a7	-0.23724614
179	0xbe66a149	-0.22522463
180	0xbd30aed0	-0.043135464
181	0xbd17403c	-0.036926493
182	0x3ceb95b6	0.028757911
183	0xbebddef6	-0.37084168
184	0x3df63750	0.12022269
185	0xbd62c2c7	-0.055361535
186	0x3cb2998f	0.021801738
187	0xbeff968f	-0.49919555
188	0x3e0ee22d	0.13953467
189	0xbd0f93a8	-0.035052925
190	0xbb2bb670	-0.002620127
191	0xbe051333	-0.12995605
192	0xbeeffeba	-0.46874028
193	0x3ce2d09b	0.027687361
194	0xbe122292	-0.14271
195	0xbdbc24aa	-0.091866806
196	0xbe48b690	-0.19600892
197	0xbe90bffb	-0.2827147
198	0x3d85e5e7	0.06537991
199	0x3d5e9f57	0.054351177
200	0x3d83db08	0.06438261
201	0xbdab0b38	-0.08351749
202	0x3d0a75ae	0.033803634
203	0xbde74400	-0.11292267
204	0x3ec9b5b2	0.39396435
205	0x3d4108fa	0.0471277
206	0xbc969b70	-0.018384665
207	0xbe934611	-0.28764394
208	0x3e61fa1d	0.22068067
209	0xbe30ed18	-0.17277944
210	0xbd0d86e5	-0.034552474
211	0xba1d2fd2	-0.00059962005
212	0xbee90f6a	-0.45519572
213	0xbdf677b6	-0.12034552
214	0x3d335e17	0.043790903
215	0xbde3fef8	-0.11132616
216	0x3dddb8b7	0.10826247
217	0xbe0bd398	-0.13654935
218	0x3c20bb38	0.009810261
219	0xbe529c7c	-0.20567507
220	0x3d572aee	0.052531175
221	0x3c51dc31	0.012808845
222	0xbe9de75d	-0.3084058
223	0xbb3d501b	-0.0028886858
224	0xbe30e6f7	-0.17275606
225	0x3dfa1d64	0.12212637
226	0xbeb62445	-0.35574546
227	0x3d851e52	0.06499924
228	0xbea501bf	-0.32227895
229	0x3d857b5b	0.06517669
230	0xbed0d6b5	-0.40788808
231	0xbeb4544d	-0.35220566
232	0xbe0a3cd1	-0.13499762
233	0xbd8acabe	-0.06776951
234	0xbcfe5985	-0.031048546
235	0x3e285453	0.16438417
236	0x3c5ef87b	0.013609047
237	0xbee1cbe4	-0.4410087
238	0x3e155311	0.14582469
239	0x3eaa5b0c	0.33272588
240	0xbdb79046	-0.08963065
241	0x3c52b909	0.012861499
242	0x3dfe9b7b	0.12431999
243	0xbd491c62	-0.049099334
244	0xbea1a06b	-0.31567702
245	0x3d2a53f8	0.041583985
246	0xbdf39507	-0.11893659
247	0xbc8b4210	-0.016999274
248	0xbeddd767	-0.433284
249	0xbe7101e4	-0.23535877
250	0xbe378ea1	-0.17925502
251	0x3db9b66c	0.09067997
252	0xbe38d11d	-0.1804852
253	0x3d885f1f	0.06658768
254	0x3c15f01b	0.009151484
255	0x3b782948	0.0037866402

fc3.bias f4 [64]
0	0x3d53967b	0.05165718
1	0x3ba96fea	0.005170812
2	0x3dbc1c31	0.091850646
3	0xbd98770f	-0.074445836
4	0x3d77f01a	0.060531713
5	0x3d844763	0.064589284
6	0x3d605a54	0.054773644
7	0x3d6c29ac	0.05765693
8	0x3d06a3bc	0.032870993
9	0x3d4c674d	0.049903203
10	0xbd2050fd	-0.039139736
11	0xbbd50aef	-0.0065015475
12	0xbd2b4033	-0.041809272
13	0x3d0c99f8	0.034326524
14	0x3ce21f26	0.027602743
15	0x3bca76ed	0.006178728
16	0x3c9f84b2	0.019472454
17	0x3d9b254d	0.07575474
18	0xbd860921	-0.0654471
19	0x3c82c326	0.015962195
20	0xbd0160bf	-0.031586405
21	0x3d835b76	0.06413929
22	0xbcdfbca2	-0.027311627
23	0x3be1adb9	0.0068871644
24	0xbc87ce0c	-0.016577743
25	0x3d374c12	0.04475028
26	0x3ce89c6b	0.028394898
27	0xbd1ea19c	-0.03872834
28	0xbc3db1ed	-0.011578065
29	0x3d356e71	0.04429478
30	0xbdc96937	-0.09834521
31	0x3cc183f6	0.023622494
32	0x3d8de825	0.06929044
33	0x3d982238	0.07428402
34	0xbc89d7c1	-0.016826512
35	0xbd5cea75	-0.053934533
36	0x3daf2977	0.08552831
37	0xbac2b08f	-0.0014853644
38	0x3d550675	0.05200811
39	0xbd5d20ba	-0.05398629
40	0x3d34d7d3	0.04415114
41	0xbcbe2279	-0.023209797
42	0xbd767bbb	-0.060176592
43	0x3da9cd1f	0.08291077
44	0x3dac0d65	0.08400992
45	0xbda5f596	-0.081034824
46	0xbdb35f11	-0.08758367
47	0xbb1cf2ce	-0.0023948434
48	0xbd4cb3f7	-0.049976315
49	0x3d332ab6	0.043741904
50	0xbd53e11f	-0.051728364
51	0x3dad51ed	0.08462892
52	0xbda55f18	-0.08074778
53	0xbbea6644	-0.0071533043
54	0xbd33842a	-0.043827213
55	0x3d9f550a	0.07779892
56	0xbda114ff	-0.07865333
57	0xbdbf80b1	-0.09350718
58	0xbd76e42b	-0.06027619
59	0x3da65e2b	0.0812343
60	0x3da54825	0.08070401
61	0x3d8d7d86	0.06908707
62	0x3d93b7a5	0.07212762
63	0xbd91f883	-0.07127478

fc4.weight f4 [3, 64]
0	0xbdbeffd5	-0.0932614
1	0xbda85c09	-0.08220679
2	0xbd019752	-0.03163845
3	0x3dd789ef	0.105243556
4	0xbe226d28	-0.15861952
5	0x3dd4f342	0.1039796
6	0x3cef541d	0.029214913
7	0x3d80aa06	0.062824294
8	0xbdf57bb4	-0.11986485
9	0x3dc5397c	0.09630105
10	0xbe41dec7	-0.18932639
11	0xbe1be271	-0.152231
12	0xbcd13fcd	-0.025543118
13	0xbe0eb8c1	-0.13937666
14	0x3d64e380	0.055881023
15	0x3c916df3	0.017752623
16	0xbd3c4565	-0.045964617
17	0xbe03c355	-0.12867482
18	0xbdcae70a	-0.099073485
19	0xbd31ddb1	-0.043424312
20	0xbdfa8ddf	-0.12234091
21	0x3d9e7c94	0.07738605
22	0xbd2a7999	-0.04161987
23	0x3d82570a	0.06364258
24	0x3d750b34	0.059825137
25	0xbdf891f6	-0.12137215
26	0x3cd1868c	0.025576852
27	0xbe27a9de	-0.16373393
28	0x3d714c16	0.05891045
29	0x3d709c98	0.05874309
30	0x3d9725e0	0.07380271
31	0xbcc44674	-0.023959376
32	0x3cad24fb	0.021135798
33	0x3d7c5625	0.06160559
34	0x3e190c26	0.1494604
35	0x3e22e12b	0.15906207
36	0x3da7fab2	0.08202113
37	0x3c8891e5	0.01667113
38	0x3e064e4c	0.13115805
39	0xbc13f12d	-0.009029669
40	0x3df3f998	0.119128406
41	0xbe4dd99c	-0.20102543
42	0x3cc46085	0.023971805
43	0x3d8e0d4b	0.06936129
44	0x3dd2d2a3	0.10294082
45	0xbe057cd4	-0.130359
46	0x3dcea3ab	0.10089811
47	0xbe0309a3	-0.12796645
48	0xbc2acc87	-0.01042474
49	0xbe722ada	-0.23649159
50	0xbe40f875	-0.18844779
51	0x3d914aae	0.07094322
52	0xbe21a38e	-0.15785047
53	0xbb830823	-0.0039987727
54	0x3d4a090e	0.04932504
55	0x3dbd2315	0.09235207
56	0x3e19397d	0.14963336
57	0x3d05c97a	0.032662846
58	0xbe1b8572	-0.15187624
59	0x3df687e2	0.12037636
60	0x3d89566a	0.06705935
61	0xbe346570	-0.1761682
62	0xbe64edef	-0.2235639
63	0xbd3eb865	-0.04656257
64	0x3d6ef156	0.058335625
65	0xbd2f4436	-0.04278966
66	0xbe2f0e34	-0.17095262
67	0x3e044237	0.12915884
68	0x3c228f49	0.009921857
69	0xbd67be23	-0.056577813
70	0xbd98fbd6	-0.07469909
71	0xbdeaa87f	-0.11457919
72	0x3dbf6105	0.09344677
73	0x3d82ca3d	0.0638623
74	0x3e08234d	0.13294716
75	0x3d844ff6	0.06460564
76	0x3e289f92	0.16467121
77	0x3da9c150	0.082888246
78	0xbd3cc31c	-0.04608451
79	0x3dc43f4b	0.09582385
80	0xbe80159f	-0.25016496
81	0x3e34f003	0.17669682
82	0x3dfede73	0.124447726
83	0x3e0343b5	0.12818797
84	0x3e1e6670	0.15468764
85	0x3ca2baf1	0.019864531
86	0x3dccf718	0.10008067
87	0x3c0f0faf	0.008731767
88	0xbd605515	-0.05476864
89	0x3c7e496c	0.015520435
90	0x3deb904a	0.1150213
91	0xbcc4bd6b	-0.024016103
92	0xbda4fab2	-0.08055629
93	0xbbea6377	-0.0071529704
94	0x3d9d1632	0.07670249
95	0xbdea287c	-0.11433503
96	0xbe054c4e	-0.13017389
97	0x3c63ee06	0.01391173
98	0x3d8e9b22	0.06963183
99	0xbd2bbeca	-0.041929998
100	0xbdffb680	-0.12485981
101	0x3d2e80d3	0.042603325
102	0xbccb51e9	-0.024819331
103	0xbe86f6b4	-0.26360095
104	0x3d43ca19	0.047800157
105	0xbd7c5ae5	-0.06161012
106	0x3d4d59e0	0.05013454
107	0x3dcb2ddf	0.099208586
108	0x3e1cf340	0.15327168
109	0x3e265e2e	0.16246864
110	0x3d656dcc	0.056012914
111	0xbd80fb53	-0.06297936
112	0x3e238a22	0.15970662
113	0x3cf37bd8	0.02972214
114	0x3cc8cc4f	0.024511484
115	0x3e2a2d1f	0.16618775
116	0xbd9007b8	-0.07032722
117	0xbd850f7d	-0.06497095
118	0x3ccf8f59	0.025336908
119	0x3db1c126	0.08679418
120	0xbd8d1b3b	-0.068899594
121	0xbde0640f	-0.10956585
122	0x3d160942	0.036629923
123	0xbd854f19	-0.06509227
124	0x3d8be0f0	0.06830013
125	0xbdc48dee	-0.095973834
126	0x3d78e0bf	0.06076121
127	0xbe3a6ab5	-0.18204768
128	0x3dfb0047	0.12255912
129	0x3dbc0e02	0.09182359
130	0x3d4b3641	0.049612287
131	0xbe1d2bb0	-0.15348697
132	0x3d68fe8d	0.056883384
133	0x3d80847a	0.06275268
134	0xbe2c0d4a	-0.16801944
135	0x3c710f9e	0.014713196
136	0x3db292b7	0.0871939
137	0xbe1d41f2	-0.15357187
138	0xbc9078f4	-0.0176358
139	0x3da75baa	0.081717804
140	0xbe240cac	-0.16020459
141	0x3ded7cdd	0.115960814
142	0x3e1a4ad7	0.15067612
143	0xbe5e27ce	-0.21694872
144	0x3cf34663	0.029696649
145	0x3d32b3e5	0.043628592
146	0x3c776c53	0.01510151
147	0xbe385a3c	-0.18003172
148	0xbe4e28c9	-0.20132746
149	0xbe1d47c6	-0.1535941
150	0xbe37c584	-0.1794644
151	0xbe503c86	-0.20335588
152	0xbde8c016	-0.113647625
153	0x3ddae5ac	0.10688338
154	0xbe4ce65d	-0.20009752
155	0x3c974799	0.018466758
156	0x3d14140d	0.036151934
157	0xbe47617b	-0.1947078
158	0xbe1a6d49	-0.15080751
159	0x3da6906d	0.08133016
160	0xbdc82cce	-0.09774171
161	0xbe365741	-0.17806722
162	0xbdfe9e77	-0.124325685
163	0x3d8e7168	0.06955224
164	0xbcc85e35	-0.024458984
165	0xbe4bc598	-0.19899595
166	0xbdbb80ed	-0.0915545
167	0xbcf147f9	-0.029453265
168	0xbde688c6	-0.11256556
169	0x3c1dc6e3	0.009629938
170	0xbe500754	-0.20315295
171	0xbe064304	-0.13111502
172	0xbda554c5	-0.08072809
173	0xbe2d9954	-0.16953021
174	0xbe4e3682	-0.2013798
175	0x3d43f25e	0.04783856
176	0xbdb02b93	-0.08602061
177	0xbb6a4373	-0.003574577
178	0x3c8ede7d	0.017440075
179	0xbdc48b67	-0.095969014
180	0x3d98cf35	0.074613966
181	0xbe71be46	-0.2360774
182	0xbe2e926b	-0.17048042
183	0xbe42104f	-0.18951534
184	0x3dac74b4	0.08420697
185	0x3e272d85	0.16325958
186	0x3cbe92cf	0.023263363
187	0xbd4605a7	-0.048345234
188	0xbe0ca6da	-0.13735524
189	0x3baaa3b4	0.005207503
190	0x3cef9df3	0.02925012
191	0x3cfa59da	0.030560423

fc4.bias f4 [3]
0	0x3cff5121	0.031166615
1	0xbe3d6a1c	-0.18497509
2	0x3e205660	0.1565795

bn1.weight f4 [128]
0	0x3f44bdd2	0.7685214
1	0x3f5ec9e1	0.8702679
2	0x3f587cb6	0.84565294
3	0x3f6015d4	0.8753331
4	0x3f6f9ff9	0.93603474
5	0x3f7508af	0.95716375
6	0x3f674aa9	0.903483
7	0x3f769e5e	0.963354
8	0x3f5ed94d	0.87050325
9	0x3f551fd8	0.83251715
10	0x3f58f467	0.8474793
11	0x3f3fc956	0.7491659
12	0x3f74c899	0.9561859
13	0x3f69dd98	0.9135375
14	0x3f682426	0.9068016
15	0x3f71df5d	0.9448145
16	0x3f7a4d08	0.9777379
17	0x3f2eac12	0.6823131
18	0x3f670dd2	0.90255463
19	0x3f629021	0.88501173
20	0x3f4f319f	0.8093509
21	0x3f637d36	0.8886293
22	0x3f6841a7	0.9072518
23	0x3f5cf7a5	0.86315376
24	0x3f6661de	0.89993083
25	0x3f55d10a	0.83522093
26	0x3f5e7599	0.8689819
27	0x3f56fa50	0.83975697
28	0x3f7e1801	0.9925538
29	0x3f91b6fb	1.1383966
30	0x3f6bc184	0.92092156
31	0x3f710edf	0.94163316
32	0x3f822416	1.0167263
33	0x3f7c95b3	0.9866592
34	0x3f78bee2	0.97166264
35	0x3f79530c	0.97392344
36	0x3f5b9b7e	0.8578414
37	0x3f7cf456	0.9881033
38	0x3f6078e8	0.8768449
39	0x3f5dc976	0.8663553
40	0x3f5d8796	0.8653501
41	0x3f670c3a	0.9025303
42	0x3f6051cc	0.8762481
43	0x3f66b175	0.9011453
44	0x3f6bf1fe	0.92166126
45	0x3f6b8561	0.92000395
46	0x3f5a8d6d	0.8537205
47	0x3f69902f	0.9123563
48	0x3f5b6c88	0.8571248
49	0x3f334db6	0.7004045
50	0x3f67a255	0.90482074
51	0x3f6a3f74	0.9150307
52	0x3f7ed7b3	0.9954788
53	0x3f59d497	0.8509001
54	0x3f745e5f	0.954565
55	0x3f63c891	0.88977915
56	0x3f72e3d4	0.9487889
57	0x3f60a4c4	0.8775141
58	0x3f7206a5	0.9454139
59	0x3f4d4fbb	0.80199784
60	0x3f6c4397	0.92290634
61	0x3f756f99	0.9587341
62	0x3f71af5d	0.9440821
63	0x3f5b5178	0.85671186
64	0x3f663dc0	0.89937973
65	0x3f4cb1ca	0.79958785
66	0x3f6e2a81	0.93033606
67	0x3f70712e	0.939227
68	0x3f872f87	1.0561379
69	0x3f3acb28	0.7296624
70	0x3f5746cf	0.8409242
71	0x3f6a23f8	0.91461134
72	0x3f5828fa	0.84437525
73	0x3f7d2791	0.988885
74	0x3f6c3cb6	0.9228014
75	0x3f605651	0.8763171
76	0x3f5398de	0.8265513
77	0x3f5d646a	0.86481345
78	0x3f7a49c1	0.9776879
79	0x3f676f4a	0.9040419
80	0x3f72e8a6	0.94886243
81	0x3f50e3f0	0.81597805
82	0x3f599e50	0.8500719
83	0x3f5aab40	0.85417557
84	0x3f65cb45	0.8976329
85	0x3f6f66be	0.9351615
86	0x3f5b27aa	0.856074
87	0x3f49eef4	0.7888024
88	0x3f7be32d	0.9839352
89	0x3f4a5a5a	0.79044116
90	0x3f6f3821	0.9344502
91	0x3f40ce52	0.7531482
92	0x3f7c4bd3	0.985532
93	0x3f7b344f	0.9812669
94	0x3f678053	0.9043018
95	0x3f72a341	0.94780356
96	0x3f6d4151	0.9267779
97	0x3f6a68e5	0.91566306
98	0x3f7a1019	0.97680813
99	0x3f38ad7d	0.7213972
100	0x3f6b5752	0.91930115
101	0x3f568f1a	0.83812106
102	0x3f5a5168	0.85280466
103	0x3f59e7e2	0.8511945
104	0x3f3bb44c	0.73321986
105	0x3f4b4927	0.79408497
106	0x3f6471eb	0.89236325
107	0x3f669e63	0.9008543
108	0x3f50249d	0.8130587
109	0x3f646325	0.8921378
110	0x3f60216b	0.8755099
111	0x3f55fa3b	0.83584946
112	0x3f6b3534	0.91878057
113	0x3f726045	0.94678146
114	0x3f6b96f9	0.9202724
115	0x3f6b94a8	0.92023706
116	0x3f613575	0.87972194
117	0x3f674fda	0.9035622
118	0x3f576f64	0.84154344
119	0x3f7d69f6	0.9898981
120	0x3f6aa053	0.91650885
121	0x3f729965	0.9476531
122	0x3f5f4040	0.8720741
123	0x3f6b3804	0.9188235
124	0x3f5fc5b8	0.8741107
125	0x3f7aefaa	0.9802195
126	0x3f4bddc0	0.7963524
127	0x3f64b16e	0.89333236

bn1.bias f4 [128]
0	0xbf24aafc	-0.643234
1	0xbea1f024	-0.31628525
2	0xbe9f3128	-0.3109219
3	0xbf116eaa	-0.56809485
4	0xbf2349e7	-0.6378464
5	0xbefaa7c4	-0.4895612
6	0xbf0c305c	-0.5476129
7	0xbefb1bba	-0.4904459
8	0xbf070665	-0.5274413
9	0xbefbc3d0	-0.4917283
10	0xbf31eff5	-0.6950677
11	0xbeb716df	-0.35759637
12	0xbf411888	-0.75428057
13	0xbf15c2f4	-0.585006
14	0xbf095505	-0.53645355
15	0xbf230f11	-0.63694865
16	0xbecf2902	-0.40460974
17	0xbd76b1a9	-0.060228024
18	0xbf1b6241	-0.606968
19	0xbee2b9b9	-0.4428232
20	0xbf05d86f	-0.52283376
21	0xbf202e00	-0.6257019
22	0xbf181086	-0.5940021
23	0xbe951ea6	-0.29124945
24	0xbf216ee9	-0.6305986
25	0xbf10ce8a	-0.56565154
26	0xbf0d9ee8	-0.55320597
27	0xbf13a926	-0.57679975
28	0xbee9f6df	-0.4569616
29	0xbef92ded	-0.4866785
30	0xbef4abcc	-0.4778732
31	0xbed18f56	-0.4092967
32	0xbf18005f	-0.59375566
33	0xbee8101c	-0.4532479
34	0xbee89850	-0.45428705
35	0xbf046579	-0.51717335
36	0xbf193b25	-0.5985587
37	0xbf2a682f	-0.6656522
38	0xbef08e69	-0.4698365
39	0xbefe964d	-0.49724045
40	0xbe9559f0	-0.2917018
41	0xbf1e319a	-0.61794436
42	0xbf0aa2c3	-0.54154605
43	0xbe88e281	-0.2673531
44	0xbf20ac24	-0.62762666
45	0xbea4daa4	-0.3219806
46	0xbf04415d	-0.51662236
47	0xbefd8af2	-0.4952007
48	0xbec96bee	-0.39340156
49	0xbe6651b1	-0.224921
50	0xbf165fff	-0.5874023
51	0xbebedc66	-0.37277526
52	0xbed3751c	-0.41300285
53	0xbee51184	-0.44739926
54	0xbec2c06f	-0.3803744
55	0xbe99c75b	-0.3003491
56	0xbf131e41	-0.5746804
57	0xbe6e37b7	-0.23263441
58	0xbf2d708c	-0.6774986
59	0xbecd48fe	-0.4009475
60	0xbeda3bda	-0.42623788
61	0xbf2ba961	-0.67055327
62	0xbee4b1b8	-0.4466684
63	0xbf3aef1c	-0.730211
64	0xbec40e3d	-0.38292113
65	0xbef5c029	-0.4799817
66	0xbf1018e1	-0.5628796
67	0xbf1a136e	-0.601859
68	0xbf1b641d	-0.60699636
69	0xbe565b9a	-0.2093338
70	0xbee6c083	-0.4506875
71	0xbf07eb0c	-0.5309303
72	0xbee8c1aa	-0.45460254
73	0xbeb9fbff	-0.3632507
74	0xbe93e5f4	-0.28886378
75	0xbf44777f	-0.76744837
76	0xbee2873f	-0.4424381
77	0xbe9814b6	-0.297033
78	0xbee608e6	-0.44928664
79	0xbf17b0f7	-0.592544
80	0xbebb2571	-0.36552003
81	0xbf0d3c22	-0.5516988
82	0xbef8b66f	-0.48576686
83	0xbf2675e3	-0.6502363
84	0xbef7cace	-0.48396915
85	0xbf312a3b	-0.69205064
86	0xbeb45bc4	-0.35226262
87	0xbe3b8527	-0.18312512
88	0xbede25d6	-0.43388242
89	0xbf1da352	-0.6157733
90	0xbf0ea358	-0.5571799
91	0xbeb7d675	-0.35905805
92	0xbf12c1c5	-0.5732692
93	0xbf159355	-0.58427936
94	0xbee4ef6c	-0.44713914
95	0xbf264355	-0.6494649
96	0xbf26c4c1	-0.6514397
97	0xbedeb539	-0.43497637
98	0xbec63627	-0.3871319
99	0xbde3213e	-0.11090325
100	0xbea3e5fa	-0.32011396
101	0xbf2f74b2	-0.6853744
102	0xbe6f0253	-0.2334073
103	0xbeec6cf6	-0.4617688
104	0xbea56939	-0.3230684
105	0xbea989c0	-0.33112907
106	0xbeff8d23	-0.49912366
107	0xbedddee1	-0.43334106
108	0xbed6e9d2	-0.41975266
109	0xbf2536a9	-0.6453653
110	0xbec67075	-0.38757673
111	0xbed421b7	-0.41431972
112	0xbecaa08e	-0.39575619
113	0xbeb9d5ce	-0.36295933
114	0xbec8bc76	-0.39206284
115	0xbea91b42	-0.3302861
116	0xbf2e3e3d	-0.6806372
117	0xbf2bd4e1	-0.671217
118	0xbf22b582	-0.6355821
119	0xbee79571	-0.45231202
120	0xbf33eabf	-0.7028007
121	0xbf0770e2	-0.5290662
122	0xbf0cfd16	-0.5507368
123	0xbee095a4	-0.43864167
124	0xbea3dc5a	-0.32004052
125	0xbf4c3ddb	-0.79781884
126	0xbef4ace6	-0.4778816
127	0xbec5e6cd	-0.3865265

bn1.running_mean f4 [128]
0	0x3e84f6d2	0.2596956
1	0x3e385b6f	0.18003629
2	0xbdd17ff0	-0.1022948
3	0x3e6cd3f0	0.23127723
4	0xbe18cb2f	-0.14921258
5	0x3d5d7b03	0.05407239
6	0x3d8a4792	0.06751932
7	0xbe6f3a23	-0.23362021
8	0xbe2c3c3a	-0.1681985
9	0x3cd2232b	0.025651535
10	0xbe30b1f0	-0.17255378
11	0xbdad80fd	-0.08471868
12	0xbd3b41d9	-0.045717094
13	0x3d8cb851	0.06871093
14	0x3e284cc0	0.16435528
15	0x3e0e836e	0.13917324
16	0x3dc1af5c	0.09457275
17	0xbdb140ba	-0.08654924
18	0x3e5b409e	0.21411368
19	0xbe12f78b	-0.14352243
20	0x3d6cdef9	0.05782983
21	0x3ca4a983	0.02010036
22	0xbdd34da2	-0.10317542
23	0xbdf801ed	-0.12109742
24	0xbe31b1f9	-0.17353047
25	0xbde1dc7b	-0.110283814
26	0x3d79256e	0.06082671
27	0x3e73d31f	0.23811005
28	0xbda57ffe	-0.08081053
29	0xbcb487dc	-0.022037439
30	0xbe58d827	-0.21176206
31	0xbdecc1d5	-0.11560408
32	0x3d988426	0.0744708
33	0x3e74de64	0.2391296
34	0xbe2bffcc	-0.16796798
35	0x3db7e1d9	0.08978624
36	0xbd469f91	-0.048492018
37	0xbe1cde85	-0.1531926
38	0x3e281672	0.16414812
39	0xbda412e9	-0.08011419
40	0x3e51a8b9	0.20474519
41	0x3d9024c1	0.0703826
42	0xbdf8d652	-0.12150253
43	0x3d58bd98	0.052915186
44	0x3e83aa97	0.25716087
45	0x3cfecd82	0.031103853
46	0x3d0efc56	0.034908615
47	0x3e0c6f33	0.13714294
48	0xbd3d0126	-0.046143673
49	0x3de06e4a	0.10958536
50	0xbe1f9d59	-0.15587367
51	0x3b405b7e	0.0029351409
52	0xbe1904b4	-0.149432
53	0x3d050cc4	0.032482877
54	0xbe443cea	-0.19163862
55	0xbd33dcf0	-0.043911874
56	0x3e434a0e	0.19071218
57	0xbdc493e7	-0.09598523
58	0xbb56c6f2	-0.003277239
59	0xbe53027d	-0.20606418
60	0x3e041f61	0.12902595
61	0x3d02f814	0.031974867
62	0x3ce9ec1e	0.028554972
63	0xbe49d2ac	-0.19709271
64	0x3df99f85	0.12188629
65	0xbe6407cf	-0.22268604
66	0x3e5d3c21	0.21604969
67	0xbe4e5108	-0.20148098
68	0x3dc85fdf	0.09783911
69	0x3cc8ca56	0.024510544
70	0xbe2173b2	-0.1576679
71	0xbe784314	-0.24244338
72	0x3dcb2ac9	0.0992027
73	0xbe19eadf	-0.15031002
74	0x3c895ac1	0.016766908
75	0x3e41da92	0.18931034
76	0x3dd85dfe	0.105648026
77	0xbe48a942	-0.19595817
78	0x3e05b7a8	0.1305834
79	0x3e3e732d	0.18598624
80	0x3e5f1a78	0.21787441
81	0xbe01423d	-0.12622924
82	0xbe4132fd	-0.18867107
83	0x3e2776ac	0.16353863
84	0x3d94fe35	0.07275049
85	0x3d9b50f5	0.07583801
86	0xbe0109f7	-0.12601458
87	0x3e1f880a	0.15579239
88	0xbe4985c3	-0.19679932
89	0xbdecf0dd	-0.115693785
90	0xbdc24016	-0.0948488
91	0xbe33072e	-0.17483208
92	0xbe19aae3	-0.15006594
93	0xbe7571a2	-0.23969129
94	0x3dcd174e	0.10014211
95	0xbda26062	-0.0792854
96	0x3e6ac566	0.22926864
97	0xbe7669b5	-0.24063762
98	0xbdd48aa2	-0.103780046
99	0xbe0483bd	-0.12940879
100	0xbb5c80a1	-0.0033646005
101	0xbe814b03	-0.25252542
102	0xbe34d9c1	-0.17661192
103	0x3e0c6532	0.13710478
104	0x3ca455fa	0.020060528
105	0xbe198f20	-0.14996004
106	0x3df80df7	0.121120386
107	0x3cbd29ae	0.023091163
108	0x3e0cda57	0.13755165
109	0xbe6cbbfc	-0.23118585
110	0xbc9909ae	-0.018681373
111	0x3b9d86ae	0.004807315
112	0xbe03f273	-0.12885456
113	0xbe47d6d2	-0.19515541
114	0xbe2fbde2	-0.17162278
115	0xbd69b403	-0.05705644
116	0xbd36e099	-0.044647787
117	0xbcf3e72e	-0.029773321
118	0xbde1d9bb	-0.11027857
119	0x3d63c825	0.055610795
120	0x3e31d572	0.17366579
121	0x3d15d1c6	0.03657701
122	0xbe4a5abc	-0.19761175
123	0x3db35b0d	0.08757601
124	0x3e7910f6	0.24322876
125	0x3e398104	0.18115622
126	0xbe25ab1a	-0.16178551
127	0x3e277828	0.1635443

bn1.running_var f4 [128]
0	0x3fcb3b7f	1.5877532
1	0x3ee472a4	0.44618714
2	0x3ec79fd5	0.3898913
3	0x3ecc19b7	0.3986337
4	0x3ede432a	0.43410617
5	0x3ea2457b	0.31693634
6	0x3f975fa0	1.1826057
7	0x3f0b3709	0.5438085
8	0x3eb9c1ea	0.36280757
9	0x3f0fcdd7	0.5617346
10	0x3f80ec24	1.0072064
11	0x3ef208f3	0.47272453
12	0x3f8f328a	1.1187298
13	0x3f327fd7	0.6972632
14	0x3ec3b0d3	0.38220844
15	0x3f1907d8	0.59777594
16	0x3f115c43	0.56781405
17	0x3f877b97	1.0584592
18	0x3f84f53b	1.0387338
19	0x3ea880ad	0.32910672
20	0x3f268d59	0.6505943
21	0x3f03c424	0.5147116
22	0x3f583f51	0.84471613
23	0x3f12360f	0.57113737
24	0x3f226c9a	0.6344696
25	0x3f97f520	1.1871681
26	0x3f8da41c	1.1065707
27	0x3e68adc0	0.2272253
28	0x3ed237b9	0.41058138
29	0x3eb30a1a	0.34968644
30	0x3eab8bc1	0.3350506
31	0x3edecf60	0.4351759
32	0x3f414fc9	0.7551237
33	0x3ef78223	0.48341474
34	0x3f171a36	0.5902437
35	0x3edb3ce6	0.428199
36	0x3fa4e309	1.2881786
37	0x3f18fdec	0.59762454
38	0x3eb97ba9	0.36227158
39	0x3f53f1e5	0.82790977
40	0x3e9fe1ef	0.3122706
41	0x3eec830b	0.46193728
42	0x3f97770f	1.1833209
43	0x3ed6fbda	0.41989022
44	0x3f175c80	0.5912552
45	0x3f187624	0.5955527
46	0x3f21e37f	0.63237756
47	0x3f265afc	0.6498258
48	0x3f28f7f5	0.6600335
49	0x3f4cc18d	0.79982835
50	0x3edc22d8	0.42995334
51	0x3e919c45	0.28439537
52	0x3ec91af7	0.39278385
53	0x3ec74b61	0.38924697
54	0x3e9a520d	0.30140725
55	0x3ec0a97d	0.3762931
56	0x3f04e54e	0.5191239
57	0x3e293cdd	0.16527124
58	0x3f62d384	0.88604
59	0x3eaac450	0.333529
60	0x3f4fac1b	0.8112199
61	0x3ef7fa92	0.48433357
62	0x3e8a52d4	0.27016318
63	0x3fb6bcfb	1.4276422
64	0x3e90fa41	0.2831593
65	0x3f52a114	0.82277036
66	0x3f4f5da4	0.8100226
67	0x3f24e2bf	0.6440849
68	0x3edb956d	0.4288744
69	0x3ecb242c	0.39676034
70	0x3f030bcf	0.51189893
71	0x40117b77	2.2731607
72	0x3f2a3535	0.6648744
73	0x3e9750d0	0.29553843
74	0x3f1157a4	0.56774354
75	0x3f03bca0	0.51459694
76	0x3f1fae58	0.623754
77	0x3f1af9c8	0.60537386
78	0x3f58e832	0.847293
79	0x3e8954b0	0.26822424
80	0x3ee5be3f	0.4487171
81	0x3eb8d675	0.36101118
82	0x3ee096b1	0.43864968
83	0x3ebad6a7	0.36491892
84	0x3f3499ba	0.7054707
85	0x3f5a58a1	0.85291487
86	0x3f155469	0.58331925
87	0x3edad2bc	0.42738903
88	0x3eb10a8b	0.34578356
89	0x3ef6c2b2	0.48195416
90	0x3ef7ab86	0.4837305
91	0x3f21c7f2	0.6319572
92	0x3f831940	1.0242081
93	0x3f746111	0.9546061
94	0x3ee9bf12	0.45653588
95	0x3f0e4b46	0.5558361
96	0x3e75dd69	0.24010243
97	0x3f1e82c7	0.619183
98	0x3f012b21	0.50456434
99	0x3f02a7d4	0.51037335
100	0x3eb161ba	0.34644872
101	0x3f602260	0.8755245
102	0x3f2eb6f1	0.68247896
103	0x3efc9bd8	0.4933765
104	0x3f474c45	0.77850753
105	0x3ec4f4f8	0.38468146
106	0x3f088ca6	0.5333961
107	0x3e588cd0	0.21147466
108	0x3ea32794	0.31866133
109	0x3ef510bb	0.47864327
110	0x3f1bd448	0.6087079
111	0x3f7c6255	0.9858754
112	0x3f2cbc0e	0.6747445
113	0x3f0836b5	0.53208476
114	0x3e88cde9	0.26719597
115	0x3ead0382	0.3379174
116	0x3e19fde4	0.15038258
117	0x3ece5a25	0.4030315
118	0x3f2679d3	0.6502964
119	0x3e80acb1	0.25131753
120	0x3e881219	0.26576307
121	0x3f0af419	0.54278713
122	0x3fe77d91	1.8085195
123	0x3ee972a0	0.45595264
124	0x3e9f83ba	0.31155187
125	0x3f0ac636	0.54208696
126	0x3f5e1b63	0.8676054
127	0x3ec771ae	0.38953918

bn2.weight f4 [128]
0	0x3f5a361b	0.8523881
1	0x3f41da37	0.75723594
2	0x3f5f18e3	0.8714735
3	0x3f7e139a	0.9924866
4	0x3f535dc8	0.82564974
5	0x3f7a75d6	0.97836053
6	0x3f69e820	0.9136982
7	0x3f4da6aa	0.80332434
8	0x3f61ad25	0.8815482
9	0x3f4f9cc5	0.81098586
10	0x3f6f1d39	0.93403965
11	0x3f7181c1	0.94338614
12	0x3f4bf7d9	0.7967506
13	0x3f6e3a46	0.9305767
14	0x3f54de8e	0.8315209
15	0x3f69f82d	0.9139431
16	0x3f5d46c6	0.86436117
17	0x3f6df314	0.9294903
18	0x3f553d78	0.8329692
19	0x3f7b6b81	0.9821091
20	0x3f5b4385	0.856499
21	0x3f6cc922	0.92494404
22	0x3f4ea2ed	0.80717355
23	0x3f59fa6a	0.85147727
24	0x3f5cddf7	0.8627619
25	0x3f68b33e	0.908985
26	0x3f7b258c	0.98104167
27	0x3f5c2539	0.859943
28	0x3f6519fd	0.8949278
29	0x3f4ed5fa	0.8079525
30	0x3f6a42bb	0.9150807
31	0x3f5b01e1	0.8554974
32	0x3f57d8af	0.8431501
33	0x3f75f2d4	0.9607365
34	0x3f5d8fe9	0.86547714
35	0x3f608965	0.8770965
36	0x3f5b888a	0.8575522
37	0x3f6140a7	0.87989277
38	0x3f662d68	0.89913034
39	0x3f720998	0.9454589
40	0x3f622ace	0.88346565
41	0x3f7c32fd	0.985153
42	0x3f6a2f39	0.91478306
43	0x3f5f6c3e	0.8727454
44	0x3f44b3a5	0.76836616
45	0x3f7b87a0	0.9825382
46	0x3f6b35b8	0.91878843
47	0x3f730c95	0.94941074
48	0x3f5a1d1e	0.8520068
49	0x3f70d398	0.94072866
50	0x3f503cbe	0.81342685
51	0x3f4a2b09	0.78971916
52	0x3f628dd7	0.8849768
53	0x3f74c968	0.9561982
54	0x3f5cf9d0	0.86318684
55	0x3f6d3891	0.9266444
56	0x3f70e4b9	0.94099003
57	0x3f603719	0.8758407
58	0x3f74caf7	0.956222
59	0x3f7275b0	0.94710827
60	0x3f52ef03	0.8239595
61	0x3f7a5582	0.97786725
62	0x3f611be1	0.87933165
63	0x3f52c9fd	0.8233946
64	0x3f609ffc	0.87744117
65	0x3f608709	0.8770605
66	0x3f54e70e	0.8316506
67	0x3f79b88d	0.9754723
68	0x3f557829	0.83386475
69	0x3f785be2	0.970152
70	0x3f5af4e7	0.8552994
71	0x3f6bb37a	0.92070735
72	0x3f667881	0.90027624
73	0x3f64b90f	0.89344877
74	0x3f7943bc	0.9736898
75	0x3f5b196d	0.8558567
76	0x3f62f89b	0.8866059
77	0x3f541a70	0.8285284
78	0x3f61adf0	0.8815603
79	0x3f658f34	0.89671636
80	0x3f54c133	0.831073
81	0x3f5cb21e	0.86209285
82	0x3f4b1163	0.79323405
83	0x3f5e9c67	0.869574
84	0x3f7b6079	0.9819408
85	0x3f677068	0.90405893
86	0x3f83800d	1.0273453
87	0x3f7391be	0.9514426
88	0x3f554659	0.83310467
89	0x3f5ac3b9	0.854549
90	0x3f47b459	0.78009564
91	0x3f5e2b23	0.8678457
92	0x3f733674	0.95004964
93	0x3f61b1dd	0.8816202
94	0x3f4dce57	0.80392975
95	0x3f78accf	0.97138685
96	0x3f626761	0.88438994
97	0x3f4b445b	0.7940118
98	0x3f79c72d	0.97569543
99	0x3f578f66	0.84203184
100	0x3f6fee35	0.9372285
101	0x3f57ca34	0.8429291
102	0x3f51afb7	0.81908745
103	0x3f5f1cf1	0.87153536
104	0x3f5b88a2	0.8575536
105	0x3f6c8b4c	0.9240005
106	0x3f770095	0.96485263
107	0x3f582aff	0.84440607
108	0x3f7317e6	0.9495834
109	0x3f6e5da6	0.93111646
110	0x3f6b0810	0.9180918
111	0x3f6725dd	0.9029215
112	0x3f71ed2d	0.94502527
113	0x3f650b22	0.8947011
114	0x3f6fc66b	0.93662137
115	0x3f679cc3	0.90473574
116	0x3f6d77b6	0.9276079
117	0x3f6dd8a1	0.92908674
118	0x3f5f354f	0.8719072
119	0x3f4f48f5	0.809707
120	0x3f62b478	0.88556623
121	0x3f7fc37c	0.9990766
122	0x3f71858a	0.9434439
123	0x3f40fa05	0.753815
124	0x3f53e5e6	0.8277267
125	0x3f3f20cf	0.74659437
126	0x3f6278d0	0.88465595
127	0x3f4b89b9	0.79507023
