model/saved_model/premier_league_predictor.pth (torch, 90644 bytes, 24 tensors)

fc1.weight f4 [128, 25]
00000000: 80ff 0fbe 8f3c ff3d aec5 10bb 9a78 57bd
00000010: 1baf 4abe 3565 4a3e cbf3 b13d d143 b3bd
00000020: 7bef f63d 838e 393e 2a3f d03d 95e3 20be
00000030: e4c2 073e d6b8 49be f630 f43c 7a99 393e
00000040: bdbf d53d ac19 873d 2da5 773d 9c36 cdbd
00000050: ca8a a13d be34 023d 89ab 0a3e cccc 5e3d
00000060: 7460 33be adc5 113e 1330 39bc f13d 97bd
00000070: 14c0 123d 02bc 54be 3467 583d c7e7 073d
00000080: b2a6 e539 7458 aabd 3bc6 093d 7485 1b3e
00000090: 5d9b 17bd ba5d 4f3e 9b02 ed3d 9fb3 6e3e
000000a0: a11c b6bd 0405 babd 0933 d83d dcfd b53d
000000b0: e786 073e a9f4 d7bc 003e 33bc 83a3 27bd
000000c0: d87e 8cbd 931b 39be eb0a 20be f5aa 603d
000000d0: b165 fd3c 1a53 05bd 253d 1cbe 2dd2 8f3d
000000e0: 5c2e b6bd 1ec7 8fbd e52e c5bc 29d1 32be
000000f0: 31e2 5fbe 9310 b63d 2a76 a7bd edd0 88bd
00000100: cfce 02bc 270d 693d e92e 1a3e 0d56 30be
00000110: 0cdb 073e 671a 863d 7edf 48be fc4d fd3c
00000120: 2a5a 603e d676 0e3e 3a83 0d3e 9bc2 ea3d
00000130: cecd 693c 1ecf a73d ec93 613d 89d2 b1bd
00000140: e5ba 37be 3415 2dbd 4abd 223b d036 3d3e
00000150: b7c0 87be 1cc1 ddbd 9e7f 01be a818 8bbd
00000160: 1437 263e b296 01be 59ec 7d3d c224 4fbd
00000170: 8b68 4cbd 2c41 a4bd e692 483d b907 dbbd
00000180: acf2 a4bd fc0b 3f3e a77e 4a3e 2591 243e
00000190: 08ef 0a3e 4a51 f23c a770 e43d c8aa 42bc
000001a0: ee2f 323e c7b0 433e 18bb 48be 6e82 1d3e
000001b0: b4e2 693c 4d87 f5bd c6bf 6abd ff65 af3d
000001c0: 5f81 863d 1926 3bbd d484 663d ca7d 0fbe
000001d0: 3270 cdbd e8be 303d cad4 c93d 453e 273e
000001e0: cf96 ed3d 9f4b 683d a4da 3b3e 4db7 ce3c
000001f0: cad4 44be 816b f73d d75c 12bd 6430 0fbe
00000200: 9599 95bd 0570 5f3d d34d 77bd 6a2e d1bd
00000210: 825a 36be c5db 0f3e ffd8 2cbe b2a1 46bd
00000220: 9577 4b3d 3ac8 92bd 0aa9 663d f8e5 4d3e
00000230: 73c0 3fbe 552b 483e 5efa 553c c751 0ebe
00000240: ff7e 7dbd 5c6d 1dbe 5eee 103d f734 eebd
00000250: 97f2 1d3e 03f1 17bd 49b1 67bd 2fa0 0e3e
00000260: 9adb 48be 25de 3d3c ed80 273e ef39 53be
00000270: b91f bcbd 1efe c23d 42e8 dbbc 007b 1e3e
00000280: 2975 193e 21f6 e63c 4c48 2dbd 1d9a 2e3e
00000290: eace 3e3e 951f 49be 5141 1f3c a275 df3d
000002a0: c62c a2bd f5d1 283e 7f15 2e3e 8817 e93d
000002b0: ce90 1c3d 8483 073d 505b b4bd 3421 e33d
000002c0: fac2 b0bd 1c8d f93d 4823 a23d c931 7cbd
000002d0: 84eb 983d 78e3 78bd 7328 503d 4b4a d23d
000002e0: 1c0e 1abd 2595 a03b 227c 833d f901 35be
000002f0: 20e5 cc3d a3b7 34bd 4905 ba3c a419 57bd
00000300: d8e6 50bd ae23 453e f478 ae3d 7ad3 353e
00000310: ed11 01be fc2a 39bc bbc7 b43d c524 adbc
00000320: 687b bcbc 66a4 b13d 173c a33c acea d93b
00000330: 2734 cc3d e8c7 d63c bad4 263d a315 173e
00000340: 617d f5bc aee2 dfbc f698 adbd 4793 a2bd
00000350: 92b6 c1bb 8593 a03c 895c 50be 91a2 53bd
00000360: 7129 88bc aa1a 473e 2510 02bd c462 cb3d
00000370: 05bc bb3d f9d5 753b 127e 3cbd 9f41 073d
00000380: 4535 90bd 1594 f3bd 6d6b e13c c294 be3d
00000390: ef6e 053c 2b53 c23d 078c 343e 5d7a 333e
000003a0: 460f 1e3e 0962 f43d f0b4 c0bd 29e0 603d
000003b0: 16d0 23be 0d60 07be 80de 45be 7e13 7b3c
000003c0: da5c 2c3e 923f b63d 1c9a e0bd 3aa9 4a3e
000003d0: 1100 243e 6227 4a3d e9b2 d93c 605b 85be
000003e0: 3e0d 923d 3a99 12bc 40f2 a23d 5f22 d33d
000003f0: a377 22bc 8dc3 04bd 23ef 013e ff2a 13bc
-0.1406231 0.124627225 -0.0022090483 -0.05260525 -0.1979336 0.1976517 0.08689078 -0.08753169
0.12057396 0.1812077 0.101682976 -0.15711816 0.13257939 -0.19699416 0.029808503 0.18124953
0.10436962 0.065966934 0.06046026 -0.100201815 0.078878 0.03178858 0.13541998 0.05439453
-0.17517263 0.14235564 -0.011302966 -0.07384861 0.03582771 -0.20774844 0.052832797 0.033180024
0.0004380248 -0.08317652 0.033636313 0.15187627 -0.0370134 0.20250598 0.115727626 0.23310708
-0.08892179 -0.09082988 0.10556609 0.088863105 0.13235055 -0.02636178 -0.010940075 -0.04092742
-0.06860131 -0.18076925 -0.15629165 0.054850537 0.03093228 -0.032549955 -0.152577 0.0702251
-0.08895561 -0.070204005 -0.024070213 -0.17462601 -0.21863629 0.0888988 -0.08176835 -0.066804744
-0.007983877 0.05689731 0.15056957 -0.17220326 0.13267154 0.065480046 -0.19616506 0.030920975
0.21909395 0.1391252 0.1381959 0.11462899 0.014270259 0.08193801 0.05507271 -0.086827345
-0.17942388 -0.04225655 0.0024832063 0.1847794 -0.26514217 -0.10827848 -0.12646338 -0.06791812
0.16231948 -0.12655142 0.061992977 -0.050572164 -0.049904387 -0.08020243 0.04896822 -0.10694832
-0.080540985 0.18656915 0.19774877 0.16070993 0.13567746 0.029579777 0.11154299 -0.011881538
0.17401096 0.19110404 -0.1960262 0.15381786 0.014275242 -0.11988697 -0.057311796 0.08564376
0.06567644 -0.04569063 0.05627902 -0.14012828 -0.10031165 0.043150812 0.098550394 0.16332348
0.1160103 0.056712743 0.18345124 0.025233889 -0.19221798 0.120810516 -0.03573307 -0.13983303
-0.07304684 0.05455019 -0.060376953 -0.10213931 -0.17807963 0.14048679 -0.16879652 -0.04849405
0.04967459 -0.071670964 0.056313552 0.20107257 -0.18725757 0.1954778 0.0130601805 -0.13898383
-0.06188869 -0.15373749 0.035383575 -0.11631196 0.15424572 -0.03709508 -0.056565557 0.13928293
-0.19615021 0.011588608 0.16357775 -0.20627569 -0.09185738 0.09521125 -0.026844148 0.15476608
0.149861 0.028193535 -0.042305276 0.17050977 0.18633619 -0.19640954 0.0097201625 0.109111086
-0.07918696 0.16486342 0.17000388 0.11381441 0.038224034 0.033084407 -0.08806479 0.11090317
-0.08630939 0.121851176 0.079168856 -0.061570916 0.07466796 -0.060763806 0.050819825 0.102680765
-0.037611112 0.004900592 0.06420161 -0.17676534 0.100046396 -0.044120442 0.022707598 -0.052514687
-0.0510014 0.19251892 0.08519164 0.17756453 -0.12604494 -0.011301752 0.08827158 -0.021135697
-0.023008063 0.08673935 0.019926114 0.0066502895 0.09970885 0.02621837 0.040730216 0.14754348
-0.029967012 -0.027329769 -0.084764406 -0.07938247 -0.0059116567 0.019601593 -0.203478 -0.051668707
-0.016621323 0.19443765 -0.031753678 0.099309474 0.09166721 0.003751157 -0.046018668 0.033021566
-0.0704141 -0.11893479 0.027517045 0.09305717 0.008144124 0.09488519 0.17631541 0.17527147
0.15435514 0.11932761 -0.09409511 0.054901276 -0.15997347 -0.13220234 -0.19323158 0.0153244715
0.16832295 0.08898844 -0.10966894 0.19791117 0.1601565 0.049353965 0.026574569 -0.26046276
0.07131432 -0.008947665 0.07956362 0.1030929 -0.009916219 -0.032413054 0.1268888 -0.008982419

fc1.bias f4 [128]
00000000: 750b 7cbd 7e8a 3c3e 9157 26be 6839 07be
00000010: dc57 75bd 6d39 9fbd 7329 23be d8a3 2a3e
00000020: 4ada 38be 86dc 82be 7949 f83c 56b3 553e
00000030: e509 25be e46d 13bd a404 66bd 8055 31be
00000040: 1163 93bd 5405 7bbe 9b60 be3d 7714 40be
00000050: 7232 cf3c 4a48 43be d4e6 a1bd c01a 2d3e
00000060: ebe6 023e 967f 243e 43eb 20bc ee9f 063d
00000070: 1fc4 28be e015 cabd 2623 9d3c fe14 e83d
00000080: 158d 5d3d 15a2 3dbe 76a0 ccbb 88e5 093e
00000090: 6b98 aebd acdf 0f3d 9482 8bbe 3de7 913d
000000a0: 9c01 14be 4881 c6bd 3333 993d 8487 9fbd
000000b0: 3dc2 833d b80b 3a3d d98b 33be 0fa4 a5bc
000000c0: ec01 c53d d650 1fbe 5869 3ebe b203 2fbe
000000d0: bb34 7b3e 9c7b edbd 735e e2bd 43f4 45be
000000e0: 910a 04be 3eb0 54bd ad40 063e 1b70 a0bd
000000f0: 566e ff3d 07c3 cbbd 3f2f d0bd 2754 733e
00000100: 8bb6 4abd 072e b8bd cf67 0b3c 83ee 963d
00000110: ea04 793d 4af5 203e e654 84ba 7cbf 653b
00000120: 4b47 353d 7d6b 5dbc aef2 653d c8aa c3bd
00000130: 9ab0 133e 0513 46bd d8ac c23d eb8d 18bd
00000140: 8cf0 d03d 76e8 0b3c 2631 113e 9ef0 d63c
00000150: dbfe cf3d 0539 26bd a5e7 dbbd 6484 603d
00000160: 9ec9 02be 90ae 653d ac3d 16bb d8e1 203d
00000170: 2d12 93bd 5489 843c be08 f63d 3533 c53c
00000180: e04a b9bd a805 2bbe 9087 afbc 6c56 8abd
00000190: c6de f9bd 532f 193d cdc0 35be edc4 8ebd
000001a0: a606 6dbe a8c8 2e3e e373 c2bd 6430 3cbe
000001b0: 823d 1fbd 28c3 2c3e cde4 203e 9277 0fbe
000001c0: 04cd 183e 800e 8ebe cf63 003e 51e6 22bd
000001d0: 18bb e1bd ae1f 1cbd 8b25 d43d 8772 8ebd
000001e0: ef8f 9cbb 1d87 2a3d dd2b bbbd b2f0 1e3e
000001f0: bce2 3d3e f1b9 bfba 453a adbb 18e3 01bd
-0.061534364 0.18412206 -0.16244341 -0.13205492 -0.059898242 -0.07774625 -0.1593378 0.16664064
-0.1805202 -0.2555887 0.030308472 0.20869192 -0.16117056 -0.03599347 -0.05615677 -0.17317772
-0.0719663 -0.24513751 0.0929577 -0.18757807 0.025292609 -0.19070545 -0.07905355 0.16904736
0.127834 0.16064295 -0.009821716 0.032867365 -0.16481064 -0.098674536 0.0191818 0.11332129
0.054089624 -0.1851886 -0.0062447144 0.13466465 -0.08525165 0.03512542 -0.2724806 0.07124183
-0.14453739 -0.09692627 0.074804686 -0.077895194 0.064335324 0.045421332 -0.17533816 -0.02021983
0.09619507 -0.1555818 -0.18594873 -0.17091253 0.24531834 -0.11595842 -0.11053171 -0.1933146
-0.12894656 -0.05192589 0.1311061 -0.078338824 0.12472217 -0.09949308 -0.101652615 0.2376257
-0.049490493 -0.08993154 0.008508637 0.07369711 0.060795702 0.1571857 -0.0010096102 0.003505676
0.044257443 -0.013514397 0.05613964 -0.09554058 0.14422837 -0.048357982 0.095056236 -0.03724472
0.10202131 0.00853931 0.14178905 0.026237782 0.10156032 -0.04058172 -0.10737542 0.054813758
-0.12772223 0.05607468 -0.0022924943 0.03927788 -0.07181201 0.016178764 0.12013386 0.024072269
-0.090474844 -0.16701376 -0.021426946 -0.06754765 -0.12200694 0.037398648 -0.17749329 -0.06971154
-0.23147067 0.17068732 -0.0949476 -0.18377835 -0.038877018 0.16871321 0.1571228 -0.14010456
0.14921957 -0.27745438 0.12538074 -0.039770428 -0.110220134 -0.03811615 0.10358723 -0.06955438
-0.0047779004 0.04163276 -0.09139226 0.15521505 0.18543524 -0.0014627558 -0.0052864873 -0.031710714

bn1.weight f4 [128]
00000000: 64c7 763f c7da 833f 13d9 823f a34a 7a3f
00000010: b893 763f 2787 833f 1ae6 7e3f 6b05 813f
00000020: fab8 813f 70c8 843f 5423 823f 1d2a 743f
00000030: 36f4 6f3f 03c6 843f 14d0 773f 9713 823f
00000040: 297e 893f ed3a 743f c26a 803f fa39 843f
00000050: ad9d 7a3f f15c 8f3f 90c5 6e3f a133 7d3f
00000060: 6561 823f 8821 7e3f 52bf 803f 8f91 803f
00000070: 860a 823f 237d 7e3f f984 7e3f c631 773f
00000080: 51dc 783f 6b46 7f3f d619 703f 9d58 773f
00000090: 04b2 803f d05a 833f 7a82 8d3f acd8 763f
000000a0: bc96 853f f27a 773f 9514 7a3f 1818 813f
000000b0: b25d 803f abce 823f 1d89 783f d2e6 7a3f
000000c0: 9389 813f cafc 7b3f 7753 863f 44d0 7b3f
000000d0: 19b5 7f3f 3597 823f d225 823f 3433 7d3f
000000e0: d5d6 793f b09f 853f ecf6 713f df2a 763f
000000f0: 385f 733f 0d2e 813f 2626 793f a0b2 823f
00000100: 83f4 753f 88b4 803f 0a3e 783f 4998 843f
00000110: 3996 853f cc74 803f f2c3 763f 6c1a 763f
00000120: 5029 7c3f 241e 7f3f 9ef5 733f 7e66 833f
00000130: 170e 783f 5a87 7b3f c207 7a3f ce20 843f
00000140: 2fbc 743f 2de1 6f3f 6cf9 7a3f 7598 7b3f
00000150: 3cb2 843f 5dcd 743f 2b28 7f3f b29a 733f
00000160: 0333 8a3f 8d9f 823f dc87 813f 376b 7b3f
00000170: ec99 7b3f 7d17 6e3f 0958 803f 2075 833f
00000180: 5ac9 853f 7ce4 7e3f 81bd 7b3f c7b7 823f
00000190: 840a 823f 3192 823f bdd7 813f c3f0 803f
000001a0: a9a0 853f 6302 823f 6323 803f 900f 813f
000001b0: 9371 7b3f d4da 773f 73f9 733f ab36 763f
000001c0: 0030 7d3f c130 7d3f 00c6 803f dfd5 833f
000001d0: e75c 813f 5cde 763f 6bd4 743f 4507 813f
000001e0: e3dc 7a3f c589 883f b63d 853f c1dd 7e3f
000001f0: 8ca9 843f 726a 7c3f 2ca7 733f 7ae9 823f
0.96397996 1.030114 1.0222496 0.97770137 0.9631915 1.027562 0.9956986 1.0079778
1.0134575 1.0373669 1.0167031 0.9537676 0.9373201 1.0372928 0.9680188 1.0162228
1.0741626 0.95402414 1.003258 1.0330193 0.97896844 1.1200238 0.93270206 0.98906904
1.0185972 0.99269915 1.0058386 1.0044421 1.0159461 0.99409693 0.9942165 0.96560323
0.97211176 0.99716824 0.9378942 0.9661959 1.0054326 1.0262089 1.1055443 0.96424365
1.0436625 0.96671975 0.97687656 1.0085478 1.0028594 1.021932 0.9708422 0.98008454
1.0120109 0.984326 1.0494221 0.98364663 0.9988571 1.0202395 1.0167792 0.98906255
0.9759343 1.0439358 0.945174 0.96159166 0.9506717 1.0092179 0.97323835 1.0210762
0.9607622 1.0055094 0.96969664 1.0358974 1.0436469 1.0035644 0.9639274 0.96134067
0.9850054 0.99655366 0.9529666 1.0265653 0.968965 0.98253405 0.9766809 1.0322511
0.95599645 0.93702966 0.9803684 0.98279506 1.0366893 0.9562586 0.99670666 0.9515792
1.0796818 1.0204941 1.0119586 0.9821047 0.9828174 0.9300459 1.0026866 1.0270119
1.0452073 0.9956739 0.98336035 1.0212334 1.0159459 1.0200864 1.0143963 1.0073475
1.0439655 1.0156978 1.0010799 1.0082874 0.98220176 0.9681828 0.95302504 0.96177167
0.9890137 0.9890252 1.0060425 1.0299643 1.0106477 0.96433043 0.95636624 1.0080343
0.97993296 1.0667044 1.0409458 0.9955712 1.0364242 0.9859992 0.9517696 1.0227501

bn1.bias f4 [128]
00000000: dcad 93bc 25b9 d3bb 9efc 863d 74b6 1e3d
00000010: d438 9f3c eb3e b23c 06da 3e3d 3b02 ecbc
00000020: cf85 d73c 16d7 56bd 2816 05bd c2dc e1bb
00000030: b658 dd3c 6af9 58bd 8bf4 47bc e042 5bb9
00000040: e67f 3d3c ca46 133d d279 e63b 111c c13c
00000050: 5e63 8ebc d64e 133d 54b7 e1bc c578 f23c
00000060: 55e3 d43b 0ad8 1d3d 68d6 233c 0200 7c3d
00000070: 50f2 83bd 9f87 90bc 64fa 273b 9638 793c
00000080: d673 e6bc a909 ca3b b7e8 7c3b 6369 9f3c
00000090: 5995 3fbc 9c1f 5b3d 106f ee3c b739 1c3d
000000a0: 1a4c a1bc c4da bb3c c8cf bb3d 5888 08bc
000000b0: 0075 073d 554b 973c 3c62 4abb 6b24 143a
000000c0: de89 6dbc 5bbf 5ebd 8494 7e3d e6b2 3fbc
000000d0: 0ce5 b5bc 63b0 843d f12e 20bd 5fa5 6a3c
000000e0: 8954 02bd 10fd 8d3d 21da 52bc be29 563c
000000f0: 880b a6bb 39fc 6c3b 28bb ecbc 0b34 0b3d
00000100: 0196 ad3b 68c5 2e3c 2836 e3bb 8b99 6fbc
00000110: b184 9f3c 45e3 52bd cd34 c83c d9f4 c93c
00000120: c36e 363d 3bbd 063d 597a 8f3c 7679 7fbd
00000130: d6b4 473d 5980 c6bc 05af abbb dd27 8d3c
00000140: 6d13 8d3d 1e8a 1fbd 9444 513b 68ce 87bd
00000150: 3f2e a2bc 8f55 213d 7518 ae3c 9cf8 8f3d
00000160: 47d2 8d3d c900 113d 38a3 853b f981 893c
00000170: c6f2 b6bc 7797 353b 81e4 ce3c 8eaa 45bc
00000180: 0ddd c53b 1f8c 1b3c 6c1e 8a3c ef74 e9bc
00000190: 710d 2bbd e037 85bc 8008 363c 932f bdbc
000001a0: 21c8 0a3d 5d00 dbba bf2c 843b 416f 2d3d
000001b0: 3b1e 133d 987d 34bb 4e1d 2fbc 0638 963d
000001c0: d34d 1d3d 3560 8bbc c220 363d 29b8 d83c
000001d0: a2a3 313d 3e64 903c d0d4 03bc 3a93 dc3c
000001e0: 5f9a 073c 5665 af3d 72aa 103d e2e3 943b
000001f0: 95c2 f7bc 6e1f 9d3b d7c2 bebb 8c8c 0abd
-0.018027239 -0.00646128 0.06591152 0.03874822 0.019436277 0.021758517 0.046594642 -0.028809657
0.026308922 -0.052451216 -0.032491833 -0.0068927715 0.02701984 -0.052972235 -0.0122043 -0.0002091038
0.011566138 0.03595618 0.007033565 0.023572953 -0.017381366 0.035963856 -0.027553238 0.029598603
0.0064968267 0.03853611 0.009999849 0.061523445 -0.06442702 -0.017642794 0.0025631422 0.015211245
-0.028131407 0.0061657024 0.0038590857 0.019459432 -0.011693322 0.053496942 0.029105693 0.03814098
-0.019689608 0.022931464 0.091704905 -0.008333288 0.033070564 0.018468538 -0.0030881306 0.00056511787
-0.014498202 -0.05438171 0.062153354 -0.011700368 -0.022203945 0.064789556 -0.039107267 0.014321654
-0.0318189 0.069330335 -0.012869389 0.013071476 -0.0050672926 0.0036161079 -0.028897837 0.03398518
0.005297423 0.0106671825 -0.006933946 -0.01462401 0.019472452 -0.051486272 0.02443924 0.024652885
0.044539224 0.032895308 0.017514395 -0.062371694 0.048756443 -0.024231123 -0.00523937 0.017230922
0.06888471 -0.03895008 0.0031931745 -0.06631166 -0.019797442 0.039388236 0.021251896 0.0702984
0.06924873 0.03540114 0.004078295 0.016785609 -0.02233256 0.0027708688 0.025255444 -0.012064589
0.006038314 0.009493857 0.01686021 -0.028498141 -0.041760866 -0.016261995 0.011110425 -0.023093974
0.033882264 -0.0016708482 0.0040336545 0.042342428 0.035917502 -0.002754068 -0.010688139 0.073349044
0.038404297 -0.017013649 0.044464834 0.026455002 0.043368943 0.017625924 -0.008046344 0.026925672
0.008276551 0.0856425 0.0353188 0.0045437673 -0.030244151 0.0047950065 -0.0058215666 -0.033825442

bn1.running_mean f4 [128]
00000000: bc8c 763e 4cf3 923e 6211 173e 23e7 cf3d
00000010: 5d82 803e 0152 783e 78eb 693e 8562 8b3e
00000020: 0b6d 973d 39dc 203e da45 4e3e 2669 a23e
00000030: 638b 1d3e 7b20 3a3e 20e6 2e3e d0ec c53d
00000040: 42f4 0a3e afaf 2a3e 74cd 843e b936 113e
00000050: b2b0 b53e 9d9b 763d a1e6 2f3e aef5 c13e
00000060: 627e 803e 8e5e bb3e a735 623e 3d55 6d3e
00000070: 4d0c fc3d f505 373e 291c 533e ef5d d13e
00000080: dd52 5c3e 9c22 033e 2e89 8b3e 8b3d ef3e
00000090: f7a8 5b3e 9f26 7d3e 7724 0e3d 0e16 923e
000000a0: 3501 b93d c83e 423e 9cb8 6b3e 28bd 2b3e
000000b0: 61e5 703e a7c0 523e f5b2 423e 125d 353e
000000c0: 9aaf 5b3e bcb0 153e 6766 143e 90b1 403e
000000d0: 7046 bf3e 4d4d 1c3e 80ca 823e edeb fe3d
000000e0: ad64 5d3e 74c2 ee3d e3c3 9e3e 5bfc 1e3e
000000f0: 704d 9b3e 5606 153e bd9f 583e 7bbf ba3e
00000100: 66ab 9b3e e3e1 383e d5ca b53e 507e 723e
00000110: f45c 783e d2ad 823e db40 933e b16a 973e
00000120: ecf1 883e 0c74 803e 2d19 5c3e e88d df3d
00000130: cfe5 763e f417 7e3e 1e61 823e bcda 103e
00000140: d9d7 843e fa90 713e 2155 7e3e 3540 853e
00000150: 92c3 a33e b712 6f3e 1b53 293e de71 893e
00000160: 9079 e23d f9d8 363e eb3c 933e c547 5d3e
00000170: 8346 9f3e 1d54 a43e 9d80 893e d8aa 3d3e
00000180: 3d6c 033e c740 053e f7b1 513e cd28 183e
00000190: fd8d 123e b98a 4e3e a181 f73d 2021 243e
000001a0: f909 b03d b245 b23e 5db9 113e a3b5 0e3e
000001b0: c7be 493e e91e 923e 7e5d b63e db97 093e
000001c0: 3a1f 833e f16e a63d 77ab b13e ba9f 293e
000001d0: 7cea 053e 99cb b33e df9c b03e c054 2b3e
000001e0: ad12 3d3e 6ec9 5f3e 8c89 ff3d 1e8c ca3e
000001f0: 83d9 9c3e 6658 383e 2927 613e 2fe0 7b3e
0.24077123 0.28701246 0.14752725 0.10151508 0.2509946 0.24250032 0.2284373 0.27223602
0.07393845 0.15709008 0.20143834 0.31720847 0.15385203 0.18176453 0.17079973 0.09664309
0.1356974 0.1666858 0.25937998 0.14181031 0.3548637 0.060207 0.17177822 0.3788275
0.25096422 0.36595577 0.22090779 0.23177047 0.12307034 0.17873366 0.20616211 0.40891978
0.21515985 0.12806171 0.27253097 0.4672664 0.21451174 0.24721764 0.034702744 0.2853245
0.09033433 0.18969262 0.23019642 0.16771376 0.23525001 0.20581304 0.19013579 0.17711285
0.21453705 0.146182 0.14492188 0.18817735 0.37358427 0.15263863 0.2554512 0.12447343
0.21620436 0.11658183 0.31008825 0.15525953 0.30332518 0.14553198 0.21154685 0.36474213
0.30404204 0.18054919 0.3550631 0.23680997 0.24254209 0.2552324 0.28760418 0.29573587
0.26747072 0.25088537 0.21493979 0.10915738 0.24111103 0.24813825 0.2546472 0.1414594
0.2594593 0.2359046 0.24837162 0.2602555 0.31985146 0.23346983 0.16535608 0.26844686
0.110583425 0.17856206 0.28757414 0.21609409 0.31108484 0.32095423 0.26855937 0.18522203
0.12834258 0.13012992 0.20478044 0.14859314 0.14311977 0.20170106 0.120852716 0.16028261
0.08595652 0.34818798 0.14230867 0.13936476 0.19701682 0.28539208 0.35618204 0.13436835
0.2560976 0.08126629 0.3470113 0.16564837 0.1307773 0.3511627 0.34494683 0.16731548
0.18464155 0.21854183 0.12477407 0.39560026 0.30634698 0.18002471 0.21987595 0.24597238

bn1.running_var f4 [128]
00000000: 391c 133e a2fd d83d 3926 7f3d 2f09 1e3d
00000010: 84a0 043e 8752 093e 4cc0 043e 1d20 d13d
00000020: 4adc 033d 4d46 b43d 21db b83d 8fce 103e
00000030: 73c4 bf3d 5ec8 8b3d 0683 823d 1676 0a3d
00000040: 451e 813d 7fb5 973d f340 fa3d 5d63 813d
00000050: 825c 733e 6a0e 5f3c 633a e43d 6390 763e
00000060: f799 953d 2e76 483e 4db1 b43d bfe9 bf3d
00000070: f9d6 783d 69c6 a93d 762a b63d 6c1f ca3e
00000080: 46d0 a93d 78f8 5d3d a7ca 133e 7e29 d03e
00000090: 62a1 e93d cc9c f53d a28a 2b3c 79e5 1b3e
000000a0: 7700 033d f682 aa3d c415 9f3d a162 8d3d
000000b0: bba9 d93d 61ac 9e3d 8149 e93d f74f aa3d
000000c0: ec0d 903d 4b1e 633d 20a9 b13d f4e8 cb3d
000000d0: e6e6 223e 057a b03d aac8 193e 9c86 563d
000000e0: ea23 f33d db0b 393d c952 3b3e dff3 773d
000000f0: 3286 f53d d09e 5b3d a29c f33d 9386 1a3e
00000100: eca5 823e 874c 9a3d fa35 6f3e 4f1d b73d
00000110: d677 d73d 3eb0 823d 0393 383e b1c1 153e
00000120: e323 293e 0a27 ed3d c699 913d 87f1 103d
00000130: fd79 be3d df27 0a3e 36ef df3d fe5a 6c3d
00000140: 1eaf 023e 1df6 073e da7b c53d 20fe df3d
00000150: 47f1 1c3e d7bc 083e 810e b93d 38f3 f53d
00000160: 0858 183d f27f 523d dd9c 113e efa5 bb3d
00000170: 6095 883e 8e73 563e 8282 f33d 552f 6d3d
00000180: 5cff 4f3d 6437 473d 25aa b63d deff 3f3d
00000190: cf82 623d ceb9 993d f6c0 983d 69b5 af3d
000001a0: 6017 3e3d 0a36 2c3e 42f5 8b3d aaeb d73d
000001b0: 34b3 aa3d f0eb c13d 94b4 423e 2e09 693d
000001c0: 1625 a43d cfb8 fe3c f58b 763e ff71 9a3d
000001d0: eaa7 6c3d 3b96 8c3e e33a 503e 2bb1 913d
000001e0: 7e6e a93d 4790 ae3d c6f0 f13c 1f11 913e
000001f0: 682c 0f3e 8e2c 833d c8c7 cf3d f335 eb3d
0.14366235 0.105952516 0.06229231 0.038582977 0.12951857 0.13410388 0.1296398 0.10211203
0.032192506 0.08802471 0.090261705 0.14141296 0.093636416 0.068253264 0.06372647 0.03380402
0.063046016 0.074076645 0.12219419 0.0631778 0.23765758 0.013614276 0.11143949 0.24078517
0.07304757 0.19576332 0.0882288 0.093707554 0.06075189 0.08289797 0.088948175 0.39477098
0.08291678 0.054192036 0.14432774 0.40656656 0.114077345 0.11992797 0.010470064 0.15224256
0.031982865 0.0832576 0.07767823 0.069035776 0.10628077 0.077477224 0.11390973 0.08316033
0.070339054 0.05544881 0.08674836 0.09956542 0.15908393 0.086170234 0.15017954 0.052374467
0.118720844 0.045177322 0.18293299 0.060535308 0.11988486 0.053618252 0.1189511 0.15090398
0.25517213 0.07534128 0.23360434 0.08941137 0.10520904 0.06381272 0.1802483 0.14624669
0.16517596 0.11579712 0.07109408 0.03538659 0.09300611 0.13491772 0.10934298 0.057703964
0.12762114 0.13277479 0.096427634 0.10937142 0.15326415 0.13353287 0.090359695 0.12009281
0.03719333 0.05139155 0.14219995 0.09162509 0.26676464 0.20942518 0.11890127 0.057906467
0.05078064 0.04863681 0.08919171 0.046874873 0.05530053 0.075061426 0.074586794 0.08579523
0.04640901 0.1681749 0.068338886 0.10542996 0.083349615 0.0946883 0.19014198 0.05689352
0.08014886 0.031093983 0.24076827 0.07541274 0.057777323 0.27458367 0.20334964 0.0711387
0.08273028 0.085236125 0.029533755 0.28333375 0.13981783 0.064049825 0.10145527 0.11484899

fc2.weight f4 [64, 128]
00000000: d164 433d 9ea9 d63c c9d9 8abd 70ae 523d
00000010: 7557 1abd 77a6 623d 9783 64bc b65d 413d
00000020: 4e6e 09bd c658 c13d 6613 753d bcd9 c2bd
00000030: efcf abbd e222 ab3d 1808 243d 15f1 31bb
00000040: edf3 803d 9350 a3bd dd75 5b3d c7c6 cbbd
00000050: ab19 91bd 414a a0bd 1a78 13bd 2d3b 30bc
00000060: 9a4c d83c bb18 9abd b080 543c 6003 30bc
00000070: 8bf0 373a ed04 4abd fefa 103d dbde 6fbc
00000080: 817a 93bd 9207 763d ae6f 23bd 074e d73a
00000090: 4060 8a3a ba3f 6c3d 0fbf 663d ee2f 10bc
000000a0: be9e 40bd bee8 6c3c 1754 61bd c885 84bd
000000b0: 14e4 c33b 53f4 553d f734 a53c 41d0 afbb
000000c0: 12a7 be3b 51ff a53d f651 063d 4ee5 1a3b
000000d0: cbe1 d73c 5e1c c3bc 3ea0 7c3c 0fc6 813c
000000e0: 9e16 89bd 4a6f bd3c 70bb 8ebd 0fbe 083c
000000f0: e4ef ecbd d843 443d 0c16 663d 48e6 02bd
00000100: 041b 0abd 3435 713c 652b 21bd 02bc a83c
00000110: a199 cdbd 1a20 d53c 04c2 883d 1271 c1bc
00000120: d41e 33bd a0a9 373d 93b7 9f3d c2ba 4abc
00000130: 3953 3dbd d077 3c3d c050 223d 2606 0e3c
00000140: c82a ba3c 3ee8 cc3d dd20 a9bd 9c25 3dbd
00000150: 4495 aabd 165b c1bb 19bd 03bc 6aca 6dbc
00000160: 1395 8dba d21b 073d 253b 91bd 1940 d33d
00000170: 5a58 fcbd 7596 b7bd caed 5ebc 42f2 06bd
00000180: e47d 13bd 9d9a ea3c 1e55 9fbd edfb 89bd
00000190: 3ff2 e43c eaff 3ebd 221d 683c 78b5 54bd
000001a0: a055 a4bd bd67 d03d a96b 193d 3c21 5c3b
000001b0: 2b61 febd e812 003d 152a 9dbd 03b7 16bd
000001c0: c55e 90bd 8b5d e3bc 9c37 76bd 24f5 cebc
000001d0: 2de4 36bc 3dab 883d 7bdc 9bbd 898e ddbc
000001e0: 1e3e 88bd 8335 29bd 6ca7 3fbd 7fb8 883c
000001f0: 1a37 533d 4022 08bc 05ee 593d 6c77 b53d
00000200: 3a6a 4a3d d098 62bd b651 bb3c a30b 253d
00000210: 4f13 c53c 2a11 96bc 6abf 51bd d0fe 00be
00000220: 5fb5 8c3d fb08 783d e3eb 02be d9d7 03bd
00000230: 8545 93bd 2c5d 983c 1496 dfbd 03d7 3e3d
00000240: e404 32bd a2d6 b9bd f087 7bbb 5416 59bd
00000250: 7639 afbc c519 6c3b 7a73 86bd 4a72 7ebd
00000260: c954 19bc a221 fc3b 0154 813d a745 57bd
00000270: e444 c03c 3b62 613d 03f0 77bd c48f 993d
00000280: 3f7f 52bb 4e59 64bd f940 303d b977 8f3d
00000290: 042d 30bc e5fe 82bc a2a8 d1bd 2df9 d9bd
000002a0: 2522 093c 030b 34bd 9d5f 90bd 9050 c83d
000002b0: f59c 60bc 978e 563d f4ca 663c f4ea 943c
000002c0: 36a1 da3d 637b c6bd 94d8 85bd 2778 20bd
000002d0: b6ff ab3d f461 ddbc 0fd8 723d 29a2 12bd
000002e0: 05d3 693c 47b5 32bd 46c5 29bd ca5a 3c3d
000002f0: 16e5 a03d d220 0c3d 3ffd 893d 3e5b a3bb
00000300: ee86 c73d 975a cbbd f8f8 453d ff5a 32bd
00000310: 57ef 633c e6eb 1e3d ac3b eebd 0e34 093d
00000320: edaa 3d3c a0ec 9d3c 3116 febc 7a46 193c
00000330: 62e5 6dbd e297 9fbc 7bf5 f2bc 1ffa cabc
00000340: c388 bb3c 6550 38bd 8492 b5bd 67fb 67bd
00000350: 92c9 1e3d ed3e eb3c 3b7c 0bb9 e251 bb39
00000360: 0300 a7bd 90f8 19bc e747 a1bd c6c0 463d
00000370: bd16 97bc f817 e43c 3c98 5bbd 8ca7 88bd
00000380: edc4 84bc 1698 e13d a362 5ebd decd a0bd
00000390: babb babd 760f 90ba afce 89bd 8643 b6bc
000003a0: 8706 353d 6071 e0bc 86ea 88bc 6fc7 09bc
000003b0: 32d8 98bd e02d 84bd 45fd a23d ace2 6ebc
000003c0: 39f0 d93a ec65 55bd 6e2e a93d 03e3 c3bd
000003d0: 3485 23bd 709c 33bd f2f2 403d 35f3 87bd
000003e0: 93fc 32bd 118a 283d faf5 dabb 40e2 5ebd
000003f0: 51b2 0d3d e41a 3c3c 489f ed3c 2197 cbbd
0.047703568 0.026203927 -0.067798205 0.051435888 -0.03768106 0.055334534 -0.013947389 0.04720851
-0.03355246 0.0944076 0.059832953 -0.09514186 -0.083892696 0.08356263 0.04004678 -0.0027151753
0.06296525 -0.07974353 0.0535792 -0.09950023 -0.07084974 -0.07826663 -0.03600321 -0.010756296
0.026403714 -0.07524248 0.012970135 -0.010742992 0.00070167397 -0.049321104 0.035395615 -0.014640535
-0.072011 0.060065813 -0.039901428 0.0016426452 0.0010557249 0.057677962 0.05633455 -0.00880049
-0.04702639 0.014459787 -0.055011835 -0.06470829 0.0059781168 0.05223496 0.020166857 -0.005365402
0.005818256 0.08105338 0.032793008 0.0023635211 0.026352784 -0.023817237 0.015419064 0.015841512
-0.06693767 0.023124356 -0.069693446 0.008346095 -0.11569193 0.047916263 0.05617337 -0.031957895
-0.03371717 0.014722157 -0.039348025 0.020597462 -0.10039068 0.026016284 0.066776305 -0.023613486
-0.043730572 0.0448395 0.07798686 -0.012373628 -0.046221945 0.0460127 0.03962779 0.008668458
0.022725478 0.10005234 -0.08258221 -0.046178445 -0.083292514 -0.005900751 -0.00804069 -0.014513591
-0.0010801874 0.032985516 -0.07091359 0.1031496 -0.12321539 -0.08964244 -0.013606498 -0.03294588
-0.03600873 0.028638178 -0.07779907 -0.06737504 0.027947543 -0.046630777 0.014167102 -0.051930875
-0.08024144 0.101760365 0.03745619 0.0033589145 -0.12420877 0.03126803 -0.07674042 -0.036795627
-0.07049326 -0.027754566 -0.060111627 -0.025263377 -0.0111628 0.06673286 -0.07610413 -0.027045505
-0.06652473 -0.0413108 -0.046790525 0.016689537 0.05156622 -0.008308947 0.05320551 0.088606685
0.04941771 -0.055321515 0.022866111 0.0402943 0.024057059 -0.018318731 -0.051207937 -0.12597203
0.06870531 0.06055544 -0.12785296 -0.03218827 -0.07190994 0.018599115 -0.10917297 0.04659177
-0.043461695 -0.09074141 -0.0038380586 -0.05299981 -0.021389704 0.0036026102 -0.06564994 -0.062120713
-0.009358593 0.007694439 0.063148506 -0.05255666 0.02347035 0.05502532 -0.060531627 0.07498124
-0.0032119302 -0.05574923 0.043030713 0.07005257 -0.01075292 -0.015990684 -0.10237242 -0.1064323
0.008369957 -0.043955814 -0.07049487 0.09780991 -0.0137092965 0.052382078 0.014086474 0.01817844
0.1067528 -0.09691503 -0.065354496 -0.039177086 0.08398382 -0.027024247 0.05928808 -0.03579918
0.014271502 -0.04362991 -0.0414479 0.04598502 0.07856195 0.034210987 0.06737756 -0.004985242
0.09742533 -0.09929388 0.04833314 -0.043543812 0.0139120435 0.03879919 -0.11632475 0.03349691
0.011576396 0.01927787 -0.031016441 0.009355182 -0.058080085 -0.019481603 -0.02965807 -0.02477747
0.022892362 -0.044998545 -0.08865836 -0.05663624 0.03876645 0.028716529 -0.00013302352 0.00035728427
-0.08154299 -0.009397641 -0.078750424 0.048523687 -0.01844346 0.02784346 -0.05361198 -0.06672582
-0.016207183 0.11015336 -0.054293286 -0.07851766 -0.09117837 -0.0010990936 -0.06728875 -0.022248995
0.044195678 -0.027397811 -0.016713392 -0.008409365 -0.07463111 -0.064540625 0.079584636 -0.01458041
0.0016627378 -0.052099153 0.08260809 -0.095647834 -0.039921954 -0.043850362 0.04710669 -0.06638185
-0.043697905 0.041147295 -0.0066821547 -0.054414988 0.034593884 0.011481021 0.029006615 -0.09940935

fc2.bias f4 [64]
00000000: fe60 4dbd 882a adbd 71fe 62bd 7cbe ffbd
00000010: 60e7 8a3c 6d75 fabc 85de c43c 24f4 b33d
00000020: 659b 393d 2e43 1fbc 7920 933c ca2f 653d
00000030: 9d70 4f3d ab5f bf3c 2a63 c03d e269 42bb
00000040: 8322 b9bd 6f18 cdbc 59e1 dabd c8b6 883d
00000050: e7b1 08be 1fb4 58bd 6b79 d9bc 75f7 c53d
00000060: 02ff 63bd 45c8 bfbd f9b1 093b afa2 7a3d
00000070: 3d32 92bd 2986 043c b563 923c 5455 99bd
00000080: 3948 bb3d 0af4 7c3b 02ce 973d 4ad0 15be
00000090: 82c4 cbbc 5f41 02bd 633a cebd 4654 05bd
000000a0: dddb d8bd a6c1 30bd 1cd5 c23d 9351 043d
000000b0: 30d6 253d 884b a8bc 6cf6 f73c f0d4 f4bd
000000c0: 3cc0 6d3d 8597 fc3b 4995 20bb 5152 acbd
000000d0: c20f a03d 4032 bf3d 4ad2 20be 9b60 4abd
000000e0: ac13 d2bd f2ad 7cbd 85fc 993d 249b 943c
000000f0: 7aad c2bc 562f 6b3d b122 c4bd 608b b03d
-0.050141327 -0.08455378 -0.055418435 -0.12487504 0.016956031 -0.030573571 0.024031887 0.087868005
0.04531421 -0.009720607 0.01795982 0.05595378 0.050644506 0.023361048 0.09393914 -0.0029665162
-0.09039786 -0.025036065 -0.10687513 0.06675488 -0.13349114 -0.05290615 -0.026547154 0.09666339
-0.055663116 -0.0936437 0.002101062 0.061190303 -0.071384884 0.008088627 0.01786981 -0.07486978
0.09144635 0.0038597607 0.0741234 -0.14630237 -0.024873976 -0.031800624 -0.1006973 -0.032551073
-0.105888106 -0.043153428 0.09513304 0.032304358 0.04048747 -0.020543829 0.03026887 -0.11954677
0.058044657 0.007708492 -0.0024503043 -0.08414138 0.078155056 0.09335756 -0.15705219 -0.049408536
-0.10257658 -0.061689325 0.075188674 0.018140383 -0.02376436 0.05741819 -0.09576929 0.08620334

bn2.weight f4 [64]
00000000: 34c3 843f 9c57 843f d7d1 773f 559a 803f
00000010: 08b1 773f 6e83 7d3f 2586 803f 587a 803f
00000020: 60a8 7b3f b0d1 763f d523 753f aca9 833f
00000030: 5681 753f 580d 7f3f 1dc3 7c3f ee85 783f
00000040: a529 783f 5ec2 853f f98a 763f 0005 803f
00000050: 5eca 733f ecc9 733f 802c 813f 8be2 823f
00000060: 0d4b 823f ae44 793f 0e6d 773f 49ab 783f
00000070: 2128 793f 02fa 823f 961c 823f c30c 7f3f
00000080: be9b 733f 1533 753f d448 793f ea28 853f
00000090: 5b10 733f e3ad 6e3f c1ce 7e3f 73f8 7d3f
000000a0: 7d23 883f 2a05 823f 1eb6 7b3f 0700 853f
000000b0: 562d 833f 3090 7a3f 62e7 713f a6d4 793f
000000c0: 1bc0 783f b520 783f a4f1 773f 5918 843f
000000d0: 07fc 7c3f 6cae 793f eef4 7b3f 2e2c 7d3f
000000e0: d6a7 823f b6c1 7f3f ab25 7e3f d6c8 733f
000000f0: bca9 803f daa7 823f 7e87 7f3f e937 773f
1.0372071 1.0339236 0.96804565 1.0047098 0.96754503 0.9902867 1.0040938 1.0037336
0.98303795 0.9641371 0.957578 1.0286155 0.95900476 0.99629736 0.9873522 0.9707936
0.96938545 1.0449941 0.96305805 1.0001526 0.9523066 0.95229983 1.0091705 1.0225385
1.0179154 0.9737042 0.9665078 0.9713636 0.97326857 1.0232546 1.0164974 0.9962885
0.9515952 0.9578107 0.9737675 1.0403111 0.9494683 0.9323408 0.9953423 0.9920723
1.063583 1.0157826 0.98324764 1.0390633 1.024821 0.9787626 0.9449369 0.975901
0.9716813 0.96924907 0.9685309 1.031993 0.98822063 0.9753177 0.9842061 0.9889554
1.020747 0.99904954 0.99276227 0.95228326 1.0051799 1.0207474 0.9981612 0.9656969

bn2.bias f4 [64]
00000000: 2d21 2ebd f891 0fbd 691c 573d 6fa1 72bd
00000010: e801 92bd a22b b3ba aac7 bb3c 2180 94bc
00000020: d6e0 283b 5840 1d3d f1e6 bbbd 6c47 e5bc
00000030: e680 353d 2325 383d 8e9c d03b f94b 4cbd
00000040: 8406 13bc dd05 e9bc 7d10 9dbb d465 833c
00000050: 6a2e 2abc 1fb9 8abd 468b cc3a 4dce dbbc
00000060: c936 1a3d 36b8 3abd 6516 41bd bf62 473d
00000070: a593 e73c 8b8f 953c 0ed4 253d 5c05 753c
00000080: 0a8d bc3c c3a2 28bd d305 7a3d 4167 5e3d
00000090: 1c0f 903c 5597 a53c af0e e53a baea bebc
000000a0: 8662 2c3d 41e9 abbc 6fbf e63c 0b37 57bd
000000b0: e7f0 c33b e06a 80bc 701c d6bc 4261 823d
000000c0: 7882 d0bc 0831 ea3c 67e4 08bd 2782 273d
000000d0: c0d8 bf3c d6c5 3a3d d2bb 093c 569a ba3a
000000e0: 403b 4e3c 5526 333d ab7d 6a3d e00b b6bc
000000f0: 66ac 85bc 4e33 193c 8054 3c3c 543f ecbb
-0.042512108 -0.035051316 0.05251733 -0.059235986 -0.0712927 -0.001366962 0.022922356 -0.018127503
0.0025768778 0.03839144 -0.09174908 -0.027988158 0.04431238 0.04495729 0.006366319 -0.04987714
-0.008973721 -0.028445179 -0.0047932253 0.016039766 -0.010387043 -0.0677359 0.0015605472 -0.02683177
0.037649903 -0.045585833 -0.047140498 0.048678156 0.028268645 0.018256923 0.040485434 0.014954891
0.023016471 -0.041170847 0.06104071 0.05429769 0.01758533 0.020213762 0.001747569 -0.023305286
0.042086147 -0.020985248 0.028167455 -0.052542727 0.0059796455 -0.015675962 -0.026136607 0.06366207
-0.025452837 0.028587833 -0.033420946 0.040895607 0.023418784 0.045598827 0.008406596 0.001423667
0.0125873685 0.04373773 0.057248753 -0.02222246 -0.016317558 0.009350611 0.011494756 -0.0072096977

bn2.running_mean f4 [64]
00000000: 2932 c93e 5489 613e 74d1 e73e 6d16 e93e
00000010: 6192 b93e d191 f23e 39c4 ae3e 6eb6 2e3f
00000020: 453c 153f d2bd 053f 418a e13e 330c b53e
00000030: ff05 ca3e 7fd4 0c3f 9a56 1c3f 5c78 e83e
00000040: fd2a b23e 3acb fc3e 285e b23e acc6 da3e
00000050: a9ac 9f3e 724e ba3e 2ee7 a03e 2d7a 0d3f
00000060: 840c b53e 3133 ef3e 8f42 cd3e fa14 273f
00000070: 15fd 0b3f 6ac2 9b3e 710b c83e 32d2 c23e
00000080: 1dd1 203f 3046 813e f757 d63e f485 a13e
00000090: c7cf ce3e 76d6 0f3f ce04 0b3f 0100 053f
000000a0: 2e5e 8f3e d4c2 fd3e fa14 f63e 7350 ba3e
000000b0: 6808 b63e 6525 bd3e 2474 ed3e c82b 9d3e
000000c0: 5b28 dd3e 369a 023f 0762 d93e c54b b83e
000000d0: 11a8 f13e 0211 c83e 34c3 f63e 47ac e03e
000000e0: 1d2a ce3e dfec 9c3e 5b65 103f aa39 e63e
000000f0: 2acb cc3e d573 fb3e 269e a63e 414e df3e
0.39296082 0.22025043 0.45276988 0.45524922 0.3624449 0.47376874 0.3413408 0.68247116
0.5829509 0.5224277 0.44050792 0.3536087 0.394577 0.55011743 0.61069643 0.45404327
0.34798422 0.493738 0.3483746 0.427297 0.31186417 0.36387974 0.31426376 0.5526455
0.3536111 0.46718743 0.40089843 0.6526638 0.5468305 0.30421764 0.3907123 0.3805099
0.6281908 0.2524886 0.41863987 0.3154751 0.40392897 0.56186616 0.54304206 0.5195313
0.2800154 0.49562705 0.4806288 0.36389503 0.35553288 0.36942592 0.4637767 0.30697465
0.4319485 0.5101656 0.424576 0.35995308 0.47198537 0.39075476 0.48195803 0.43881437
0.40266505 0.30649468 0.56404656 0.4496587 0.39998752 0.4911181 0.32542533 0.4361439

bn2.running_var f4 [64]
00000000: 73b5 d43e 687f 433e 7b8e 133f a4be 103f
00000010: 000d 9d3e 3975 063f 3a2f 933e 73cb 313f
00000020: 1758 163f 807a 173f 35de da3e 0a8a b53e
00000030: 5035 a03e 32cb 113f 6503 193f 24aa db3e
00000040: cab1 a63e d149 f03e 1fce b53e 6aeb f93e
00000050: 36d2 b63e 3cb3 cf3e 24bb 993e c2b3 063f
00000060: bc19 703e 5bbc 0b3f 822b d53e f15c 3d3f
00000070: a9d7 1e3f 5f42 ac3e e2dc d13e fe3c 853e
00000080: 5c25 143f 0fed 373e 2834 c73e 1cb9 853e
00000090: c500 b03e 437b 153f af2f 013f 058e ff3e
000000a0: 9efe 633e d089 e13e fc21 bb3e cfa7 a53e
000000b0: 6acb 983e dec9 943e cdc9 063f e298 b13e
000000c0: b6d3 a03e 8224 d53e 3680 033f eae9 ba3e
000000d0: 32c0 d33e 9123 d03e 7a4a 003f 89f3 ab3e
000000e0: a072 ac3e 4380 923e 3a4d 3a3f 5f8a 143f
000000f0: 8f93 c53e 1f6f ca3e 6941 c83e 7301 9c3e
0.41544685 0.1909157 0.5763928 0.56540895 0.3067398 0.5252262 0.28746969 0.69451064
0.58728164 0.59171295 0.42747656 0.35456878 0.31290674 0.56950676 0.59770805 0.42903244
0.32557517 0.46931317 0.3550882 0.4881242 0.35707253 0.40566432 0.3002559 0.5261804
0.23447317 0.5458428 0.41634756 0.7396994 0.6204782 0.33644387 0.40988833 0.26023096
0.57869506 0.17961524 0.3890698 0.2611779 0.34375587 0.5839121 0.50463384 0.4991304
0.22265097 0.44050455 0.36549366 0.3235459 0.29842693 0.29060262 0.52651674 0.34686953
0.31411523 0.41629416 0.5136751 0.36506587 0.4135757 0.40652135 0.5011364 0.3358424
0.33681202 0.2861348 0.7277409 0.5802364 0.3858914 0.39537904 0.39112404 0.30469856

fc3.weight f4 [32, 64]
00000000: 49a4 aabd a918 cfbc 89e3 adbd 6796 90bd
00000010: edfc a63d ed0f c83d 2db0 d6bb c4f9 a73c
00000020: 3f58 0b3d c5d6 823d eede dfbc 8755 6f3a
00000030: 67f0 bf3b edc6 8bbd 9b3d d63d fa07 c8bd
00000040: 0bc5 39bd 702f de3b 93dd 7cbc 5167 8abc
00000050: e406 343b 4978 86bd 806c b53d 42b6 373c
00000060: 8e24 a83d cc98 c9bd cd9a b73d 6887 4c3d
00000070: af8b b5bc 04ef 393d 2f73 6b3b 8924 b8bc
00000080: 7dc3 7dbd 1862 e8bd a421 0bbd 5273 9e3d
00000090: c139 cc3d 9078 cabd 482e 0ebd 4a41 bb3b
000000a0: 88ed 033c 952f 8ebd 336c 5bbb cf44 c3bd
000000b0: 068c 07be 48ee 7dbd e258 dabd c8fa 413d
000000c0: 7802 c4bd f22d 8c3d 6e9f d33d 0138 bebd
000000d0: 5e00 973d 8379 f2bd 9e61 083e f196 0ebc
000000e0: 670f 2abe 166f aebd f168 adbd 76c5 103d
000000f0: 3a14 a73c b9c9 8c3c 66e3 eabd aaa0 873d
00000100: 5204 d93c 8336 453d 71c3 cdbd dc2d df3d
00000110: e688 ec3d 0346 853d 0369 38bd 9dac 7abd
00000120: ad46 203c e40f 9f39 0cde cebd babe 65bc
00000130: 1a61 3b3d 9cd9 333d 97ab 6bbd 503b ccbd
00000140: f7b2 bcbd a9f7 b43c 1531 acba aa56 b93b
00000150: 33ae d53d bbfd 12bc 9fd9 a4bc 9896 66bc
00000160: 94db 1dbd dd1c 94bd 60a5 d5bd 2ab7 343d
00000170: ae92 a2bd 68dd 04be 55c5 aa3d 265b 813a
00000180: ddda 5cbd 3b26 f7bc 899b 1f3d 365b b83c
00000190: 0bec b33d 9bda 8b3c 3573 15bd 5b54 0e3b
000001a0: 6263 fe3c 0465 53bd ace1 843d 6f61 fc3c
000001b0: 16fb 26bd 6491 03be 83e3 843d a725 bb3c
000001c0: f0ac 053d a3d1 1bbd c04e babd 23c2 e23d
000001d0: c588 a4bc b96f 32bd 2a6d 14bd fe60 b9bd
000001e0: b636 703c 6c73 5bbc d7b6 2f3d 5588 8bbd
000001f0: e266 0bbe e62c 4d3d 33b1 d9bd ddba 9fbb
00000200: ffc2 2ebd 6b25 c2ba a7e7 933c d3b6 9f3d
00000210: e627 1bbd f7e6 37bd b7c8 47bd a0ca 903d
00000220: d00f 8e3c c0a3 d9bc 3128 023e b4e8 4bbd
00000230: aafc f63c 6413 f6bc fef7 65bd b5a8 273d
00000240: 8ca0 5abc e39f 12bc 1020 323d 3685 cd3c
00000250: 052d d23c adda 8e3b d62d 84bd 3729 323d
00000260: 1b64 37bd a04c 783d 5111 58bb 282c 3bbd
00000270: 0a2d c13d 2a6d f0bd 572b bdbd cc97 f1bd
00000280: 0981 cc3d c89a 8e3d 586a f2bd b655 b4bd
00000290: 860f 5fbc 7079 b4bc eefc bd3d f5af d63d
000002a0: 2ecb 9ebd 5b14 d53d c76f 02bd 3472 c93d
000002b0: 7a9c d63d 41f1 02bd 14e7 f8bd 5729 63bd
000002c0: 57ef adbd 5204 fabb 6eb7 6d3d 7d37 3f3d
000002d0: ac96 083e c048 72bd 7f42 0abd df39 a03d
000002e0: d873 eb3d 6bc2 d4bd 5d3d 903c ad03 acbd
000002f0: 4037 d13c b621 663c fc76 883c 7c8d d1bd
00000300: c2c7 abbd 99c0 ec3d d92b b3bd 6646 96ba
00000310: b6a0 573d de66 c2bc 72fb d73c 0c71 383d
00000320: c086 f23c fbb1 c23c f5e5 82bd 294b 14bd
00000330: ab33 b53d ce6f a3bd a853 b93d d2fd 00bd
00000340: dfe0 a5bd ed81 e9bd da4d 27bd 4749 73bd
00000350: 2037 adbc 3251 503d c91d 0a3d 86c0 333c
00000360: 2f9f f3bd 0c2a 84bd 7a18 0ebe 5a07 a7bb
00000370: 594b 2cbd 5d5f 01be 7f00 0cbd 1951 963d
00000380: 8de0 0e3d 046c 7d3c e713 993c d005 c23c
00000390: b5b0 0dbb 91ef 7d3d 5b30 ac3c f8b9 86bb
000003a0: 31d1 123e 85f9 0abe 161c 583c 22ed 12be
000003b0: 3d40 a13d 2b37 21bd 063e 07bd 9091 85bd
000003c0: c8a7 c23d 01b1 843d de0d 973c 9105 7b3c
000003d0: e61d 8f3d c3c0 9f3d d915 bbbc f2ee d93d
000003e0: 3025 88bd 3b90 51bd 40d7 03be a446 113e
000003f0: ccfc 01bd 4514 cd3d 986d 9ebd f622 213d
-0.08332116 -0.025280314 -0.084906645 -0.07059937 0.081537105 0.097686626 -0.0065517635 0.02050484
0.034019705 0.0638862 -0.02732798 0.0009129871 0.0058575156 -0.068250515 0.10460969 -0.097671464
-0.04535393 0.0067805573 -0.015433687 -0.016894968 0.0027469927 -0.06565911 0.08858585 0.011212887
0.08210097 -0.09843597 0.08965073 0.04993382 -0.022161333 0.04539396 0.003592681 -0.022478359
-0.06195401 -0.11346835 -0.03396763 0.07736839 0.09971953 -0.09886277 -0.034712106 0.00571457
0.008052237 -0.06942669 -0.003348124 -0.095346086 -0.13237008 -0.06199482 -0.10661484 0.047358304
-0.095707834 0.06844701 0.10333143 -0.09288026 0.07373117 -0.11839583 0.13318488 -0.008702979
-0.16607438 -0.08517282 -0.084672816 0.035344563 0.020395387 0.017186033 -0.11469154 0.06622441
0.026491318 0.04814769 -0.10047043 0.10897419 0.11549549 0.06507494 -0.045022022 -0.061199773
0.009782475 0.00030338683 -0.10100946 -0.014022524 0.0457469 0.0439087 -0.057536688 -0.099722505
-0.09213822 0.02209075 -0.0013137186 0.005656083 0.104336165 -0.008971627 -0.020123301 -0.01407399
-0.038539484 -0.07232068 -0.104319334 0.04411999 -0.07938133 -0.12975085 0.08338419 0.0009869083
-0.05391966 -0.030169597 0.03896669 0.02250443 0.08785256 0.017072013 -0.036486823 0.002171776
0.031053249 -0.051610008 0.06488356 0.030808179 -0.040766798 -0.12848431 0.06488707 0.022845102
0.03263563 -0.038041722 -0.090970516 0.11072185 -0.020084748 -0.04356358 -0.03623692 -0.09051703
0.014661482 -0.013394218 0.04289898 -0.06813113 -0.13613465 0.050091647 -0.10629501 -0.0048745708
-0.04266643 -0.0014812177 0.018054796 0.07798543 -0.037879847 -0.044898 -0.0487754 0.07069898
0.017341524 -0.02656734 0.12710644 -0.04978247 0.030149776 -0.030038543 -0.056144707 0.040932376
-0.013343941 -0.008949253 0.04348761 0.025087934 0.025656233 0.0043595643 -0.06454055 0.043496337
-0.044773202 0.06061995 -0.0032969306 -0.045696408 0.09432419 -0.117395714 -0.09236782 -0.11796531
0.09985549 0.06963116 -0.1183669 -0.088054106 -0.013614541 -0.022030562 0.09276758 0.1048278
-0.07753597 0.10404273 -0.03184488 0.09836236 0.10479064 -0.03196836 -0.1215345 -0.055459347
-0.08492916 -0.0076299096 0.05803626 0.046683777 0.13338727 -0.05915141 -0.033754822 0.07823538
0.11496705 -0.10388645 0.017607385 -0.083991386 0.02553904 0.014046123 0.016658299 -0.10232064
-0.0838771 0.115601726 -0.08748598 -0.0011465072 0.0526435 -0.023730692 0.026365016 0.045029685
0.02960527 0.023766508 -0.06391517 -0.03620449 0.088477455 -0.079803094 0.09049159 -0.031492062
-0.080995314 -0.114017345 -0.04084573 -0.059396055 -0.02114445 0.050858684 0.03371981 0.010971194
-0.11895596 -0.06453332 -0.13876525 -0.005097312 -0.042064045 -0.12634034 -0.03418016 0.07339687
0.034882117 0.015467647 0.018686248 0.023684412 -0.0021620218 0.061996046 0.021019151 -0.0041115247
0.14337613 -0.13571747 0.01319029 -0.14348271 0.078735806 -0.039359253 -0.033018135 -0.065219045
0.09504658 0.06479073 0.01843923 0.015321151 0.069881245 0.07800438 -0.022837566 0.10641278
-0.06647718 -0.05116294 -0.1287508 0.14187104 -0.031735227 0.10013632 -0.07735747 0.039339982

fc3.bias f4 [32]
00000000: 94a8 75bb 6f8a be3d a9a7 d73c 6c96 dabc
00000010: 76d7 ecbd 8b69 5a3d a89d 5a3d d401 ae3b
00000020: 1351 c53d 611c d2bc 6b6f 23bc da6e 0dbe
00000030: 9fce 7bbd 8e5a 9c3c 9ded 1a3e c2fa 24bd
00000040: 1386 e2bd ee9c febd 1f56 673d 20f3 6abd
00000050: ebc6 0abd ced9 b23d 4cb6 73bd f990 10bd
00000060: d9bc c3ba 1e82 db3d c4e9 f2bd b88a 25bc
00000070: 4508 4d3c 72c9 863d 2905 0ebe b95e 893b
-0.0037484514 0.09303748 0.026325064 -0.026683055 -0.115645334 0.05332331 0.05337301 0.0053102765
0.09634604 -0.025648298 -0.009975295 -0.13811818 -0.061476346 0.019086149 0.15129705 -0.040278204
-0.11060729 -0.12432276 0.056478616 -0.05736077 -0.03388111 0.08732949 -0.059500024 -0.035294507
-0.00149336 0.10718177 -0.118609935 -0.010103874 0.012514179 0.065813914 -0.13869156 0.0041922

bn3.weight f4 [32]
00000000: 9279 803f 6546 863f 9620 753f 97f2 7e3f
00000010: ba38 713f 3f82 783f 116d 7a3f b1bc 7a3f
00000020: f476 7b3f bab2 823f 2ca9 753f 348f 7e3f
00000030: c30c 763f f86f 7c3f 4277 813f a932 7d3f
00000040: 972f 7d3f d0dd 833f 089d 7d3f e58b 843f
00000050: 8b71 793f f80f 833f 8156 7e3f 8955 803f
00000060: 3d5e 803f 9ba2 763f fcbb 823f 2e9b 763f
00000070: 899d 793f a1ad 823f 0b2e 833f 44a9 773f
1.00371 1.0490233 0.9575285 0.9958891 0.9422718 0.9707374 0.9782267 0.9794417
0.98228383 1.0210793 0.9596126 0.9943726 0.9611322 0.9860835 1.011452 0.98905426
0.9890074 1.0302067 0.99067736 1.0355192 0.9743888 1.0239248 0.99350744 1.0026103
1.0028759 0.96341866 1.0213618 0.96330535 0.97506005 1.0209237 1.0248426 0.96742654

bn3.bias f4 [32]
00000000: 7acd ac3d 1839 94bc 5b6f 18bd 72d5 3cbd
00000010: 387a 08bd 15f7 92bd 2049 b6bd 809a 05bd
00000020: 4a3c 14bd f8ac fe3d 13af 42bb 03a3 103c
00000030: f6d5 993b 1efb 44bd 6342 c63d 85a6 bfbd
00000040: 591e df3d 79a1 cc3d c6fa e8bc 4e41 05bd
00000050: bb0d dbbb c1fa f53d 8bda 8bbd 4039 abbd
00000060: 3706 353d 832f 7bbd cc93 5cbd e3c2 78bc
00000070: 8fc4 df3c e98d 943d 43c8 9a3c 8b27 4fbd
0.08437629 -0.01809363 -0.03721557 -0.046101995 -0.033319682 -0.071760334 -0.08900666 -0.032618046
-0.03619031 0.12435335 -0.0029706403 0.0088279275 0.0046946956 -0.048091047 0.09680631 -0.09357933
0.1089446 0.09991736 -0.02843989 -0.032532983 -0.0066849864 0.12010718 -0.06828793 -0.08360529
0.04419538 -0.061324608 -0.053851888 -0.015183183 0.027315406 0.0725363 0.01889432 -0.05057482

bn3.running_mean f4 [32]
00000000: a00c 053f 2d9f 183f bb6e f63e aca5 093f
00000010: b03c 013f 8f7a fa3e 5cee fb3e 26c4 043f
00000020: 8725 183f cb4d d13e c03b 003f 6166 b03e
00000030: 8df5 d03e 19f4 073f 366a 2a3f d607 f53e
00000040: 03a1 cc3e 8257 e53e 8658 053f c752 fc3e
00000050: ee36 d93e 6dc2 1b3f 8ce1 b43e 20ba e33e
00000060: 7041 053f 6e1c 153f d093 fc3e 6017 1d3f
00000070: a831 073f 1d4a 113f b522 e73e 7b74 0e3f
0.5197239 0.5961788 0.48131356 0.5376842 0.50483227 0.4892163 0.4920529 0.518618
0.5943226 0.40879664 0.5009117 0.3445311 0.4081234 0.5310684 0.66568315 0.4785754
0.39966592 0.44793326 0.520882 0.49281904 0.4242472 0.60843545 0.3532833 0.4447794
0.52052975 0.58246505 0.49331522 0.6136379 0.52810144 0.5675371 0.45143667 0.55646485

bn3.running_var f4 [32]
00000000: 2edf 173f dd26 3d3f 7b42 1a3f 8ad6 1d3f
00000010: 6933 203f 2b1e ec3e 7442 113f 89b9 0e3f
00000020: fc96 353f 4d24 fc3e b976 173f 34b7 9e3e
00000030: 54a1 f23e 01d6 1a3f e1fd 423f bb51 e43e
00000040: 13a1 f73e 07b0 183f 7783 083f efba f73e
00000050: 624d e43e 3816 493f 74c5 bd3e fc3d dd3e
00000060: 995f 123f 0903 123f 40e6 fd3e 6d4a 543f
00000070: 3242 213f abcf 493f ba52 1e3f 1ec6 243f
0.5932492 0.73887426 0.6025769 0.61655486 0.62578446 0.46116766 0.56742024 0.55751854
0.7093351 0.49246445 0.5916553 0.30999148 0.4738871 0.60482794 0.7616864 0.44593605
0.48365077 0.59643596 0.533256 0.48384807 0.44590288 0.7854953 0.37064707 0.43211353
0.5717712 0.5703588 0.4958973 0.82926065 0.6299163 0.788325 0.6184498 0.643648

fc4.weight f4 [3, 32]
00000000: 33ca 9cbd 8961 60be 9e79 4e3d bd1e 1fbe
00000010: 2391 f6bd 3cab d3bd 7bad 9f3d b6c4 4b3d
00000020: 4a41 32bd 3768 8fbc 510d 01be ce86 1abd
00000030: d81a c2bd bd3e 813d f830 2b3e 1683 16bd
00000040: f18c 29bc d630 963d 7ccf 473c 40ba 52be
00000050: b1bd 143e 2cd6 353d e3a8 6fbd 5593 c9bd
00000060: bc65 d7b9 5457 d93d 6fb2 b7bd 3a7c 92bd
00000070: 0ec9 afbb c572 b3bc 4f29 ebbd b085 11be
00000080: 5ca7 01be 8030 8bbd 61a1 f33c ae97 0dbd
00000090: 2d2f d43d 8cf7 123e 53f1 bf3d 3fde 1b3d
000000a0: 6a59 803d 7e2d 15be c246 423d 2f06 c63d
000000b0: 2aae 04bc 8cd3 223e 9e14 05be dd2e 693c
000000c0: 58db 04bd c6be 4fbe 5f5c 93bc 1c2d 3fbd
000000d0: 7191 463d bbd0 edbd 053a 2a3e ef3f a83d
000000e0: 387c 9cbd 3416 e63d 693d af3c eb4c 893d
000000f0: 6e33 213d 80e2 d3bd c47c adbb d879 2e3d
00000100: 4b5b 83bb e238 d3bd a4dc 04be f9b7 6bbd
00000110: e2f3 b73d dde3 0f3c dae5 9ebd f717 d3bd
00000120: fca5 c23d 3649 f3bc 109d 0c3e 5c01 0f3e
00000130: 101a ff3d b236 173e 7dd0 1a3e c6b2 d1bd
00000140: 8120 953d 9344 933d 1872 03be f119 87bd
00000150: 395f 94ba 378a e13d 7219 e43c 988d 11be
00000160: 99c1 0bbe dd47 a5bd 522e 2e3d aea0 1c3e
00000170: b3f9 bb3d 760b d03d dd2f 633d 3660 a63d
-0.07655754 -0.21912207 0.050408952 -0.1553907 -0.120394014 -0.10335395 0.07796761 0.049748145
-0.043519296 -0.017505748 -0.12602736 -0.037726216 -0.09477776 0.063107945 0.16717899 -0.036746107
-0.010348544 0.073335335 0.012195464 -0.20578861 0.14525487 0.044393703 -0.058510672 -0.098425545
-0.00041083794 0.1061236 -0.089695804 -0.071526006 -0.0053645438 -0.021905312 -0.11482488 -0.14211154
-0.12661499 -0.0679636 0.029740037 -0.03456848 0.103605606 0.14352244 0.09372201 0.038053747
0.062670544 -0.14568135 0.04743076 0.09669148 -0.008098165 0.15901011 -0.12996146 0.0142323645
-0.032435745 -0.20287618 -0.017988382 -0.04667388 0.048478547 -0.11612078 0.16623695 0.08215319
-0.0764088 0.11234704 0.021391587 0.06704124 0.039355688 -0.10345936 -0.0052944142 0.042596668
-0.0040086857 -0.10313584 -0.12974793 -0.057548497 0.08982064 0.008782354 -0.077586845 -0.10307305
0.09504315 -0.029697996 0.1373179 0.13965362 0.12456143 0.14766958 0.15118594 -0.102391765
0.0728159 0.07190814 -0.12836492 -0.06596745 -0.0011319882 0.110126905 0.027844165 -0.1421417
-0.1364807 -0.080703475 0.042524643 0.1529567 0.09178486 0.10158436 0.055465568 0.081238195

fc4.bias f4 [3]
00000000: 806e 2d3e a2a8 5fbe 68b4 6c3e
0.16936684 -0.21841672 0.23115695
