model/saved_model/premier_league_model.pth (torch, 345620 bytes, 48 tensors)

fc1.weight f4 [128, 9]
00000000: a930 7d3e c0a1 e3bd 5dff 86be e3e9 363e
00000010: cdbf 693d de7c 883e ebea 003d eb03 81be
00000020: a0fb 973c b0a3 363e b252 a5be 2f60 bd3d
00000030: 11d6 ed3c 6eab 763e 323e fc3d a68e 513c
00000040: 0817 9cbe 4f13 91be 9e6a e7bb 72fa 86be
00000050: f441 033d 5af0 bebe f2b5 1cbe cde5 be3d
00000060: 19c3 86be 749a 973c 4d09 dd3d 70cd 89be
00000070: ecbd 983e 7ae8 473c a5b0 b1be fa79 1bbe
00000080: a7ab 61bc c0b3 083d e401 aa3d b820 5fbd
00000090: abdd 55be 5471 bb3c f775 063e bcba 9dbe
000000a0: 3a22 ca3c 6f50 07be 750b 4d3d c359 923e
000000b0: 55d4 8bbe 3f0f 5a3e bcf9 273d 220c 81bb
000000c0: 82de ec3e 364f 293e 9b48 493e b036 13be
000000d0: 0655 3bbe e2a9 0cbe 948d a63e 8dd6 a83d
000000e0: d903 0dbd c906 a33d 115b a13e 553d f43d
000000f0: 9bb5 febc e8e1 993e 39b5 d7be ffa9 bbbe
00000100: db56 aa3d 14a0 21be 3de0 583d cbb8 663e
00000110: 0c2a c23e 60f5 d13d e121 03be 2070 babb
00000120: 06f1 7ebe 9d5e 5f3e 419e ca3e 09d7 073e
00000130: 6082 993d 2c54 d9bd 429e 3cbe 4acc 83be
00000140: 5fa8 66bd 4ace f7bd c2a0 853e 38d5 9b3e
00000150: 5817 37be ff46 ad3e 29b7 33be 68a4 92bc
00000160: 6fc9 d0bd 469b 8ebe 73ba 6e3e 4d60 9f3e
00000170: aaef c23d 604f d6bd bc59 883e 50e8 5e3e
00000180: ca0c f93a 463d e5bc 4b39 723e 500a 9fbd
00000190: 86cd 8e3e aeef 023e 95da b43e 8d50 9bbe
000001a0: f224 443c 0d50 d4bd 07e1 7a3e f231 263d
000001b0: c447 f7bd 66bd fb3d bf19 a53e 66b6 11be
000001c0: d8f9 113e a83b de3c 2836 82be 7607 2e3e
000001d0: 5e67 113e a3a4 443e 11a1 5cbd fb9e cd3d
000001e0: 8677 3ebe 350c a8bd 3024 6abe 7bc0 e0bd
000001f0: 6a51 373e 4808 e7bc 44a9 df3d 1dd7 a5be
00000200: a5ff c03d 23b8 0f3c 13d5 4ebd 85be 2a3d
00000210: cc30 24be 167a 8abe a07a 743d 6084 4b3e
00000220: 3de2 ddbd cb1d 713e f61e 583d 5061 abbe
00000230: 856a 75be 3e14 bf3e 899f a0be 3efd 103e
00000240: e352 a9be 5742 d03d 1ab5 b03d 94c4 bf3d
00000250: 3539 943e d5da ba3c 9d62 50be 7d97 593e
00000260: 95e4 ddbc 67e4 1fbe c81d 09be b6f8 c53e
00000270: 5ab3 403e fd89 b4bd 146c 953e 8036 213e
00000280: 0da0 5f3e 9845 893d c82d 65be 01f2 293e
00000290: eb5e 54be 2624 7abd 5cba 873e 3ad0 08be
000002a0: 3d49 ab3e e163 26bd a4b1 0f3e a68b 073d
000002b0: b19f 6f3d 7b44 2cbe ef2b 81be b017 883d
000002c0: 0c2c 713e 69ef 083e ce95 0dbd 0549 c83c
000002d0: 8b8f 423d 0743 703e 52fe a2be cebc 43be
000002e0: ec21 dd3d 8f99 b53d cae8 cb3e d7e6 9e3d
000002f0: 3520 ccbd 4858 ad3e d8c3 cbbd 39f9 7dbc
00000300: f0a8 f3bd 6c29 84bd 3dff cdbd 9229 6b3d
00000310: 3454 913e 9e89 8cbe 41b2 9f3d 1caf 5abe
00000320: b187 563e 9ea0 e7be a1ea d13d 5c6c 08be
00000330: 5988 c53d dd60 993e 2b6c e13d f330 0cbe
00000340: 7554 073e b085 5cbe c153 bc3e ed12 a53e
00000350: e180 893d ce28 92be 2393 a1be 2837 473e
00000360: 65d9 5fbd a2b5 433e 9a6e 453e 3c60 70be
00000370: 7a34 8e3e efb7 803e e07d bc3c c56c 6abe
00000380: b610 30be b518 ae3d a0ea 58be eccf 0b3d
00000390: 077c 99be 1e52 b73d 2c09 bcbe 51ba 803d
000003a0: 961e 3d3e f8eb 34be 7aef 2e3d 1730 913e
000003b0: e641 2fbd 39c9 37be 29b3 8f3d 417a 04be
000003c0: c225 a13e 92e8 133e 3dc0 0e3e 21d3 c73e
000003d0: f166 1c3e deb1 aa3d aed1 883e 221c e7be
000003e0: 37f5 bd3d 84d8 c1bd 4383 acbe 273b 05be
000003f0: 72af 9dbd 9fb1 aa3c ef8d 2cbe 945c c9be
0.24725594 -0.11114836 -0.26366702 0.17862658 0.05706768 0.26657766 0.031474035 -0.25198302
0.018552601 0.1783588 -0.32289654 0.09246861 0.029032739 0.24088833 0.1231655 0.012790358
-0.3048632 -0.28335044 -0.0070622703 -0.2636295 0.03204532 -0.3729275 -0.15303782 0.09321175
-0.26320723 0.018506266 0.107927896 -0.2691455 0.298324 0.012201423 -0.34705082 -0.15183249
-0.013773835 0.033374548 0.08301142 -0.054474562 -0.20885341 0.022881187 0.13130938 -0.3080653
0.024674524 -0.13214277 0.050059754 0.28584108 -0.27310434 0.21294878 0.04100965 -0.003938214
0.4626351 0.16534123 0.19656603 -0.1437633 -0.18294153 -0.1373668 0.3252989 0.08244047
-0.034427498 0.079602785 0.3151479 0.11925761 -0.031092456 0.30055165 -0.4213045 -0.36653134
0.083173476 -0.15783721 0.052948225 0.2253143 0.37922704 0.1025188 -0.12805893 -0.005689636
-0.2489663 0.21813436 0.39573863 0.13265623 0.0749557 -0.10611758 -0.18419746 -0.25741798
-0.056312915 -0.120998934 0.2609921 0.3043611 -0.17879999 0.33843228 -0.17550339 -0.01790066
-0.101946704 -0.2785284 0.23313312 0.3112816 0.095183685 -0.10464358 0.26630962 0.21768308
0.0019001004 -0.027983319 0.23654668 -0.07765639 0.27891177 0.12786743 0.35323015 -0.30334893
0.011971699 -0.10366831 0.24499904 0.040574975 -0.12074235 0.12291984 0.32246205 -0.14229736
0.14255464 0.027128056 -0.25431943 0.16995034 0.14199588 0.19203429 -0.053864542 0.10040089
-0.18600282 -0.08205453 -0.22865367 -0.10974213 0.17902151 -0.028202191 0.10920957 -0.3239068
0.0942376 0.008771929 -0.050496172 0.0416856 -0.1603424 -0.2704627 0.059687257 0.19874716
-0.10834167 0.23546521 0.0527639 -0.3347268 -0.23966415 0.3732013 -0.31371716 0.14159104
-0.3307105 0.10168903 0.086282924 0.09363666 0.28949896 0.022809425 -0.20350118 0.21249194
-0.027086535 -0.15614472 -0.13390267 0.38666314 0.18818417 -0.08815382 0.2918402 0.15743446
0.21838398 0.06702727 -0.22380745 0.16596223 -0.20739333 -0.06106963 0.26509368 -0.13360682
0.33454314 -0.040622596 0.14032608 0.033092164 0.058501903 -0.16822998 -0.2522883 0.06645143
0.23551959 0.13372578 -0.034566693 0.02444888 0.047500174 0.23463069 -0.31834656 -0.19114992
0.10797486 0.088671796 0.3982604 0.07758873 -0.099670805 0.33856416 -0.099494636 -0.015501314
-0.11897457 -0.06453213 -0.100584485 0.05741269 0.28384554 -0.27448744 0.07797671 -0.21355861
0.209502 -0.4523973 0.1024983 -0.13322586 0.09645147 0.29956713 0.110069595 -0.13690548
0.13215812 -0.21535373 0.3678265 0.32241002 0.06714035 -0.28546757 -0.3155757 0.19454634
-0.054650683 0.19112256 0.19280472 -0.2347421 0.2777441 0.2514033 0.02300924 -0.22893055
-0.17193875 0.08500806 -0.21183252 0.034133837 -0.29977438 0.089512095 -0.36725748 0.06285537
0.18468699 -0.1766814 0.04270885 0.28357002 -0.042787455 -0.17947854 0.07016594 -0.12937261
0.3147412 0.14444187 0.1394052 0.39028266 0.15273644 0.08334707 0.26722473 -0.4513865
0.09275287 -0.09465125 -0.33693895 -0.13010846 -0.07699479 0.02083665 -0.16851018 -0.39328444

fc1.bias f4 [128]
00000000: 5371 cb37 0402 b036 f45d d437 6e2f ca36
00000010: 5ab5 49b8 e9bb deb7 a6c5 94b5 8894 2cb8
00000020: 9832 c9b7 1bf6 df37 31f8 df36 ce96 09b8
00000030: f40f 3537 7f03 36b9 64ff 93b6 6fda a8b7
00000040: 2831 f0b7 97ff ae35 7bfb a6b7 5a1b 3d36
00000050: b49d feb4 28bd eeb6 3a4c 97b8 8b27 1bb8
00000060: d639 0db7 aece 3936 7270 27b6 0065 b537
00000070: e265 6438 3c41 b736 cd58 4c37 0338 8035
00000080: c9e8 15b8 6a34 d3b7 c803 c835 28ee 6cb7
00000090: e2e0 8038 5edc 1db7 98be 3ab8 d1d8 f136
000000a0: b85a 6cb8 c45d fd37 f857 6fb6 9084 b0b7
000000b0: 06cc 8137 3663 1cb7 607d c3b7 268d 4e37
000000c0: 2008 f6b7 36bb 5137 b2c0 2037 b08b 01b7
000000d0: 1908 e2b6 4855 39b5 28b2 7738 8c92 2938
000000e0: 3e90 b6b7 dc53 a1b8 67fc b9b7 f7be f937
000000f0: 0103 37b7 3885 a9b7 234f c637 5dd7 a5b7
00000100: 1cde 69b8 bee5 b4b7 d49b 0236 7e01 13b7
00000110: 9236 ef36 9553 93b6 a0d6 41b5 2501 92b7
00000120: c3f5 dc36 809c 8937 a479 4cb7 ece3 1238
00000130: 8e92 0ab9 76cd 43b7 9596 cd36 de35 4db8
00000140: fef3 1cb8 7a53 c137 1049 d335 edb0 47b7
00000150: 1d32 ebb7 ff92 d0b7 dcca 8eb6 0805 6c37
00000160: 25c6 cdb7 82a7 94b7 cc89 2137 fcdf d037
00000170: aa36 5cb8 b71b 4db7 c21d dab7 6674 da36
00000180: b777 e3b6 92b7 94b7 b942 ffb7 4038 9236
00000190: 1bb3 8538 fee4 03b7 5f43 5237 b887 55b6
000001a0: 3149 dd38 52da a737 d38f 16b8 a2a8 0cb6
000001b0: 8a20 23b8 39db 65b7 0ff6 2db7 941c 3db6
000001c0: 7da2 ebb6 aa07 9938 c3d5 8737 a595 54b7
000001d0: b85d dbb7 8cf0 8938 8bfe 8bb8 73d3 da37
000001e0: a40f 2336 163c 0db8 f3f2 bfb8 46b8 8ab7
000001f0: aaf5 f236 7e64 8237 0397 b038 901e 8937
2.4252256e-05 5.2454434e-06 2.531612e-05 6.0255907e-06 -4.809103e-05 -2.6551965e-05 -1.1084383e-06 -4.1146326e-05
-2.3984627e-05 2.6698273e-05 6.674811e-06 -3.2803793e-05 1.0792155e-05 -0.00017358175 -4.410673e-06 -2.0128877e-05
-2.863312e-05 1.3038397e-06 -1.9905847e-05 2.8179115e-06 -4.742593e-07 -7.1149734e-06 -7.2144394e-05 -3.6991707e-05
-8.417721e-06 2.7687452e-06 -2.495039e-06 2.1623913e-05 5.445432e-05 5.4614193e-06 1.2180023e-05 9.553045e-07
-3.5741166e-05 -2.5177567e-05 1.4902262e-06 -1.4122146e-05 6.145403e-05 -9.4092375e-06 -4.452336e-05 7.2076004e-06
-5.6351273e-05 3.0203613e-05 -3.566498e-06 -2.1042564e-05 1.5473004e-05 -9.321424e-06 -2.3304194e-05 1.23114205e-05
-2.9329269e-05 1.2500959e-05 9.5816085e-06 -7.721523e-06 -6.7362676e-06 -6.904197e-07 5.905531e-05 4.0429222e-05
-2.1763259e-05 -7.692698e-05 -2.2171253e-05 2.9772038e-05 -1.0908349e-05 -2.0208405e-05 2.364029e-05 -1.976982e-05
-5.5758384e-05 -2.1564654e-05 1.9462213e-06 -8.76223e-06 7.129108e-06 -4.3906716e-06 -7.2210423e-07 -1.740509e-05
6.5851214e-06 1.6404549e-05 -1.2187669e-05 3.502138e-05 -0.00013215301 -1.1670743e-05 6.127006e-06 -4.8925976e-05
-3.7420534e-05 2.3046265e-05 1.5741989e-06 -1.1902518e-05 -2.8037519e-05 -2.4863983e-05 -4.2555457e-06 1.4067868e-05
-2.4530173e-05 -1.7720977e-05 9.628431e-06 2.4899833e-05 -5.2502997e-05 -1.2225405e-05 -2.6001482e-05 6.510457e-06
-6.779064e-06 -1.7728456e-05 -3.0429439e-05 4.3576874e-06 6.375295e-05 -7.861525e-06 1.25326615e-05 -3.1818472e-06
0.00010551734 2.0009615e-05 -3.5896734e-05 -2.0959783e-06 -3.8892533e-05 -1.3700505e-05 -1.03688935e-05 -2.817983e-06
-7.022462e-06 7.297036e-05 1.6192795e-05 -1.26710265e-05 -2.6150476e-05 6.5774744e-05 -6.675449e-05 2.6086089e-05
2.4297997e-06 -3.367298e-05 -9.1528425e-05 -1.6536691e-05 7.240761e-06 1.5544003e-05 8.420462e-05 1.6345904e-05

fc2.weight f4 [128, 128]
00000000: 5ae0 ec3d 0026 2d3d 46eb 9c3d ddbd 083e
00000010: 044f 15bd 977f adbd e3af 88bd 7836 243c
00000020: bf89 f93d d268 9d3d beef 95bd 6479 513e
00000030: efb5 4fbd 1fa5 963d 9566 223c c7af 113e
00000040: 5b88 8d3d f62b 813d 5df3 543c 4bd2 0a3e
00000050: 5b9f 553d 6e03 0dbd ef0f aabc b711 213c
00000060: e0f4 8d3c 6ed5 693c dfe8 e63c fd9e 6a3e
00000070: c0c7 613c cded ac3d 3efc 37bc da39 c13d
00000080: 27cb 993d 5c30 d13d b5b7 d43d d86a 1a3e
00000090: 8f92 c43c 7fca 233e 1ff8 413d 3923 dc3b
000000a0: e551 0b3e 0d4b f1bd 11f7 a43d c409 f4bd
000000b0: 514d 6a3d cc2a fe3b f6bb 203e f52b 86bd
000000c0: 9d8f a83d ddd4 0d3d 15b0 da3c 4673 ffbd
000000d0: 0054 d6bc 715b 8e3d e2ad 023d e864 9d3d
000000e0: 1776 343d 8256 263e f2e6 d63d 781b e43d
000000f0: b469 a3bc 8594 b43a fdb4 8cbd 4e16 d2bc
00000100: 1b13 ae3d f03a 7b3d 239e 9e3c 9788 373c
00000110: a0e6 9a3d cd4d 113e cf6d 663d de65 90bd
00000120: 350b 033c 9e1c 693e 7e51 0d3c b914 bf3a
00000130: 4a22 e8bd ac25 6f3d 12ed 863c 7a29 16bd
00000140: 937f 1a3e 2ba9 6c3c 98d2 98bc b1ca 83bd
00000150: 1717 243e 551b 373e 89ad 963d d1c7 e63d
00000160: 26cf 8c3d e335 943d 538e cb3a 914b cd3b
00000170: 8dce 0c3e bc13 e23d 4053 3d3e b14e 403e
00000180: 179f a43b 9a29 98bd 26e2 ad3a 45fe 183e
00000190: 0f77 23bd b7b7 16bd 2ea7 1c3e 8142 14bd
000001a0: 2d72 303e 72a5 32bd 7e46 fdbd 8149 5ebd
000001b0: 6fec 8ebc 8dba 8cbe 24cf b03c 8d4d 35be
000001c0: 1d3c c73d 7ab0 ffbc 294a 30bd be16 893e
000001d0: deef 7f3d 1c28 cf3d 08c8 2a3d 313c 8f3d
000001e0: 64aa 403e 0d9f abbc e67f 91bd 3a23 1b3d
000001f0: 1387 08bd b401 a03c 59c4 d53d a264 893e
00000200: a8c8 103e eb78 98bc e7a5 88bd b438 03bd
00000210: fca9 673d 6058 613d 0a26 733d 5d57 843b
00000220: 27af de3d 7e2a b83c 119f 973d e5c3 1e3e
00000230: 7093 32bd e549 4e3d f8e4 203e 09fd 6ebe
00000240: 83ec 4e3e 0d6c 07be d055 27bd 6481 193e
00000250: 7b4b 9cbd bdca ea3d 2232 a33c 75bd ebbd
00000260: f122 84bd 205b 703d 1bd7 1dbc 3262 c4be
00000270: 6fdc 9dbd 6e40 81be 0670 26be f915 89bd
00000280: 5c82 843b 2824 6c3c a34f 023e 63d0 ad3d
00000290: 7ea3 a93d 62ca bcbd 698f 9abd c54d 363d
000002a0: e9c6 95bd 9466 da3d ec79 633d d286 adbd
000002b0: c645 c93d 4659 1a3e ef8f 313e 544e 5b3d
000002c0: d187 47bd afa5 be3d 7a58 113e 8b37 9b3c
000002d0: 0fb4 2d3e 6a3d b23b 7acc b0bd 5408 333d
000002e0: 2bf6 19bd e76e 113e 09d4 013d f400 b6bd
000002f0: d7a2 96bc 5e1f 8a3d e8cc 873d 863a ba3d
00000300: 6e1b 63be 2de9 cd3b 1224 0a3e 9769 3e3d
00000310: d1a4 873e 409e 813d 9327 2a3e a656 f83c
00000320: 513f 433d 82bf 4e3b acf2 94be 9951 b5bc
00000330: a398 21bd 9c5e 76be 8e5d 2ebd 2ede 5ebd
00000340: cc49 50be 2dc7 5e3e 5c25 ae3d cc51 983c
00000350: 8263 853e 1025 dc3c ebc7 0f3d 1d92 fcbc
00000360: 0aaa ce3c 6a1d 17be ecd5 c9bd 57f8 823c
00000370: d4f4 95bd 4a6e 313e bd23 5a3c 9484 533c
00000380: b7ee fe3d bbfd f33b 519d d2bd 7add 6bbd
00000390: 7d1a a63b 210b 3a3e 98aa b13d 8a2a 0d3e
000003a0: 00d3 0bbe c487 be3d 49ee b73c 8009 50bc
000003b0: e6a6 63bd 2f65 513c c383 1d3d 2414 083d
000003c0: 534e 683d 6999 1dbd 45d9 f73d 9a02 7abe
000003d0: 74bc 80bc c378 9d3d 1d44 e23c 1ee4 2c3e
000003e0: 6ff2 ac3d e917 dbbc d098 653e 2df2 5fbd
000003f0: 6f63 4f3d afeb a83c a9f7 22be 2941 d23d
0.11566229 0.042272568 0.07662062 0.13353677 -0.03645231 -0.084716015 -0.06674173 0.010022752
0.12184476 0.076860085 -0.07321118 0.20456463 -0.050710615 0.07355713 0.009912153 0.1422721
0.06910773 0.06307213 0.012997475 0.13556783 0.052153926 -0.0344271 -0.02075955 0.009830884
0.01732868 0.014272077 0.028187213 0.22912212 0.013780534 0.084437944 -0.011229573 0.094348624
0.07509451 0.10214302 0.10386602 0.1507982 0.023995666 0.15995215 0.047355767 0.006718066
0.13605459 -0.11781893 0.08054937 -0.11915925 0.05720264 0.0077565666 0.15696701 -0.06551353
0.08230517 0.03462683 0.02669529 -0.124731585 -0.026163101 0.06951035 0.03190411 0.07685262
0.04405793 0.16243938 0.10493268 0.11138052 -0.019947864 0.0013777172 -0.06870458 -0.025645401
0.08499738 0.061335504 0.019362515 0.011201999 0.075635195 0.14189835 0.056257065 -0.070506796
0.007998277 0.22764823 0.008625386 0.0014578319 -0.11334665 0.058385536 0.016470466 -0.03666065
0.15087728 0.01444463 -0.018655106 -0.06435145 0.16024433 0.1788152 0.07357318 0.11268581
0.06875448 0.072368406 0.0015530087 0.0062651117 0.13750668 0.1103892 0.18488789 0.18780018
0.005023848 -0.0742981 0.001326625 0.14940746 -0.039908465 -0.036796298 0.15298149 -0.036196236
0.17231055 -0.043614812 -0.12366961 -0.054269318 -0.017446725 -0.27486077 0.021583147 -0.17705365
0.097282626 -0.03121208 -0.043039475 0.26775163 0.062484615 0.10115072 0.04169467 0.069939025
0.18814999 -0.020949865 -0.07104473 0.03787539 -0.03333194 0.019532062 0.10437841 0.2683459
0.14139044 -0.018612346 -0.06672268 -0.0320365 0.056558594 0.05501592 0.05936245 0.004038735
0.108732514 0.0224812 0.074033864 0.15504415 -0.04359764 0.05036344 0.15712345 -0.23338713
0.2020741 -0.13224812 -0.04085332 0.14990765 -0.07631584 0.114644505 0.019921366 -0.115107454
-0.06451977 0.058680654 -0.009633805 -0.38356167 -0.0770806 -0.25244468 -0.16253671 -0.06693644
0.0040438604 0.014412917 0.12725691 0.08487012 0.08283137 -0.09218289 -0.075468846 0.04450776
-0.0731333 0.106640965 0.055536196 -0.084729806 0.09827761 0.15073118 0.17340063 0.053541496
-0.04871351 0.093089454 0.14193907 0.018947383 0.16963218 0.00543945 -0.08632751 0.043709114
-0.03758828 0.14202462 0.031696353 -0.088869005 -0.018388195 0.06744264 0.0663088 0.09093194
-0.22178432 0.0062839002 0.13490322 0.046487417 0.26492932 0.06329012 0.16616659 0.030314755
0.047667805 0.0031547253 -0.29091394 -0.022133635 -0.039452206 -0.24059528 -0.04256969 -0.054411106
-0.20340651 0.21755667 0.085032195 0.018593691 0.2605248 0.026873142 0.035102766 -0.030831391
0.025227565 -0.14757314 -0.098552555 0.015987558 -0.07322088 0.17327228 0.013314185 0.012910027
0.12447875 0.0074460185 -0.10283912 -0.057584263 0.0050690756 0.18168308 0.08675116 0.13785759
-0.13654709 0.09303239 0.02245249 -0.0126975775 -0.05557909 0.012780472 0.038455736 0.033222333
0.05671532 -0.03847638 0.12101988 -0.24415055 -0.015714861 0.07689049 0.02762037 0.16883895
0.08444678 -0.0267448 0.22421575 -0.054674316 0.050631937 0.020620195 -0.15914787 0.102663346

fc2.bias f4 [128]
00000000: 0a61 a936 6c5f 24b7 6552 10b7 deaf 0436
00000010: 2203 8bb6 22bd 5cb6 4c9b 3fb6 3ecd 6db6
00000020: 9054 2436 d5e4 7b36 4917 12b7 ed93 16b7
00000030: 7487 3137 03d0 7737 64d5 53b7 e25c 1637
00000040: a0e1 4db4 82c5 9137 6caf 5536 1d8a 3537
00000050: 2438 5836 f4f4 2737 94d7 1fb5 587c 0038
00000060: 3a4c 9d37 9b7f 5eb5 460b 4037 b671 0137
00000070: a217 7737 49e2 acb6 7403 adb7 6808 f036
00000080: 2d22 cf37 76fa b0b5 7cc4 9e37 32a6 09b7
00000090: 008b 2333 280d 4536 86f9 2536 b261 20b8
000000a0: 22d0 3ab6 aeab 1837 9e36 84b7 ddf4 17b7
000000b0: a2c2 2735 4ac7 a2b7 2bde 2e36 ee09 88b6
000000c0: 0603 9237 ab29 1f36 9e68 2337 e831 15b7
000000d0: 1a67 adb6 2b4b b3b7 8246 10b7 9a91 8636
000000e0: beef 4936 ee43 4db5 3f4d 8e36 85a9 d136
000000f0: 8cea dab6 54e7 5cb6 3d65 2937 c85b 9db5
00000100: 3189 e036 ceb3 3336 4162 8ab6 7e66 2037
00000110: c8c6 0c38 c1e8 afb6 036e e937 f0d0 cdb6
00000120: 6682 9736 8a51 1db6 27f7 40b7 0330 bdb7
00000130: ad88 7837 289c d2b6 f939 e1b6 d502 c8b7
00000140: 20a0 8136 f60c 1cb7 f617 1337 b057 0cb7
00000150: 0658 9c36 d8b9 1b35 f3d5 8937 3f65 0235
00000160: 4c65 7236 1a3b c3b6 86d6 70b7 0071 2f37
00000170: 8969 bab6 0251 85b6 7eed 8136 2873 7936
00000180: dcbc dfb7 b5f2 5c37 820e 9337 e473 d2b6
00000190: 4cc7 2236 de82 65b7 d1ce 8037 f042 0db5
000001a0: 206e 8336 c554 9fb6 1c9e 52b6 f2e4 4fb6
000001b0: 6c43 18b7 fd46 8db6 4c9b 50b5 6605 05b8
000001c0: ff25 3db7 02fa 2f36 c115 24b7 cbd1 d836
000001d0: c6eb 97b6 8c9f a636 b5ab a9b6 2a1e d1b6
000001e0: 568d 4f37 327e cd37 fbc4 60b5 a024 2037
000001f0: f8e5 0db6 004f 2d33 f7d9 3bb7 b684 e6b6
5.0478893e-06 -9.797379e-06 -8.602253e-06 1.97719e-06 -4.1428875e-06 -3.2892644e-06 -2.8551613e-06 -3.5435219e-06
2.4487126e-06 3.7535112e-06 -8.7077e-06 -8.975138e-06 1.058156e-05 1.4770779e-05 -1.2626264e-05 8.962323e-06
-1.9174195e-07 1.7377319e-05 3.1841582e-06 1.0820598e-05 3.2219186e-06 1.0011008e-05 -5.9545823e-07 3.0633382e-05
1.8751354e-05 -8.2887135e-07 1.1446717e-05 7.715475e-06 1.472785e-05 -5.1523425e-06 -2.0624815e-05 7.153536e-06
2.4692237e-05 -1.3185916e-06 1.8926563e-05 -8.204532e-06 3.8077815e-08 2.9362945e-06 2.4732158e-06 -3.823796e-05
-2.783731e-06 9.099878e-06 -1.576106e-05 -9.057313e-06 6.2495576e-07 -1.9404706e-05 2.605734e-06 -4.054272e-06
1.7405964e-05 2.37171e-06 9.739915e-06 -8.892712e-06 -5.1678044e-06 -2.1373466e-05 -8.599485e-06 4.0104615e-06
3.0090882e-06 -7.64673e-07 4.2409224e-06 6.24842e-06 -6.524211e-06 -3.2917205e-06 1.0096756e-05 -1.1724123e-06
6.6916914e-06 2.6777739e-06 -4.1241587e-06 9.5606065e-06 3.356373e-05 -5.2425025e-06 2.7826993e-05 -6.1337996e-06
4.515331e-06 -2.3442285e-06 -1.1501636e-05 -2.2552913e-05 1.4813774e-05 -6.2766667e-06 -6.7122714e-06 -2.3843177e-05
3.8631406e-06 -9.301342e-06 8.767462e-06 -8.365067e-06 4.6594096e-06 5.801244e-07 1.64313e-05 4.8576106e-07
3.6119773e-06 -5.818333e-06 -1.4355062e-05 1.0457123e-05 -5.555518e-06 -3.9731394e-06 3.8721473e-06 3.717092e-06
-2.6671616e-05 1.31695315e-05 1.7530521e-05 -6.271979e-06 2.4255887e-06 -1.36799335e-05 1.5355095e-05 -5.2624e-07
3.9169245e-06 -4.7484377e-06 -3.138447e-06 -3.0978667e-06 -9.075604e-06 -4.2103916e-06 -7.7712025e-07 -3.17147e-05
-1.12741245e-05 2.6222556e-06 -9.780227e-06 6.4617248e-06 -4.5275983e-06 4.965759e-06 -5.056582e-06 -6.232197e-06
1.2371069e-05 2.4496669e-05 -8.3733147e-07 9.545271e-06 -2.1144497e-06 4.035155e-08 -1.11968175e-05 -6.8699837e-06

fc3.weight f4 [64, 128]
00000000: bb01 393e 1f51 fcbd 0bae 0cbc 0cd5 01be
00000010: f720 f5bd f241 61be e468 69bd df01 043d
00000020: 24ca 22bd 5dc4 61bd d337 bdbd 4dec 46bc
00000030: 1fb4 a1bb 897f f0bd 88b2 3d3c 1c8a a73d
00000040: 9a19 57be a381 803d 9e39 78bd 2dec 8b3d
00000050: c702 e2bc e51f a4bd 2c1c 67be e193 fbbb
00000060: e8ac 0e3d 78b6 01be b192 da3d dab9 6fbc
00000070: b53c 31be 6097 49bd 2a52 30be 9e92 e33d
00000080: ab44 d23c bbcf f0bd 0a09 783b 1917 b63d
00000090: 4834 913c 83ab e8bd 0a60 3fbe f609 153e
000000a0: 6d44 753d c97e ff3d bacc 083e 3bbf 6ebd
000000b0: 8e64 17bd 76ab 15bd b03e c2be fd0a 47bb
000000c0: e78a bf3d d6fa a6bd 9456 c13d 103e afbd
000000d0: bf5f afbb 90fe 99bc 84c3 37bd 2bd8 ad3c
000000e0: efa1 67be 1a21 fb3d 686b b63d b4fa 4cbe
000000f0: c12d 65be 8ad5 03be ff8c 65be 1643 283e
00000100: a915 1dbe ad43 9e3c eef9 89bd bcc7 98be
00000110: 6b58 8abc 042d 843d 9692 923c d039 473d
00000120: adb5 0e3e 3a9a 123d a66b 27be a677 fa3d
00000130: 1d4b 1abe 1b74 803d 769a 84bc 3045 0fbe
00000140: 4d7e 6a3e 48e4 953d 033a 6abe 9461 0cbe
00000150: 2233 b33c fd36 51be 89df abbc ac5d 26be
00000160: 000d 833d 8ef0 623d 11cb 15bb 529f 4fbd
00000170: fbc9 ac3b 93ac 1abe 05aa 95bd 219d fa3c
00000180: 6427 12be b03f e7bc 793e 39bd 6ab0 103d
00000190: 6666 bf3d 110c aabb 4f57 183d 3be0 86be
000001a0: 9daa 6bbe 0d6d 2bbc 8af4 403e ee46 7ebd
000001b0: 8b0b 6a3c dc9a 4a3a df5f 063e 70f7 0438
000001c0: d91f bf3d 5033 643d 632f 06bd a580 e23d
000001d0: 2ffc 26bd db69 8ebe 2748 053e 6080 6ebc
000001e0: fe72 e4bb bf6b 0ebc c733 283d d460 f23c
000001f0: 7a7f 683d 7a7c 9abe 8cc3 2dbd 0324 973d
00000200: 81b4 3dbe fc1a f13c 2294 16bc adad 00be
00000210: 520c 90be a988 97bd d6f4 2fbe df1c 84be
00000220: f536 72bd b3d9 0ebe 34ca 7a3b 6676 29be
00000230: e143 89bc 1d32 8abe d51f d3bc 2078 9bbd
00000240: 0f87 863c a256 95bd 1998 c5bd 8963 69be
00000250: 4d92 803d 5ce2 19be 1c3a f5bb cecb 79be
00000260: f540 5abd 3ef3 39bc 515c 08be f525 3bbb
00000270: 76d6 f83d dc96 d73b 3f70 11bc e186 07be
00000280: 5a63 20bc 87be 063e 9769 7f3d 39df dfbd
00000290: 81fc febd cbe2 c0bd 7139 87bc 00e2 e63c
000002a0: 3477 80be a9da bbbd 24ea bbbd 4921 2b3d
000002b0: addd 40be 01ac d6bd 86a7 8b3d 8b78 fd3c
000002c0: 3fae 8c3d 00a5 bbbc 800c d4bb 7870 c8bd
000002d0: 514d 31be d0cb 643c bc60 87be 9feb 91bd
000002e0: 0958 4e3d da4d abbd bb72 b8bd 3360 8f3d
000002f0: 9bc3 9d3d 836e 3c3d 45d8 3dbb dcc9 bcbc
00000300: 5561 ebbd 2418 523d c5af b03d 2bde 8f3d
00000310: ef3c b9bd 8a8f d33c 9998 863d d5c0 f4bc
00000320: 081c 35be 47cc bbbd 9164 393c 5fe8 25be
00000330: 262c f73d d38e ce3d d9f1 8fbd abcc ab3d
00000340: eed8 4ebe ab27 bb3d 2fbd f53d 3bc0 353b
00000350: af64 a2bd 6ab3 5c3c 1db5 243d 7585 a83d
00000360: 1ddc 01be de83 dabd df8d 12be af82 80bc
00000370: ef45 39bb d625 abbd 6e62 a1bc 7e7f 9c3d
00000380: 3ac7 87bd ac0e 8fbd 51ae 06be 0d2f 39be
00000390: b7fb 7abd 5a72 22bd e5a3 c0bc 333c a4bd
000003a0: d270 5cbc dfe2 423d e1d2 e5bd ec35 d5bc
000003b0: 8dab d2bc e8c8 32be 1673 d93d 5fe0 53be
000003c0: f92b 21be 0bca cebc e21d b03c 423f 6bbd
000003d0: bd0f c83d 2715 0abe e3a4 1bbe 2df9 4dbd
000003e0: 2364 193d 7cbb 743d 1b0f 553d 2846 2ebd
000003f0: 7606 42be 22ae 6fbc 4cc0 2bbe 5e28 88bd
0.18067066 -0.1232016 -0.008586417 -0.12678927 -0.11969178 -0.21997812 -0.056984797 0.032228347
-0.039743558 -0.055118907 -0.09239163 -0.012141299 -0.004934802 -0.117430754 0.01157821 0.08180639
-0.2100586 0.06274726 -0.060601823 0.06832156 -0.027589215 -0.08013896 -0.2256934 -0.0076775406
0.034832865 -0.12667263 0.106725104 -0.014631713 -0.17308314 -0.049216628 -0.17218843 0.111119494
0.025667509 -0.117583714 0.0037847185 0.08891124 0.017725125 -0.11360838 -0.1868898 0.14554581
0.05987971 0.12475354 0.13359347 -0.05828784 -0.03696113 -0.03654047 -0.37938452 -0.003037154
0.093526654 -0.08153312 0.094403416 -0.08556759 -0.00535199 -0.018798143 -0.044864193 0.021221241
-0.22620367 0.12262173 0.08907205 -0.2001751 -0.22380735 -0.12874427 -0.22417067 0.16431841
-0.15340294 0.01931938 -0.067371234 -0.29839885 -0.016887864 0.064538985 0.017892163 0.04863912
0.13936491 0.035791613 -0.16349658 0.122298524 -0.15067716 0.06272145 -0.016186934 -0.13991237
0.22899742 0.07318932 -0.22873692 -0.13709098 0.021874968 -0.20431133 -0.020980613 -0.1624667
0.06398964 0.055405192 -0.0022856633 -0.05068905 0.0052731014 -0.15104894 -0.07307819 0.030592503
-0.14272839 -0.02822861 -0.045225594 0.03532449 0.09345703 -0.0051894267 0.03719264 -0.2634295
-0.23014303 -0.010463011 0.18843284 -0.062079363 0.014284979 0.00077287643 0.1312251 3.1701697e-05
0.09332246 0.055712998 -0.032760035 0.11059693 -0.040767845 -0.27815136 0.13015805 -0.014556974
-0.006971716 -0.008692681 0.041065004 0.029587187 0.056762196 -0.30173093 -0.042422816 0.073799156
-0.18525888 0.029431812 -0.009190591 -0.12566252 -0.281344 -0.07399113 -0.17183241 -0.25803277
-0.059134442 -0.13950233 0.0038267495 -0.16549072 -0.016756 -0.26991358 -0.025772015 -0.075912714
0.016421823 -0.072919145 -0.09648151 -0.22791876 0.06277905 -0.15027755 -0.007483734 -0.24394152
-0.053284604 -0.011349497 -0.13316466 -0.002855656 0.1215028 0.006579263 -0.008876859 -0.13235046
-0.009789312 0.13158618 0.062356558 -0.10931248 -0.12450505 -0.09418257 -0.016506882 0.028183937
-0.25090945 -0.091725655 -0.09175518 0.04177979 -0.18834563 -0.10482026 0.06819062 0.030941268
0.06869172 -0.022905827 -0.0064712167 -0.09787077 -0.1731465 0.013964608 -0.2644099 -0.07125019
0.050376926 -0.083644584 -0.09006258 0.070007704 0.077033244 0.04600383 -0.0028968018 -0.023045473
-0.11493174 0.051292554 0.086272754 0.07024797 -0.09044825 0.02582528 0.065720744 -0.029877106
-0.17686474 -0.09169822 0.011315481 -0.16201924 0.120689675 0.10085835 -0.07028551 0.08388647
-0.2019994 0.091384254 0.119989745 0.0027732986 -0.0792936 0.01347051 0.040211786 0.0822858
-0.12681623 -0.10669683 -0.14311932 -0.015687315 -0.0028270443 -0.08356826 -0.019700255 0.07641505
-0.06629796 -0.0698522 -0.13152434 -0.18084355 -0.06127521 -0.039659835 -0.023515651 -0.080192946
-0.013454633 0.047579642 -0.112218626 -0.026026689 -0.025716567 -0.17459452 0.10617654 -0.2069106
-0.1573943 -0.025242826 0.021498624 -0.057433374 0.09768627 -0.13484631 -0.15199618 -0.05028646
0.037449013 0.05974911 0.05201636 -0.042547375 -0.18947777 -0.014628919 -0.16772574 -0.066483244

fc3.bias f4 [64]
00000000: 615a 4237 2529 3db7 8af4 b136 26a7 1837
00000010: ce1a b3b7 00c4 a937 94da 0937 5a1f 83b7
00000020: 92bc bd37 82bf 6bb6 a476 7eb8 3b28 5737
00000030: 4fb0 9237 4b84 ac37 f15e 0cb7 6700 18b8
00000040: 26e2 a735 4561 a636 db3d 3cb7 da8f 56b8
00000050: 98ba a8b6 c3b0 1ab7 d2b0 29b7 4c71 d636
00000060: c827 4db7 da9d 6136 d9ce 0d37 dee5 be37
00000070: 978b 30b6 e0ab 92b6 6f5d 93b6 a297 f1b7
00000080: deb9 6db6 5806 9bb7 1cee 9e37 1fb9 ec37
00000090: 17a0 1f37 7c23 39b7 cc3d b737 17ed e5b7
000000a0: 3c71 1335 0002 9bb4 fd31 13b7 80e7 24b5
000000b0: 40d7 99b7 a2b5 22b7 e8da 16b6 d4a0 d436
000000c0: 9e10 7e36 ecfb 9435 a48b a337 888d 4236
000000d0: 5fec 8ab6 8d69 b2b5 ec23 e835 759e cf35
000000e0: c5c2 15b8 e0d8 c0b7 3168 0d37 0c3b f7b6
000000f0: 7997 85b7 9a22 b8b5 20bf 3137 0b45 8737
1.1584344e-05 -1.1274858e-05 5.303479e-06 9.098823e-06 -2.1350945e-05 2.023764e-05 8.216728e-06 -1.5631016e-05
2.2618366e-05 -3.51292e-06 -6.066881e-05 1.28243655e-05 1.7486656e-05 2.0565602e-05 -8.3667555e-06 -3.624e-05
1.2508287e-06 4.958509e-06 -1.1220075e-05 -5.1155548e-05 -5.0285125e-06 -9.220271e-06 -1.0114354e-05 6.3908865e-06
-1.22282145e-05 3.3619494e-06 8.452415e-06 2.2756805e-05 -2.6307296e-06 -4.371148e-06 -4.3918185e-06 -2.8800048e-05
-3.542394e-06 -1.8480394e-05 1.8945946e-05 2.8219596e-05 9.514412e-06 -1.1035121e-05 2.1844076e-05 -2.740933e-05
5.4926545e-07 -2.8872455e-07 -8.773522e-06 -6.143164e-07 -1.8339255e-05 -9.698242e-06 -2.2479162e-06 6.336815e-06
3.7858622e-06 1.1100178e-06 1.949614e-05 2.8990635e-06 -4.1402377e-06 -1.3292753e-06 1.7295802e-06 1.5468819e-06
-3.570576e-05 -2.2989174e-05 8.428514e-06 -7.3680476e-06 -1.592537e-05 -1.3719139e-06 1.0594522e-05 1.6125405e-05

fc4.weight f4 [3, 64]
00000000: 9465 a93d cd05 4d3d 3f46 153d f0bc 233c
00000010: e044 a33d 5ca3 5d3d 0912 e63c 4418 18bd
00000020: cd14 aa3d bcee f43c 418d 74bc c5c3 04be
00000030: 9a96 b0bd bc15 26be bf00 dd3c 25b8 92bc
00000040: 47f8 99bd bdc1 92bd 2a36 ff3c 1d1d 48bd
00000050: a78a 98bd 48c1 cbbd ffb0 1abd bcaa 07bd
00000060: 20c2 833d 6405 89bd b91e e6bc ec00 21bd
00000070: c720 86bc 82c9 0abd 51c2 08be 532d 38bd
00000080: 9686 c73d e541 a4bb 4029 39bd df45 61bd
00000090: 05ab 863c 19ff 8dbd bb1a 213d 297a 68bd
000000a0: aa80 9ebc 7f42 33bd da40 bb3d d0d7 36bd
000000b0: 63f0 1c3c da92 d6bd 88c1 f3b7 9627 fbbd
000000c0: 59e2 c6bd c18c c23c 118b 54bd 5a1b b0bd
000000d0: 6d32 5d3d 0187 4b3c 8a0e e1bd 5334 4ebd
000000e0: 1bb7 b8bc bc5d 42bd a237 283d 5dbf 93bd
000000f0: 0511 b7bd 1629 b93d a6d4 8c3c f0a2 ab3d
00000100: 3310 143d 9447 7e3d 9b69 c83d 3059 813d
00000110: 78fd 8d3d bfd1 7a3d be8d 37bd 8d61 3fbd
00000120: a60f adbd 968a 92bc 395d f03d 8cad 77bd
00000130: 8f87 9b3b a5bd 87bd 86e2 87bd 4ef2 f1bd
00000140: e0f0 163c 6809 a7bd 5f73 5d3d 6dc7 acbc
00000150: 237c d23b 3300 1bbe 2eb3 a63c 8be7 893d
00000160: 54cb fa39 2836 813c f297 a93d c9af ed3c
00000170: e161 113d 8186 c43d f854 98bd a3a0 53be
00000180: 86fd a6ba 7c0e 90bd 98e5 a9bd 59ce 403d
00000190: 181c b13d 5e57 3cbc 03c1 a5bc d306 a53d
000001a0: bd2b 423b 63a7 853d 47b0 853d 6c63 853d
000001b0: 5e34 5ebd 8c14 7fbd ebf2 95bd d89e c63c
000001c0: a3db 4bbd b63d 2239 30f7 3d3c cbbb 8cbd
000001d0: 6b98 a3bb b2c2 753b 8263 b5bd 05e4 9abb
000001e0: 4536 503d eacd cc3d 7696 acba cce9 05bd
000001f0: d546 edbc a496 4e3d 0fa2 4e3d 6134 ea3c
00000200: 5afc b9bc 0191 103e e18b 153c 4893 b03d
00000210: d523 74bd 1f05 53bd 6b18 89bd d73d d33d
00000220: 7b3d 873d 6c5e 37bd edd1 103d 1b57 5dbd
00000230: 5efa 153c 12b5 a5bd 3ff1 afbc 16b7 353d
00000240: 8705 283d 717c b9bb 79bf 89bd 1baf 483d
00000250: f03e c23b 2488 a2bc 1d77 d73d 068a d83c
00000260: 8722 a6bc 38b0 a53a 91da a33d e370 473d
00000270: e9ce 0f3d 4e30 b43c 43ec f6bc fd5b 08bd
00000280: 7b1c 953d 2316 e63c 87a4 873d 062c 3dbd
00000290: e3ec 013e 0967 55bb d1d4 013e 0578 8cbd
000002a0: 025e b13d 8e20 c6bd 27a8 313d 05cb 04be
000002b0: fa49 d7bd b508 b93c 52cf fdbd 3c72 0ebd
000002c0: 0ad2 55bd 7b7b 82bd 4027 193d 3cf6 b83c
000002d0: 7acf 7fbd dc3d c5bd 11e4 8bbc cfdd 213d
000002e0: a730 cdbd bb0c 8b3c acfb 5bbd 3f64 0a3d
000002f0: 4b95 4d3d 7ea8 343c 4f8b f63d 181a 2fbc
0.082713276 0.05005436 0.036443945 0.009993777 0.07972121 0.05411087 0.028084772 -0.037132517
0.08304749 0.029898994 -0.014926256 -0.12965305 -0.08622475 -0.16219229 0.026977895 -0.017910073
-0.07518058 -0.07165859 0.031153757 -0.04885589 -0.07448321 -0.09948975 -0.037766453 -0.03312181
0.06433511 -0.06690481 -0.028090822 -0.03930752 -0.016373051 -0.03388358 -0.13355376 -0.0449651
0.09742467 -0.005012738 -0.045205355 -0.054998275 0.01643897 -0.06933422 0.039332133 -0.056757126
-0.019348461 -0.043764587 0.09143229 -0.04463941 0.009578797 -0.104772285 -2.9057977e-05 -0.1226341
-0.09711141 0.023748757 -0.051890437 -0.08598967 0.054003168 0.012422324 -0.10989101 -0.05034287
-0.022548249 -0.047452673 0.04106868 -0.07214234 -0.08938793 0.0904104 0.017191242 0.08380687
0.03614826 0.06207998 0.09785768 0.06315839 0.06933111 0.061235186 -0.04481291 -0.04672389
-0.0845025 -0.017888349 0.11736531 -0.06046824 0.0047463845 -0.06627969 -0.06635003 -0.11813794
0.0092127025 -0.08156091 0.054065105 -0.021091187 0.0064234897 -0.15136795 0.020349111 0.067336164
0.00047835207 0.015772894 0.082809344 0.029014485 0.035493735 0.09595967 -0.074380815 -0.20666747
-0.0012740351 -0.07034013 -0.08295745 0.04707179 0.086479366 -0.011495439 -0.020233637 0.08057942
0.002962812 0.06526067 0.06527763 0.06513104 -0.05424916 -0.062275454 -0.073217236 0.024245664
-0.04977001 0.00015472513 0.011594579 -0.06871756 -0.004992535 0.003750008 -0.0885687 -0.004726889
0.050833005 0.100002125 -0.00131674 -0.03269367 -0.02896444 0.05043663 0.05044752 0.02858943
-0.022703338 0.14117815 0.009127588 0.08621842 -0.059604485 -0.051518556 -0.066941105 0.103145294
0.06603523 -0.044767782 0.03535645 -0.05403815 0.0091539305 -0.08091177 -0.02147734 0.044364057
0.041020896 -0.0056605865 -0.06725974 0.04899512 0.005927913 -0.019840308 0.10520766 0.026433002
-0.020280136 0.0012641018 0.080006726 0.04869164 0.035109434 0.02199569 -0.030141955 -0.03329085
0.07280823 0.028086727 0.06623178 -0.046184562 0.12688021 -0.0032562634 0.1267884 -0.068588294
0.08660509 -0.09674178 0.043373253 -0.12968071 -0.10512157 0.02258716 -0.12393059 -0.03477691
-0.052202262 -0.06371208 0.037390947 0.022578351 -0.062453724 -0.09630939 -0.017076524 0.039518174
-0.10019045 0.016973844 -0.05370681 0.03378701 0.050191205 0.0110265 0.1203829 -0.010687374

fc4.bias f4 [3]
00000000: acdd 0e3e bda0 963c 3dfe 88bc
0.13951749 0.018387193 -0.016722793

bn1.weight f4 [128]
00000000: c1f5 593f 11dc 263f f159 4b3f c441 5b3f
00000010: 8255 4c3f c9ec 833f 48f8 523f 0edf 703f
00000020: 368e 503f 474e 613f 5783 4a3f 9e27 4a3f
00000030: 5b1f 0f3f 0f4b 843f 3559 533f c973 643f
00000040: 9e92 503f 32a8 333f 4bb3 503f e13f 2a3f
00000050: eb2c 343f ea83 6c3f b79e 5f3f 191d 443f
00000060: 931c 643f 9102 733f 5e95 2d3f 18a6 703f
00000070: 6cf1 8e3f d44a 693f d881 4d3f 6c91 173f
00000080: 24ae 453f ff7c 603f cc90 4d3f c3e7 413f
00000090: f53b 723f e327 583f caad 733f 4fda 323f
000000a0: fcaf 513f f57b 843f f684 4e3f 9525 2d3f
000000b0: 3c22 483f 1b46 693f ccd6 4f3f 8bcd 3f3f
000000c0: 43e5 813f ddc2 493f ae0d 413f 4bbf 2d3f
000000d0: 2280 803f 445c 433f 4a7d 5a3f 4b87 3e3f
000000e0: eac5 5e3f c3ae 693f c312 4c3f cf05 333f
000000f0: 01b6 2e3f 6110 603f 90a8 643f d445 643f
00000100: 8fd7 693f 9496 3f3f 35fa 483f 82e2 5c3f
00000110: 1eca 813f 1ba7 873f 397b 623f 6a49 373f
00000120: 2f17 523f 01d1 453f 04b2 4c3f 0b0f 383f
00000130: b896 943f 1683 763f 262f 263f af57 7b3f
00000140: 10d8 773f 2b69 503f 16f3 573f 3645 3f3f
00000150: d94d 473f 283f 453f 9060 533f 4754 2c3f
00000160: 7976 683f b143 463f 338d 3a3f 7b7c 623f
00000170: b4b3 673f e1a4 5a3f b55f 4a3f bac0 443f
00000180: 438c 393f 1a7f 523f 5153 4d3f d9f9 3e3f
00000190: 70ae 6e3f 627f 853f 31ca 413f 0d2d 803f
000001a0: d6b8 643f 3508 5d3f 2c6f 4e3f 6467 453f
000001b0: 68ec 6e3f 74a9 713f 4958 343f e608 4f3f
000001c0: 2d3c 433f 38a0 453f 063c 853f 1e9d 863f
000001d0: f4c4 473f 80be 803f 2c67 593f 35a4 6c3f
000001e0: af5e 393f 1ae1 533f 4fb8 8f3f 0154 5f3f
000001f0: 05ca 2d3f 8018 543f 6794 823f 2883 4a3f
0.85140616 0.65179545 0.79434115 0.85647225 0.79817975 1.0306636 0.824101 0.94090354
0.81466997 0.88010067 0.7910666 0.789667 0.5590722 1.0335406 0.82557994 0.89239174
0.8147372 0.7017852 0.8152358 0.6650372 0.7038104 0.92388785 0.87351555 0.766069
0.891061 0.9492579 0.6780604 0.9400344 1.1167426 0.91129804 0.8027625 0.5920627
0.7721884 0.8769073 0.8029907 0.75744265 0.9462274 0.8443586 0.95187056 0.6986436
0.81909156 1.0350329 0.8067163 0.6763547 0.7817724 0.911226 0.8118713 0.7492301
1.014809 0.7881296 0.754115 0.67870015 1.0039103 0.7631266 0.85347426 0.7442519
0.8702074 0.9128229 0.7971613 0.6993074 0.68246466 0.8752499 0.89319706 0.8916905
0.9134454 0.7483914 0.78506786 0.86283123 1.0139806 1.0597872 0.8846927 0.71596396
0.82066625 0.7727204 0.7995913 0.71897954 1.1608496 0.9629377 0.6491569 0.9818067
0.9681406 0.81410474 0.84355295 0.7471498 0.7785316 0.77049494 0.8256922 0.673161
0.90805775 0.7744704 0.728717 0.8847119 0.9050858 0.85407835 0.7905229 0.7685658
0.7247965 0.8222519 0.80205256 0.7459999 0.9323492 1.0429499 0.75699145 1.0013748
0.8934454 0.8634065 0.80638385 0.77110887 0.9332948 0.9439919 0.7044721 0.8087295
0.76263696 0.771976 1.0408943 1.0516698 0.780349 1.0058136 0.8492305 0.9243806
0.724101 0.8276535 1.1228122 0.87237555 0.6788638 0.82849884 1.0201539 0.7910638

bn1.bias f4 [128]
00000000: 6c1d 62be 5d9f d03c ab61 5abe dba1 4bbe
00000010: a320 3fbe bf8a 5bbe 5727 62be d05f a2be
00000020: 1798 8fbe 6e35 6cbe 8390 2cbe d7d5 85be
00000030: 15c5 c0bd eade adbe df44 93be ee67 73be
00000040: 3049 9ebe 0f8a 9bbe d54e 1fbe 9549 bd3c
00000050: 60a5 d0bd 257c 79be 137f 52be dfbe 7bbe
00000060: 7d11 94be 9b3e a13a ae8f 01be 7721 99be
00000070: 66a1 44be cee7 50be 87a3 efbd 40a6 423c
00000080: 421f a9be 3aa3 76be 1350 95be 1e17 90be
00000090: c7a4 a3be 50c0 e0be 4d61 aabe ccd2 bbbd
000000a0: 4e74 04be 7234 ccbe 480a 8cbb 6a4c 2abe
000000b0: 9a86 9abe 6df9 f1be 2db8 20be 479d 84be
000000c0: cc23 a2be 7195 9dbd c41c 03be b38c f8bd
000000d0: 1865 4dbe 56ca b6be 2886 64be ae52 5dbe
000000e0: d6e4 efbd d90f 88be 5352 1fbe 4a0b bdbe
000000f0: faad 67bc a0b2 96be d89b 05be d24c 3abe
00000100: a790 67be f335 32be 683c 8ebe a1bc 28be
00000110: bfff 9ebe 1d5a dcbd 5bfb 88be 8cb5 6abe
00000120: b570 7ebe e572 cebe dadd 77be 6711 94ba
00000130: 5376 cebe adb3 84be 8b3d 92be 5322 30be
00000140: a58c 8fbe e63b 93bd 17d8 71be bca0 acbe
00000150: b4dc 88be a643 e4be 32bb cfbe e34c 37be
00000160: 23c1 25be 0081 adbe 3d22 10be fe0c 44be
00000170: 0d68 93be 38a6 dfbd abfc 8a3d f0d2 18be
00000180: 6042 c2be 8bba 67be aa75 52be 0389 38be
00000190: f537 2bbe 5779 99be beb6 b3be ca5b 1abe
000001a0: 6dac 84bd 56ed 19be eb92 33bd bf75 eebc
000001b0: f730 89be 52d8 61be dd3b 5dbd 2e56 b4be
000001c0: 9e2a 48be ae22 edbd 4fdf 5ebe 62ea 79be
000001d0: 7b80 e8bd 0f98 70be 3e95 b0bd ff82 48be
000001e0: 1e84 2abe 2020 c1be 3f57 b3be 146a 48be
000001f0: d80b f8bd 6e20 cfbe e0e5 93be 3b8e cdbd
-0.22081536 0.025466615 -0.2132632 -0.19885962 -0.18664794 -0.21439646 -0.2208532 -0.31713724
-0.28045723 -0.23067257 -0.16852002 -0.2613971 -0.094125904 -0.33959132 -0.28763482 -0.23770115
-0.30915213 -0.30378768 -0.15557416 0.023106376 -0.10187793 -0.24363764 -0.20556287 -0.2458453
-0.28919592 0.0012301983 -0.12652466 -0.29908344 -0.19202194 -0.20400926 -0.11701112 0.011880457
-0.3303166 -0.24085703 -0.29162654 -0.28142637 -0.31961653 -0.43896723 -0.3327736 -0.09171066
-0.12934992 -0.39883763 -0.0042736866 -0.16630712 -0.30180818 -0.4726061 -0.15695257 -0.25901243
-0.31667936 -0.07694519 -0.12803942 -0.12136211 -0.20058095 -0.35701245 -0.22316802 -0.21613571
-0.11713569 -0.2657459 -0.15558748 -0.36922675 -0.0141406 -0.29433155 -0.13047731 -0.18193367
-0.22613774 -0.17403392 -0.2778046 -0.16478206 -0.31054494 -0.10759375 -0.2675427 -0.22920817
-0.24847682 -0.40322033 -0.24205723 -0.001129669 -0.4032465 -0.25918332 -0.2856258 -0.17200594
-0.2803699 -0.07189159 -0.23617588 -0.3371638 -0.26730883 -0.44582862 -0.40572506 -0.17900424
-0.16186957 -0.33887482 -0.14075561 -0.19145581 -0.28790322 -0.109203756 0.06786474 -0.14924216
-0.37941265 -0.22629754 -0.20552698 -0.18021016 -0.16720565 -0.29975387 -0.3510036 -0.15074077
-0.064782 -0.15031943 -0.043841284 -0.02910888 -0.2679517 -0.22055176 -0.05401217 -0.35222
-0.19547507 -0.1157888 -0.21764873 -0.24405816 -0.11352631 -0.23495506 -0.08622216 -0.19581221
-0.16651961 -0.37719822 -0.350275 -0.19571716 -0.12111634 -0.4045443 -0.28886318 -0.10036894

bn1.running_mean f4 [128]
00000000: 24b5 3b3c fc67 613c 0a4b d23b 943b 4ebc
00000010: dd90 aa39 84c6 513b 71a3 413c df8b cf3b
00000020: 22e4 9abc 2bdf 2fbc 6c73 28bc 65a7 88bc
00000030: a2a4 19bc cd9c c5ba 022e c03b a68e 89bc
00000040: 119a 1e3b b71c bcbb 2c6b e739 038c 823b
00000050: c128 3b3b f4a0 ed3b 25b4 703b efd2 983b
00000060: 2d89 d2bb f207 173c 2a33 26bc 29f2 87bc
00000070: 72bf 1d3c d410 17bc 6fb0 a6ba 1163 79bb
00000080: 356c dfbb cd33 7c3c 1a71 9ebc 916a 7bbc
00000090: 4ed2 f1bb f046 a83a c28a 66bc 7000 ceba
000000a0: 36a2 29bc c065 9a3c 7437 c13b 046b 4abb
000000b0: a62a 2c3c 4c67 cc3c bbcb 5f3c 2fb7 503c
000000c0: 3b5f 1f3c cc5b 7e3c 3505 393c 116d cd3b
000000d0: f382 213b a3ec 0cbc 91f6 10bc c2cf 163c
000000e0: c18e 30bc dab1 443c cfe4 74bc 30ae 9cbc
000000f0: de35 36bc 845e 153c 7df6 563c dd45 8f3a
00000100: 2fbb 6abb e4a8 bfbb d5e5 f9bb cd1d a53b
00000110: db17 793c bc4a 513c e121 67bc 63bc 163b
00000120: 84db 103c a38c 0b3c 8136 7abc 2aea 163c
00000130: 6347 4e3b 1e79 c5bc 14ea 743c 34be 0abc
00000140: f07f 5fbc 708f 653c 0747 0fbc 4da5 223c
00000150: bdaa a3bc 4d0b 5e3b ad24 b73b d930 053a
00000160: e65d 423c 3e28 51bc 8cda bebb 9840 203b
00000170: 87f2 46b9 bdd2 e63c e18e 04bc 5664 55bc
00000180: 8ab5 4dbc fa8f fa3b e9ff 86bb 8775 00bc
00000190: b43f 15bc cd4b eb3b 7202 0d3b 0670 ab3c
000001a0: 7c8d f7bb 69ea c7bb 9f57 593b f3a4 1e3b
000001b0: e30e 593b db8c 133c 8c7c 5b3a 0f4f f53b
000001c0: 3bde 903b beee 4c3b 9eda 6a3c fa36 8dbc
000001d0: fcf2 4bbb f193 fe3b c3df 803c 6735 afbc
000001e0: 726a 4abc b8ca 1a3c 35f7 213b 06fd 7f3c
000001f0: a57c 99bb 3bdd adbb c135 09bb 9812 f9bb
0.0114567615 0.013757702 0.0064176368 -0.012587447 0.00032532858 0.0032009194 0.011818753 0.0063338126
-0.01890761 -0.01073436 -0.010281425 -0.016681382 -0.00937763 -0.0015076638 0.0058648596 -0.016791653
0.0024200717 -0.0057407278 0.00044139603 0.003983976 0.0028558227 0.007251853 0.0036728468 0.004663817
-0.006425044 0.009218203 -0.010144034 -0.016594963 0.009628164 -0.009220321 -0.0012717376 -0.0038053433
-0.006818319 0.01539321 -0.01934104 -0.015345232 -0.0073798066 0.0012838524 -0.014071168 -0.0015716683
-0.0103536155 0.018847346 0.005896503 -0.003088654 0.010508215 0.0249516 0.013659413 0.012738987
0.009727295 0.015524816 0.011292745 0.0062691052 0.0024644702 -0.00860134 -0.0088478485 0.009204807
-0.010776223 0.012005294 -0.01494713 -0.019126028 -0.011121241 0.009116773 0.013120291 0.0010930855
-0.0035817137 -0.0058489908 -0.007626275 0.005038953 0.0152034415 0.012774166 -0.014107198 0.002300047
0.008841399 0.008517417 -0.015271784 0.0092111025 0.0031475655 -0.024105605 0.014948387 -0.0084681995
-0.0136413425 0.014011249 -0.008744962 0.009927106 -0.019978875 0.0033881248 0.005589089 0.0005080826
0.011863207 -0.012765942 -0.0058243927 0.0024452563 -0.000189731 0.02817666 -0.008090706 -0.01302441
-0.012555489 0.007646558 -0.0041198623 -0.007840521 -0.009109426 0.007180667 0.002151635 0.02092744
-0.007554708 -0.006100942 0.0033163799 0.0024207204 0.0033120445 0.0090057505 0.0008372746 0.007486231
0.004421023 0.003127023 0.014334349 -0.017238129 -0.0031120172 0.007769101 0.015731698 -0.021387769
-0.01235448 0.009447746 0.0024713997 0.01562429 -0.0046840482 -0.0053059137 -0.002093658 -0.0076010935

bn1.running_var f4 [128]
00000000: 5107 a53e 340e 4b3e aec8 1b3f 7364 2e3e
00000010: 970f a03e e85e 523e 4896 5a3f 7f2b 563e
00000020: 5053 043f 1d51 d63e 57a4 003f a7cf 4d3e
00000030: 9e8a 943e 7abd 9a3d e264 9c3e c70e 043f
00000040: 72ec 1d3f 76ae 393e 7845 9e3e 37a4 a73e
00000050: 377b 2b3f 7e01 5c3e f1da 543d 443b c53d
00000060: 7bc7 953e 6acd 6f3e cdb2 083f 8263 af3e
00000070: 847f 563d 4608 1c3f b216 873e ce8d 2a3f
00000080: fbaa 583e e34d 893e 60a3 ae3e 8e6b 533e
00000090: 354a b43e 5bce 003e 9d87 cb3d 6cfc 5a3f
000000a0: a5a0 1b3e dfca a03e 7633 243f 6dc7 0a3f
000000b0: 73b7 4b3f a179 b03e 3cea ef3e d4ad 013f
000000c0: 97e8 1f3e bb8e 283f bf8a 5b3e 56c3 763e
000000d0: df41 743e 7cde 2e3e ed33 243e ec76 003e
000000e0: 9725 3d3f 4e5f c53d 1d66 c03e bae7 123e
000000f0: 382e 4a3f d7ad 383f 8dd6 de3e d8f5 703e
00000100: 6869 3b3e 8695 3e3e 7335 b43e d171 413e
00000110: 5cab 943e 4692 c43d 5403 f03e 3ffc b63e
00000120: 8d10 033f 35a8 8e3e 10a8 113f 2c16 113f
00000130: 1e96 e13d 2622 9a3e 8917 433f 3c4b de3e
00000140: 75cb 293e 26e9 833e d71a 183e c0fd 593f
00000150: c1fa 8f3e a38b b83d d70e 533e ff88 fa3e
00000160: e8e1 723e d5ba 733e 89a6 063f 59a5 c63e
00000170: fae5 533e 98de bb3e 3519 a43e d1e6 273f
00000180: 8711 523e 2538 883e cc0e 333f cf0d 763e
00000190: 16dd a53d 247a d43d e2ef 2a3e 1790 a03e
000001a0: 4267 a73d 4c24 423e 2917 c03d fe09 153e
000001b0: 3a61 d33d 68ba 9c3e 4363 173f b71e 613e
000001c0: a309 3a3f 0081 a23e 478e a33e 0a21 7b3e
000001d0: d3a6 043e 78c4 883d 39bf 513e d548 913e
000001e0: 2a0f 133f 1da0 233e 1ef8 e43d 7642 7b3e
000001f0: 7c88 093f a46a 643e 0129 973d 9ca8 1d3e
0.32232144 0.19829637 0.6085309 0.17030506 0.31261894 0.20544016 0.8538556 0.2091503
0.51689625 0.4185876 0.5025076 0.20098744 0.29012007 0.07555671 0.30545717 0.5158505
0.6168891 0.18132958 0.30912375 0.32742473 0.66984886 0.21484944 0.05196661 0.09630445
0.29253754 0.23418203 0.5339783 0.34255606 0.052367702 0.60950124 0.26384503 0.66622627
0.21158974 0.26817235 0.3410902 0.20646498 0.35212865 0.12578718 0.099379756 0.85541415
0.15198 0.31404778 0.64141023 0.5421055 0.79576796 0.34467795 0.46858394 0.50655866
0.1561607 0.6584279 0.21439646 0.24097952 0.23853253 0.17077059 0.16035433 0.12545365
0.7388548 0.096373186 0.37577906 0.14346209 0.78976774 0.7214026 0.43523064 0.23531282
0.18301928 0.18611726 0.3519703 0.18891074 0.29036987 0.09598212 0.4687754 0.35739323
0.5119713 0.27862707 0.5689707 0.56674457 0.11014961 0.30104178 0.76207787 0.43416774
0.16581519 0.25763816 0.14853989 0.85152817 0.28120998 0.090110086 0.2061113 0.48932645
0.23718989 0.2380174 0.5259786 0.38798025 0.20693198 0.36693263 0.3205048 0.6558657
0.20514499 0.26605335 0.69944453 0.24028705 0.080988094 0.10374859 0.1669307 0.31359932
0.08173992 0.18959159 0.093794174 0.14554593 0.10321279 0.30610967 0.59135836 0.21984373
0.72670954 0.31739044 0.31944486 0.24524322 0.12954263 0.066780984 0.20483102 0.2837588
0.57445014 0.15979047 0.11180137 0.24537072 0.53723884 0.22306305 0.07380868 0.1539635

bn2.weight f4 [128]
00000000: 6fdb 453f 6f76 643f 3c7e 553f 3fcd 553f
00000010: 03e7 743f 4b76 563f 7bc9 723f f86e 6c3f
00000020: 2ee0 513f 97e9 493f 587a 6b3f c5d6 4f3f
00000030: b16e 643f c7f3 843f 6580 573f fed4 1b3f
00000040: 1a8a 433f 295e 3e3f 7e81 583f cd46 3f3f
00000050: 0ed2 6d3f 053c 5c3f 8441 313f 63f7 773f
00000060: ce40 653f b4fd 3d3f 97c7 513f 02eb 5d3f
00000070: 9bba 633f 29f4 483f fde3 533f 3c2c 5a3f
00000080: 07e5 5f3f ad09 263f 4b02 663f c37e 7b3f
00000090: 9628 7b3f b5ca 5b3f 586c 363f 1a8a 5c3f
000000a0: 23bd 5c3f bbde 503f 814c 663f 5f45 653f
000000b0: a415 6a3f 3879 5f3f 2bb2 823f e957 763f
000000c0: 99f3 233f a6c5 493f cee2 5b3f 6d7b 643f
000000d0: 2dcd 713f 4458 653f 9dc5 803f 3842 2d3f
000000e0: 5548 693f 8eca 413f 18f5 3c3f 9f7d 623f
000000f0: 845a 3f3f 66c1 2f3f 5a0a 583f c2cc 653f
00000100: 1d82 513f 71e0 6f3f e327 423f 56f2 5e3f
00000110: 5e67 883f 9d47 873f 39fc 243f a16f 333f
00000120: 4c6d 8a3f d3d1 5f3f 3ffa 513f 8743 4f3f
00000130: c190 3f3f 3ed0 5d3f bebd 763f e511 593f
00000140: 8133 6b3f 5170 4d3f 56e0 603f d58f 4a3f
00000150: e1c8 673f be13 633f 4a19 743f ed4e 6c3f
00000160: 6e39 623f a7bb 563f 0628 643f 4b50 573f
00000170: abb8 3c3f bc70 4e3f b457 583f 0f14 6c3f
00000180: 06d7 723f 8d7d 623f daf4 673f 503e 6d3f
00000190: 3d51 4b3f 2528 5b3f af4f 573f 1a65 5d3f
000001a0: bbea 463f a64a 593f c19e 773f 14e7 413f
000001b0: 5ef7 5b3f 63f5 503f dbce 4d3f 72f6 5a3f
000001c0: 1457 7e3f a535 5f3f 3fc1 433f 8180 803f
000001d0: 6e85 4a3f 980f 353f 5ca1 6c3f 444e 743f
000001e0: 91c4 533f b53d 613f 9aad 553f da6b 533f
000001f0: 81ff 6a3f 46a4 613f b704 5f3f 5e31 6d3f
0.77287954 0.89243215 0.83395743 0.83516306 0.95664996 0.8377425 0.94838685 0.92356825
0.81982696 0.78872055 0.91983557 0.8118709 0.892314 1.0386895 0.8418029 0.60871875
0.763826 0.74362427 0.8457259 0.7471741 0.92898643 0.8602908 0.69240594 0.9686186
0.8955201 0.74215245 0.81945175 0.8668672 0.8895661 0.7849756 0.8276976 0.85223746
0.87458843 0.64858514 0.8984725 0.982403 0.98108804 0.8585618 0.7125907 0.86148226
0.862261 0.8158986 0.89960486 0.89558977 0.9143927 0.8729434 1.0210623 0.9622789
0.64043576 0.7881721 0.8589295 0.8925083 0.944537 0.8958781 1.0060307 0.67679167
0.91125995 0.756997 0.73811483 0.8847293 0.7474749 0.6865448 0.84390795 0.8976556
0.8183916 0.93701845 0.7584211 0.87088525 1.0656545 1.056873 0.6444736 0.7009221
1.0814605 0.8742954 0.8202247 0.80962414 0.7483025 0.8664588 0.96383274 0.8479293
0.91875464 0.80249506 0.8784231 0.7912572 0.9054089 0.88702 0.9535109 0.9230793
0.8836888 0.83880085 0.8912357 0.8410689 0.7371928 0.8064077 0.84508824 0.92218107
0.9485935 0.88472825 0.9060799 0.92673206 0.79420835 0.8560813 0.8410596 0.86482394
0.7770192 0.8487953 0.96726614 0.7574322 0.8592433 0.8162443 0.8039376 0.85532296
0.9935162 0.8719123 0.76466745 1.0039216 0.7910985 0.7072692 0.92433715 0.95431924
0.8272181 0.8798478 0.8346802 0.82586443 0.9179612 0.88141286 0.8711657 0.92653453
