model/saved_model/premier_league_model.pth (torch, 359764 bytes, 48 tensors)

fc1.weight f4 [128, 18]
00000000: 6e7c babe 9787 babe b74c e1bd d2cb 203e
00000010: a1f1 b2be dc45 7dbd b6cf 7fbe 9171 4abe
00000020: 313c 1abe 7581 643d 7bb3 a1be b9ba 923e
00000030: 7609 253e e0e0 afbc 30be 84bb 064d 73be
00000040: 42e5 4bbe 5d5e 42bd dce3 42be b571 8e3d
00000050: 3828 cd3d 8656 a93e e258 3cbe b3d3 9f3e
00000060: 013b b8bd 1843 c43c 4d82 de3d 38ff a0bd
00000070: d10b 3dbd f435 b23d f786 0e3f 8e13 323e
00000080: 88f0 1f3e a66a ddbc 13d7 c0be a49a b93e
00000090: c3b9 4abe c0a0 943d 086e febd 2d99 90be
000000a0: 7365 6e3e b729 f13d 89d8 bcbd ab1d 653e
000000b0: c422 02be c640 b13e b9e4 9ebd 663a aa3e
000000c0: 86f9 ab3d dfbe 97be 943e 1b3e a0f1 08be
000000d0: 798b 8a3e 217a a63d 2722 ff3e bb39 d1bd
000000e0: 736b 3a3e fac5 2fbe 595a 073e 2410 59be
000000f0: b9bd 253e 5218 993b baa8 05bd 0509 a0bd
00000100: d7f8 2ebe 85c2 be3d 6d3f 0cbd 54ef 8fbe
00000110: c2d7 3c3e 348e a53e 297b 3b3d 92f7 963e
00000120: a708 fd3b 88c4 b23c e1da 26be d74e cfbd
00000130: 2d39 bfbd 33e1 82be 448a 4cbe 8f08 353e
00000140: ef94 323e a8bf 12bd 33d0 71bd c780 d83d
00000150: c764 e03d 0324 b5be aaec edbc 181d 3cbf
00000160: c699 523e fdf1 f5be e92b c9be 8b48 9a3e
00000170: c679 343e c74a bbbe 5cac d53d ed3d 443d
00000180: b29e 77bd 91f7 8ebd 43c8 023e 5bdb ea3e
00000190: 0cc9 9cbd 7323 67bd 6604 8a3e 4ca9 d137
000001a0: 3872 7e3e 082f e9bd e3dd 1bbc 571a a33e
000001b0: d5ff a9be dffa d63d a27a d8bd 2a56 263e
000001c0: a7bf 0b3e 0cdb 853d ed2d 293e da44 6b3d
000001d0: 6062 5d3e ad99 b93e 4f79 88bd 029d 6bbe
000001e0: f4d1 343e aa7b c93e d122 2f3e 1820 6b3e
000001f0: 01de 58be fb8e 5f3e 1ef0 913e be18 4abe
00000200: cfdb 92bd 0a8b babe 9740 983d 0b9d 6fbe
00000210: d2ca f3bd ec21 7f3e 210e 1dbe b1ce 7b3d
00000220: b434 c43e b547 80be 3e24 4bbe b04c bf3c
00000230: 4ab4 05be 2277 c53e 7e50 da3d 978c 053e
00000240: 1202 d7bc 3db4 f5bd a851 0dbe e3bc b6bc
00000250: 8d74 7b3d 1932 653e f2b1 1fbd f51a fd3d
00000260: 4970 b13d a20c babe 00a0 713e 6abf 2b3e
00000270: 8295 75bd ef89 1cbe 2830 103c c6f9 44bf
00000280: 724d a7bd 648e 96bd 5d1c a43e 193a 7bbd
00000290: 4878 e43d e65c c4be 7913 273e b2e8 f6bd
000002a0: 1193 4e3d 3639 63be 4fad ec3c 4763 9cbd
000002b0: 8ebd a1be 8ad1 1f3e b29b b63e 3ef9 03be
000002c0: 8ce1 00be 18c3 b0bd 3bb8 e0be 263b a63e
000002d0: 49dd 88be 7d9c 48be 64c0 303e d719 55be
000002e0: 7c38 02bc a9db 163e 12dd 9abe 8b91 79bc
000002f0: d158 51be b68e 613e c439 123e c48a 643e
00000300: 3c48 723e b613 ef3d 2981 93be 4f74 b2bd
00000310: 7815 29be fd11 bf3e 5638 e2bc c6f5 1d3e
00000320: dc94 54bd aac7 98bd 8def febd 1676 553c
00000330: 78d3 f3bd c5e9 0ebd c179 113b 95f8 63be
00000340: 4201 803e 0daa 043e 12d6 6d3d 5544 e73d
00000350: 542e a6bd e25a 79bf cdb0 61be 12e6 ccbe
00000360: 8fe7 3a3e a7bd 183e b2b2 993e ea3f 13be
00000370: d2eb 96be c6b4 8fbd 31d3 54bd 945b 3f3d
00000380: 56e5 b6bd ec0b 3d3e 8025 c0bc 8ee5 663e
00000390: 1d90 b33e 223a c1be 1b12 a5bd 8af0 be3c
000003a0: ca74 77be 71d9 023e 93c1 79be 8495 d53d
000003b0: 2e48 613e 3cc9 cbbd 6158 49be 7ae0 ddbc
000003c0: 3cfa 7c3d 6abf 8b3d c4d5 5b3e 43f5 adbe
000003d0: b1ee b63e c22d cebd 6516 033d 7131 843e
000003e0: d07f b2bd 4ab5 66bd f766 d93e 77c3 49be
000003f0: 536d dbbc 57ca bdbd 71b6 23be 8e45 d03e
-0.36423057 -0.36431572 -0.1100096 0.15702751 -0.34949973 -0.0618342 -0.24981579 -0.19769885
-0.15062024 0.055787522 -0.31582245 0.28658083 0.1611689 -0.021469533 -0.0040509924 -0.23759851
-0.19911674 -0.047453273 -0.19032234 0.06955282 0.10017437 0.33073825 -0.18393281 0.312162
-0.08995629 0.023957774 0.10864697 -0.07861179 -0.046153847 0.08701697 0.5567469 0.17390272
0.15619099 -0.027028393 -0.3766409 0.36250794 -0.19797425 0.07257223 -0.124233305 -0.28241864
0.23280887 0.117755346 -0.09220988 0.22374599 -0.12708575 0.3461973 -0.07758469 0.3324768
0.08397202 -0.2963781 0.1516059 -0.13373423 0.27059534 0.08128763 0.49830744 -0.10216089
0.18205051 -0.17165366 0.13218059 -0.21197563 0.16185655 0.0046720887 -0.032631613 -0.0781422
-0.17087112 0.093144454 -0.034240175 -0.2811228 0.1844168 0.32335055 0.04577175 0.29485756
0.0077219787 0.021822229 -0.16294433 -0.101224594 -0.09337077 -0.25562438 -0.19974619 0.17679046
0.17439626 -0.03582731 -0.059036445 0.10571437 0.10956722 -0.35379037 -0.029043514 -0.73481894
0.20566472 -0.48036185 -0.39291313 0.3013347 0.17624578 -0.36580488 0.104332656 0.04791062
-0.060454078 -0.06980813 0.12771706 0.4587048 -0.07655534 -0.05643029 0.2695648 2.4993577e-05
0.24848258 -0.113859236 -0.009513351 0.31856033 -0.33202997 0.104970686 -0.10570265 0.16243806
0.13647328 0.065359205 0.16521426 0.05743871 0.21619558 0.36250058 -0.06663763 -0.23009112
0.17658216 0.3935216 0.17103125 0.22961462 -0.21178438 0.21831886 0.28503507 -0.19736001
-0.071708314 -0.36434203 0.074341945 -0.23399751 -0.11903919 0.24915284 -0.15337421 0.061476413
0.3832146 -0.25054708 -0.19838044 0.023351997 -0.13057056 0.38567454 0.10659884 0.13041912
-0.026246104 -0.11997268 -0.1380068 -0.022306865 0.06139045 0.22382392 -0.03898806 0.12358657
0.08663995 -0.36337763 0.23596191 0.16772237 -0.059957035 -0.15286992 0.008800544 -0.76943624
-0.081690684 -0.073513776 0.3205289 -0.061334703 0.11155754 -0.38352126 0.16316022 -0.12056102
0.050433222 -0.22189793 0.028891234 -0.07636123 -0.3158993 0.15607277 0.3566566 -0.12888047
-0.1258604 -0.08630961 -0.43890557 0.32467002 -0.26731327 -0.19590946 0.17260891 -0.20810638
-0.007948037 0.14732231 -0.30246788 -0.015232454 -0.20444037 0.22027096 0.14279848 0.2231856
0.23660368 0.116736814 -0.2880948 -0.0871359 -0.16512096 0.3731841 -0.027614754 0.15425786
-0.051899776 -0.07459958 -0.124480344 0.013028642 -0.11905569 -0.03489091 0.0022197815 -0.22262795
0.2500096 0.12955494 0.05806548 0.1129233 -0.08114305 -0.974043 -0.220401 -0.4001928
0.18252395 0.14916097 0.30019146 -0.1437985 -0.29476792 -0.07016902 -0.05195922 0.046718195
-0.08930461 0.18461579 -0.023455381 0.22548506 0.35070887 -0.37739664 -0.08060094 0.023308057
-0.24165645 0.1277826 -0.24390249 0.104289085 0.2200019 -0.09950492 -0.1966262 -0.027084578
0.06176208 0.06823619 0.21468264 -0.33976182 0.35728982 -0.10067321 0.03200378 0.2581897
-0.087157845 -0.056325234 0.42461368 -0.1970347 -0.026785528 -0.09267109 -0.15987565 0.40678066

fc1.bias f4 [128]
00000000: f743 2d38 2ba9 9438 a6a7 5c38 b4e4 c838
00000010: f1e7 8338 9648 b137 57ec 1a38 b820 c439
00000020: 265c 1238 006f d7b8 569f 2238 8db2 9cb7
00000030: 00d0 1637 f209 4837 6812 32b7 881d 1bb9
00000040: 61d4 91b7 cc31 a9b6 69a9 6839 b5af cf37
00000050: 0f70 d138 4dd8 0a38 2743 0939 52cf 90b8
00000060: 0120 02b9 bd80 6c39 3271 68b8 35b5 0c38
00000070: 1058 8238 3b03 5838 b927 87b8 5eba 6ab8
00000080: 6297 5a38 8c9b 7c38 da7c 6838 5045 df37
00000090: c83a 8fb8 c09f 8038 20f2 4eb7 2533 82b9
000000a0: d8c2 4138 8ab1 8b38 9fbf a938 c590 8fb9
000000b0: 3121 20b8 d89d 84b7 d487 b136 05f7 e3b7
000000c0: 5fdf 1c38 15c7 1039 5657 f337 3298 9839
000000d0: cb15 8637 d5d3 ba38 1865 7fb7 1ee9 1c38
000000e0: 6f88 7438 51aa ab38 487f bdb8 4dc1 4038
000000f0: 981d ee36 08d9 0f37 d042 9436 28a0 af38
00000100: 106d 5435 684e 4e36 aa65 1e38 08b2 7a38
00000110: 0075 d735 8ee4 37b8 fec6 49b9 f2fb 4f38
00000120: a8e2 9d36 5605 5438 1449 92b7 072a c338
00000130: 53f1 b737 8934 3b38 05f6 5c38 41bd 0638
00000140: cb5e 4539 6bd4 29b9 a0b6 c7b8 9837 d9b6
00000150: 85ea 8e38 deab 84b8 2584 7d39 fd73 08b8
00000160: 632e bf37 ce99 0d39 91d6 efb7 f259 9837
00000170: 36f7 5e38 b6ac 1eb8 5ebe aa38 11ac 1e39
00000180: 38cf ca37 5c0c 8bb7 b875 97b8 b395 2cb8
00000190: 0c10 0238 d3b8 4739 1c9f 7db8 0f1a f0b8
000001a0: 37b5 7238 9803 46b7 544c 87b7 ce01 a138
000001b0: 508d a0b7 eed6 0539 d4d8 cbb8 308a 4fb7
000001c0: 2634 2139 b386 36b8 9f15 02b9 fd6b 1938
000001d0: 13bb 1eb8 585c f4b5 784a 7f38 cd0f 1a38
000001e0: 6ec9 eeb7 a7ba 6238 f428 2537 30eb b835
000001f0: d938 63b8 6f37 ba37 afff 1fb7 7dae e638
4.130971e-05 7.0887e-05 5.2608222e-05 9.5793424e-05 6.289769e-05 2.1133845e-05 3.693657e-05 0.0003740841
3.4894932e-05 -0.00010272674 3.8772203e-05 -1.8679793e-05 8.9891255e-06 1.19232445e-05 -1.0613912e-05 -0.00014792953
-1.7384244e-05 -5.0423896e-06 0.00022188354 2.4758143e-05 9.986769e-05 3.310321e-05 0.00013090354 -6.9050715e-05
-0.00012409688 0.00022554673 -5.541853e-05 3.3547363e-05 6.215286e-05 5.150142e-05 -6.4447006e-05 -5.5963515e-05
5.2116236e-05 6.0226346e-05 5.5429387e-05 2.6615948e-05 -6.82972e-05 6.1332714e-05 -1.2334931e-05 -0.00024833638
4.6196248e-05 6.661106e-05 8.09424e-05 -0.00027382947 -3.8177885e-05 -1.5809128e-05 5.2908235e-06 -2.7175536e-05
3.740133e-05 0.00013807074 2.9008526e-05 0.00029105094 1.5984193e-05 8.908628e-05 -1.5222722e-05 3.7410406e-05
5.8301197e-05 8.185639e-05 -9.03593e-05 4.5956393e-05 7.096398e-06 8.573996e-06 4.4185217e-06 8.374482e-05
7.913486e-07 3.074203e-06 3.7764818e-05 5.977045e-05 1.60528e-06 -4.3843458e-05 -0.00019242984 4.958729e-05
4.705351e-06 5.054971e-05 -1.7438586e-05 9.306153e-05 2.1927675e-05 4.46332e-05 5.268121e-05 3.2124346e-05
0.00018822697 -0.00016196228 -9.523076e-05 -6.473576e-06 6.81477e-05 -6.326263e-05 0.00024177188 -3.253295e-05
2.2790575e-05 0.00013504105 -2.8590935e-05 1.8161696e-05 5.3159158e-05 -3.7830985e-05 8.14169e-05 0.00015132154
2.417677e-05 -1.6575847e-05 -7.222168e-05 -4.1147414e-05 3.100936e-05 0.00019046971 -6.0468083e-05 -0.000114489456
5.7866066e-05 -1.1802556e-05 -1.6128797e-05 7.6774144e-05 -1.913929e-05 0.00012763936 -9.720182e-05 -1.2370336e-05
0.00015373583 -4.351763e-05 -0.0001240582 3.6578615e-05 -3.7844362e-05 -1.8206292e-06 6.0866092e-05 3.6731177e-05
-2.8465609e-05 5.4056432e-05 9.8443015e-06 1.3777517e-06 -5.417396e-05 2.2198741e-05 -9.5366695e-06 0.000109997556

fc2.weight f4 [128, 128]
00000000: 719a dcbd 3c68 093e 653a 293e 8d2a c1be
00000010: 328f 423e dd6f 4cbe 82bf d3bd 8c42 4d3e
00000020: 75bf f73d 612e 003e 9513 36be 409d 6dbc
00000030: 2464 fdbb 2c5c 9f3e 0944 fbbd be3b f63d
00000040: f22b 15bd d6ec 36bd b049 f4bd 8f28 2d3c
00000050: 02c1 ab3c d38c 633d 4a5c 7fbc cf5c 9abd
00000060: 1256 bdbe fe3e 9d3e f45d 85be d890 6c3e
00000070: 025a 803e adb7 4c3e d931 e0bd 3741 ae3d
00000080: 1a69 6abe 123f c73d 21c3 7ebd 35ed a2bd
00000090: 3662 85bd 3c37 a33d e3dd 89bc 6845 d4be
000000a0: 643f a5bc 5098 76be 0109 6ebe 69d0 0bbd
000000b0: 57ea 16be ece2 70be fc27 063d b301 b63d
000000c0: 48a1 633e b906 273e 0f19 cb3d 9d74 133c
000000d0: 059d e83d c50e d6bc 0aa2 cfbe a1aa 423e
000000e0: 9f52 01be 228a be3c f460 363e e207 9e3d
000000f0: fc46 8abd 0c4a bd3c 41c7 9c3e 0fe4 9f3e
00000100: 1887 56bd da1a 69be 067d 1abe 3268 8a3d
00000110: db16 19bf 0fd7 97bc a417 80be b284 8cbd
00000120: 848f 883e 6c7d 93bc e702 f73d 4296 9cbc
00000130: 34e7 cbbd 8c1a 78bd 06f3 1abd fb85 00be
00000140: 664e 3a3e 827b b63e b4b9 d93d 19a3 c23d
00000150: 1932 523e 6ad1 99bc 1803 b0bd 5a9d 82bd
00000160: fc24 923e cabf 853e 91ea 5b3e 1dab b53e
00000170: 1e03 f63d f4ce c03d 1e6e d13d 41c3 2f3e
00000180: 5a73 22be c6e4 b43d 35f4 623d 32d2 bc3b
00000190: da02 e83c ff54 eebc d151 bf3d 764c 17bc
000001a0: 76e2 22bd d571 bb3c e2e0 023d 6dea b33d
000001b0: 545c 293e 708f 90be 1e8d 503d d9ab b6bc
000001c0: 97f7 5fbd eeba 043e af1e 48bd e16f adbd
000001d0: cc5c 8bbc 2ca4 dcbd b17d c5be 1024 31be
000001e0: f874 3ebe 8049 81bd d10a 033e 13f2 aebe
000001f0: 2e8c 15bd 59c4 45bc 50d6 583d f418 98be
00000200: 8719 a6bc 51fd 713d d545 92be 97e8 b83c
00000210: e0f3 bb3e 3cf0 2f3e e30c 2b3d ec45 d0bd
00000220: 31fb b1bc 97a5 5dbd 3d98 53bd dd43 c83d
00000230: 7e42 593e 2020 6c3e e342 523e ed6d bc3d
00000240: 53f2 9bbd a65a a6be 51f5 e5bb 6c5d 3abc
00000250: 9e90 0b3e ec03 d9be f52e 403e 016c 593d
00000260: 569f 853e adc6 0f3e 83c7 68be 6021 62bd
00000270: 5acd d5be d553 2a3e 6d1c 3fbe f61d a93e
00000280: 8f83 ac3e fc9c 243d e3fc 9f3e 69f9 d2bb
00000290: e8f5 92bd 1e61 853d ca8e 5c3e 2b7c 14bd
000002a0: 69d4 ad3e f29d 483c e3ef 293e a486 c7bc
000002b0: 248b 703e 8403 4abd 7d47 10bd cc14 d73c
000002c0: 5cab 3f3e e486 b63d 0350 91bd f827 85be
000002d0: 3d76 213e 0aba 8b3d 097f 203e 8d28 b03d
000002e0: 1f9d 8738 1ba7 1f3e a849 293e 97ca 023e
000002f0: 93d4 d2bb 192d a5be 8d27 32be 3944 61bc
00000300: 2e0f dbbd 855d ff3d bedb 63bd ebf9 373e
00000310: e5b9 093d 1113 a03d 302f d53d 3bc7 863e
00000320: e389 a13e bd3f d73d 6eb1 8d3d e823 82bc
00000330: 375b 63bc 640b f03b cf95 f23d 55f9 e1bd
00000340: 6fdd 573d 530c bfbe 0754 393c 211d b73c
00000350: c179 ad3d 7411 773e 67a3 7a3d ce56 b73c
00000360: 7813 e9be e200 943c de02 123d f4d5 b6bc
00000370: dda1 0e3e 8353 883d c53a 2a3e 32f5 0cbd
00000380: 799b 663e 4776 85bc 136d 0b3e 6ca3 b13d
00000390: 8d2d 753d c4b6 2abc dc9a bbbd 7afa 313d
000003a0: 051e 253e 99db 363c d79c d63d 863f 56bd
000003b0: 09ad 7b3d 22b6 193e 5233 573e e8d1 a4be
000003c0: 052f 033e 44c1 c5bc 8421 943e f688 403e
000003d0: 98d4 c53d 231b 743d 68b4 b4be 459e d73c
000003e0: c40c 093f 1d12 bdbc 7401 7cbd ccd5 883e
000003f0: 250b 07bd d54c 2a3e 59ce 933d eae0 8dbd
-0.10771645 0.13418669 0.16526182 -0.37727776 0.18999937 -0.19964547 -0.103392616 0.20044917
0.120970644 0.12517692 -0.17780907 -0.014502823 -0.007732885 0.3112501 -0.12268836 0.12023114
-0.036418863 -0.044659458 -0.11928117 0.010568752 0.020966057 0.055554222 -0.015585968 -0.07537233
-0.3697973 0.30712122 -0.26048243 0.23102129 0.2506867 0.19991942 -0.10947008 0.085085325
-0.22891656 0.097288266 -0.06219781 -0.079554 -0.06512873 0.079695195 -0.016829437 -0.41459203
-0.020171829 -0.2408154 -0.23245622 -0.034134302 -0.14737831 -0.23524064 0.032752976 0.08887043
0.22229493 0.16311158 0.09916889 0.008999971 0.11358074 -0.02613009 -0.40553313 0.19010402
-0.12629174 0.023259226 0.17810422 0.07716347 -0.067518204 0.023106597 0.3062077 0.31228682
-0.05237493 -0.2276415 -0.15086755 0.06758155 -0.598005 -0.018535165 -0.25018036 -0.06861247
0.26671994 -0.018004142 0.120611005 -0.019114617 -0.09956208 -0.060572192 -0.03782942 -0.1255111
0.18193969 0.35641104 0.10631123 0.09503765 0.20526923 -0.018776614 -0.0859434 -0.06377669
0.28543842 0.26122886 0.21476199 0.35482112 0.12012313 0.09414473 0.10226081 0.17164327
-0.15864316 0.088326976 0.055408675 0.005762362 0.028321672 -0.029093264 0.09341777 -0.009234538
-0.03976675 0.022881428 0.031952746 0.087849475 0.16539127 -0.28234434 0.05091583 -0.02229874
-0.05467948 0.12961933 -0.048857387 -0.08468605 -0.017012022 -0.10773501 -0.38572457 -0.17298913
-0.18599308 -0.06312847 0.12797095 -0.34169063 -0.03651064 -0.012070739 0.05293876 -0.29706538
-0.020275844 0.059079472 -0.28568903 0.022571845 0.367095 0.17181486 0.041760337 -0.101695865
-0.021726223 -0.054112997 -0.051658858 0.09778569 0.21216771 0.2305913 0.20533328 0.09200654
-0.07614579 -0.32491034 -0.0070177694 -0.011374813 0.13629386 -0.42385805 0.18767913 0.053081516
0.26098126 0.14040633 -0.22732358 -0.05520761 -0.41758233 0.16633542 -0.18663187 0.3303067
0.3369412 0.040188774 0.31247625 -0.0064384234 -0.07175809 0.06512664 0.21538845 -0.03625123
0.3395112 0.012244688 0.16595416 -0.024356194 0.23490578 -0.04931976 -0.035224427 0.026255034
0.18717712 0.08912447 -0.07095339 -0.26007056 0.1576776 0.068225935 0.1567346 0.086014844
6.466568e-05 0.1559109 0.16532004 0.12772594 -0.006434032 -0.3226097 -0.173979 -0.013749176
-0.10696255 0.12469009 -0.055629484 0.1796643 0.03362455 0.07816137 0.10409391 0.26323876
0.31550512 0.10510204 0.06918608 -0.015886262 -0.013876728 0.0073255766 0.1184498 -0.110338844
0.05270141 -0.3731409 0.011311538 0.022352757 0.08470488 0.24127752 0.06119099 0.022380259
-0.45522666 0.018066827 0.035647266 -0.022318818 0.13928933 0.066565536 0.16623981 -0.034413524
0.22520246 -0.01629175 0.13615827 0.086737484 0.059857894 -0.010419551 -0.091603965 0.043451764
0.16124733 0.011160755 0.104791336 -0.052306674 0.061444316 0.15010884 0.21015671 -0.32191396
0.12810905 -0.024140008 0.2893182 0.18802246 0.0965969 0.059596192 -0.3529389 0.026320586
0.53535104 -0.023079926 -0.061524823 0.26725614 -0.032969613 0.16630872 0.07217092 -0.069276646

fc2.bias f4 [128]
00000000: aeda 33b7 5064 c1b7 1677 4738 d5d0 c238
00000010: e88c 3c38 12ac 9036 3836 9937 a84d 01b8
00000020: 532a 6738 74a6 03b8 c349 24b8 c242 3938
00000030: 60b3 9138 6d6d 3238 b87b 0638 d02e cd34
00000040: 6e9d 4db8 491b 2837 385b d8b6 4cba 9538
00000050: 7f27 7bb8 66c4 07b7 687d 0fb9 b159 7938
00000060: 2a1d 85b8 98e7 eeb8 df1a 6db8 e79d 62b6
00000070: 0212 5d38 a421 f337 6172 50b8 ef44 0839
00000080: 98b4 c638 f6bb 9438 6a7b 8b38 9e35 15b8
00000090: eac8 5438 93fb 8138 66a6 26b7 2837 e7b8
000000a0: dc7c 4e36 a58e cfb8 ef3c c237 a82d bcb6
000000b0: e377 4d38 b2e3 a0b8 2e6e 37b8 72dc 9db8
000000c0: 0ace 9f37 96ed 0238 24db 3cb8 59b5 9238
000000d0: 1759 bcb7 3111 9438 c6d5 a638 c89e 7438
000000e0: ba96 f838 1e0e 08b8 0ecb fbb8 8d9a 1338
000000f0: b340 8138 729b aa38 5b13 3838 c24c 57b8
00000100: 00c7 6fb8 c682 1ab8 8816 d238 0399 e3b8
00000110: 7cb8 0138 e27d 41b8 30b0 a1b7 b6c7 f438
00000120: 7849 22b8 2ef3 1cb8 9612 3837 9eae 4938
00000130: 4666 a638 83fa d4b8 9e31 14b8 3097 6736
00000140: df8a dcb8 6ab5 18b8 d795 f1b7 a52a 6537
00000150: 480d 9a36 3d2f 08b9 ece4 a3b8 88c6 c2b8
00000160: 2c47 fd37 2b3c 17b9 93b0 9437 75f2 5538
00000170: 2273 1637 3da9 96b8 6604 0fb9 21c8 54b8
00000180: 14ea 17b7 c869 06b8 e67b d437 5e1c bab8
00000190: 791c d9b8 706d f435 ba81 2039 d6eb 5f38
000001a0: 9281 5f38 60aa ba38 60f8 9eb5 8769 b838
000001b0: 0861 bdb8 3c05 cfb7 e007 b437 86eb ab37
000001c0: 7669 6fb7 de1c 0c38 dc6a 8f36 1552 c938
000001d0: 8cd1 6d37 4810 9d38 4676 3eb8 7b05 e937
000001e0: 2bf8 a0b8 00f2 f9b4 8288 f2b7 134c 6cb8
000001f0: 8e91 e438 0d6a ed37 d252 7bb8 8052 e2b7
-1.0720147e-05 -2.3054105e-05 4.7556205e-05 9.289539e-05 4.4953922e-05 4.311566e-06 1.8264269e-05 -3.082832e-05
5.511411e-05 -3.1387855e-05 -3.9169343e-05 4.416961e-05 6.94755e-05 4.2540418e-05 3.206331e-05 3.8218286e-07
-4.9022427e-05 1.0019933e-05 -6.447921e-06 7.139574e-05 -5.9879847e-05 -8.092355e-06 -0.0001368426 5.9449758e-05
-6.3473664e-05 -0.00011391862 -5.653023e-05 -3.3768536e-06 5.2707277e-05 2.8983522e-05 -4.9697588e-05 0.0001299565
9.475014e-05 7.0922004e-05 6.651024e-05 -3.5574303e-05 5.0731855e-05 6.198059e-05 -9.933114e-06 -0.00011025212
3.076907e-06 -9.897099e-05 2.3154977e-05 -5.6081517e-06 4.8987462e-05 -7.671806e-05 -4.3733213e-05 -7.5274045e-05
1.9050221e-05 3.1215684e-05 -4.5026783e-05 6.995601e-05 -2.2452832e-05 7.060392e-05 7.955315e-05 5.832201e-05
0.000118536365 -3.2438074e-05 -0.000120064346 3.5191468e-05 6.1632505e-05 8.1351856e-05 4.3887045e-05 -5.133148e-05
-5.7167374e-05 -3.6838253e-05 0.00010017777 -0.00010852704 3.092781e-05 -4.6132023e-05 -1.927474e-05 0.00011672026
-3.8692233e-05 -3.7419777e-05 1.0971582e-05 4.808476e-05 7.934547e-05 -0.00010155609 -3.533216e-05 3.4509685e-06
-0.00010516284 -3.640858e-05 -2.8799213e-05 1.3659393e-05 4.591104e-06 -0.00012987568 -7.815086e-05 -9.28762e-05
3.0193092e-05 -0.00014422896 1.7725199e-05 5.1008963e-05 8.967503e-06 -7.1840805e-05 -0.00013639181 -5.0731123e-05
-9.054802e-06 -3.2046606e-05 2.5330064e-05 -8.874455e-05 -0.0001035267 1.8211267e-06 0.00015307116 5.3386982e-05
5.3288015e-05 8.900906e-05 -1.1844204e-06 8.79346e-05 -9.030296e-05 -2.467876e-05 2.146134e-05 2.0494463e-05
-1.4270065e-05 3.3405486e-05 4.274172e-06 9.599716e-05 1.417509e-05 7.489376e-05 -4.540968e-05 2.7778317e-05
-7.6756194e-05 -4.6555942e-07 -2.8912214e-05 -5.6337634e-05 0.00010898999 2.8301985e-05 -5.9920196e-05 -2.6979716e-05

fc3.weight f4 [64, 128]
00000000: 9cbe 9abc 5432 59be f019 013e 09f0 96be
00000010: 33fe acbc dde5 b1bd 43b7 bdbe d664 f7bc
00000020: b6c1 f2be 30c6 45be 47ac 4bbe 49c1 c1bd
00000030: 0213 21be 981f 013e db78 ad3d 0611 d23d
00000040: 3f4f 30be d955 b0bc 19fd f33b 0216 95be
00000050: 6863 273e 5cf1 8fbc c8e4 a23d 2553 81bb
00000060: 57ad 14bd 8aa7 00be c29a a6be 1a44 55be
00000070: 7e97 d8bc c523 293e 2a3a 52be f7a2 01be
00000080: 87da 0dbc a0fd 97be 7516 5ebe b432 783c
00000090: 0abd d7bd 9548 9c3d 73c8 9f3d 1d34 733d
000000a0: a901 72be 889f 0a3d e6d7 9bbd 4c37 10be
000000b0: f755 e23d bd6a 6ebe 5dc8 53be 47ca 8d3d
000000c0: e504 1abc fd5e 8b3c 063a b9bd 423f d0bc
000000d0: 1cbe c2be 1958 bb3e 3499 49be afe0 8fba
000000e0: 7a00 613d 375d ee3c 7038 5ebe 40c8 8a3d
000000f0: f6e7 cdbd 2429 f3bd f123 003e f61e 39be
00000100: 6402 dd3c ab5d 33be 95f9 acbd 910d 9c3c
00000110: 3404 2a3d 6079 02bf 3d6f 0dbe a718 103e
00000120: 3216 b8bd b72e 23bd 3f8d a2bd 4c94 8ebe
00000130: 7cff 2b3d e7fb 37be fc8f 9f3d aa3c c73d
00000140: 6434 8fbe b0db 9bbd 0944 af3d a09d 613e
00000150: 1f5a ecbd 9026 bcbd 48fa 03be 1f4f 2bbe
00000160: e184 b93d ac0e 1dbe 5580 d53c 3058 7c3e
00000170: 3635 e4bd 45fa 993c c334 043d 03e1 0e3b
00000180: ac41 093e 9c72 e1bd bf6f 85be ae33 243e
00000190: 2416 03be 77a8 613d 181a 0f3d 681e 11be
000001a0: a65f 963e a8dd 65be 8715 52bc 74e4 3fbe
000001b0: 4fcb a6bd 45cc a43c 3c4f b53d 95f9 51be
000001c0: cac1 643c 8ca3 81bb 91ec 1abe b518 70be
000001d0: bb75 9c3d 6227 22bd 018b 19be 0b2e 6e3c
000001e0: 3e2c 01be c389 dabd bd01 a2be 1ea4 86be
000001f0: f7ba 4dbe a70d c03c 8176 5fbe 4dc6 dcbd
00000200: aec2 263e 6ef2 fcbc 770c c0be b364 03be
00000210: 90e5 cf3d a72e 23be acaf 2a3e b394 f73d
00000220: 437e 8f3d 22e7 c53e ba61 8f3d 48c1 9cbe
00000230: 6c7f 00bd 26f1 83bd f0dc 253e 29e1 8fbe
00000240: 0df9 0c3e b693 7ebd 2714 96be 8eb4 c83d
00000250: 4650 b6be ed1d 2dbd 42da 843d a2bd 9fbe
00000260: 70dd 84bd c4ec b0bd 65ae fa3d 44c7 20bc
00000270: 08f4 8dbc 81d0 003e 833b 073e b7fb 47bc
00000280: cdef 4bbd 0727 4d3d 1383 7fbe e300 943e
00000290: 0ac8 ddbd 202d 9a3d 6285 1f3e 85f4 6a3d
000002a0: 76b4 1e3e 1b39 d2bd 37f9 13be 9c2f a73d
000002b0: 01b3 583e 6780 353d a8c2 c1bd 4bc0 24bd
000002c0: ce44 2bbe 21a8 813e 16f1 dd3c 2064 3abe
000002d0: 38b5 2f3d 9c39 6ebe 214d 2f3e 3f41 333c
000002e0: 514c ca3e 37b6 2c3e 1391 27bd 9e14 85bc
000002f0: 8b53 1d3e ef43 f23c a1cd 203c a572 14be
00000300: 006f 07be 6d7f 9d3d 0cf6 f5be 25af 023e
00000310: 9af1 db3d 74f3 543b bc7f bc3d 8f3e 57be
00000320: 331b ebbd 962c 4a3d cea3 06bc c454 c03c
00000330: 3afc 883d 0186 59bc b5d4 21be 1def bbbe
00000340: 71ce a1be bada b83e d22e 6bbe 72d2 8cbe
00000350: 3162 083e 706e a13b 5e4a 073e 12bc c53d
00000360: ced0 d03b 5536 29be 26d8 9b3e 8b68 ba3d
00000370: 76da 883d 581f d0bc ff13 71be 3606 8fbe
00000380: f21a 3dbe 3806 2abe f2d9 e33c 7a2c 51be
00000390: 5b82 3c3d 075f cabd a647 dbbd f168 a6bc
000003a0: c166 fb3d 05d9 933d a112 7c3d d2e5 7dbc
000003b0: 7d5b 60be df4d 7ebe 401c 90be ccc0 b23e
000003c0: 7d75 a5be fb08 2ebe f7df 47be 5f23 3e3e
000003d0: 7343 9cbc ebd8 25be 50f2 39be 3d72 68be
000003e0: ef41 6dbc 52d3 fdbc ee7c 38bd 5a62 393e
000003f0: 0b4e 423e c7e4 09be 62af e4bd ced3 92be
-0.018889718 -0.21210605 0.1260755 -0.29480007 -0.021117305 -0.08686421 -0.3705388 -0.03019945
-0.47413415 -0.19313884 -0.19889937 -0.09460694 -0.15729907 0.12609708 0.08470317 0.10257153
-0.1721773 -0.02152531 0.007445943 -0.29118353 0.16346514 -0.017571144 0.07953793 -0.003946679
-0.036298122 -0.12563911 -0.32539946 -0.2082676 -0.026439425 0.16517551 -0.2053 -0.12659822
-0.008658058 -0.29685688 -0.21688254 0.015148807 -0.10534103 0.076310314 0.078019045 0.05937587
-0.23633446 0.033843547 -0.07609539 -0.14083594 0.11051553 -0.23282905 -0.20681901 0.06923347
-0.009400581 0.017013067 -0.0904427 -0.025420789 -0.38035667 0.3659065 -0.19687349 -0.0010976995
0.054932095 0.029097183 -0.21701217 0.06776476 -0.10054009 -0.11873081 0.1251371 -0.18078217
0.026978679 -0.175162 -0.084460415 0.019049438 0.041507915 -0.50966454 -0.13811965 0.14071904
-0.089886084 -0.039839473 -0.07937097 -0.27847517 0.041991696 -0.17967187 0.07791135 0.097283676
-0.27969658 -0.076102614 0.085578986 0.22032785 -0.11540627 -0.09187043 -0.12888443 -0.16729401
0.09058548 -0.15337628 0.02606217 0.24643016 -0.11142962 0.018796096 0.03227688 0.0021801598
0.13403958 -0.11008188 -0.26061818 0.16035339 -0.12801415 0.0550923 0.034936994 -0.14171755
0.2936985 -0.22447836 -0.012822515 -0.18739492 -0.08144247 0.020116935 0.088530034 -0.20505364
0.013962219 -0.003956264 -0.15129305 -0.23446925 0.07639643 -0.03958834 -0.14994432 0.014537345
-0.12614533 -0.10670807 -0.3164195 -0.26297086 -0.20090853 0.02344401 -0.2182255 -0.1078001
0.16285202 -0.030877318 -0.3750951 -0.12831382 0.101512074 -0.15935765 0.16668576 0.12088909
0.070065044 0.38652903 0.07001062 -0.30616212 -0.03137152 -0.0644248 0.16197562 -0.2810147
0.1376688 -0.062152587 -0.2931225 0.09800063 -0.3560812 -0.042264868 0.06486942 -0.31199366
-0.06487548 -0.086389095 0.12240294 -0.009813134 -0.017328277 0.12579538 0.13206296 -0.01220601
-0.04978924 0.050086048 -0.24952345 0.28906927 -0.1082917 0.07528138 0.15578225 0.0573621
0.15498528 -0.10264798 -0.14450537 0.08163378 0.21162035 0.044311907 -0.09460956 -0.040222447
-0.16725466 0.25323585 0.027092498 -0.18202257 0.042897433 -0.23264164 0.17119266 0.010940849
0.3951135 0.16866384 -0.040909838 -0.016245183 0.153639 0.029573409 0.009814651 -0.14496858
-0.13225937 0.0769032 -0.4803928 0.12762125 0.10739441 0.0032493742 0.09204051 -0.21019958
-0.11479797 0.049358927 -0.008217765 0.02347792 0.066887334 -0.013276578 -0.15803798 -0.36705866
-0.31602815 0.36104375 -0.2296708 -0.27504307 0.13318707 0.0049264953 0.13211963 0.09655012
0.0063725477 -0.16524632 0.30438346 0.09101971 0.06682293 -0.02540557 -0.23542784 -0.27934426
-0.1846731 -0.16603935 0.027813885 -0.20427123 0.046022754 -0.09881406 -0.10707025 -0.020313712
0.12275458 0.072191276 0.061541203 -0.015496688 -0.219099 -0.24834393 -0.28146553 0.34912717
-0.323162 -0.16995613 -0.1951903 0.1856818 -0.019075131 -0.16196029 -0.18158841 -0.22699828
-0.014481052 -0.030984554 -0.045041017 0.18103924 0.18975084 -0.13466178 -0.11166264 -0.2867722

fc3.bias f4 [64]
00000000: 97a3 e937 cd06 9a36 6b30 3938 64f1 9938
00000010: 645c 84b8 dc87 e537 ec44 8a37 1833 4336
00000020: 204d 68b6 2bd4 d837 626a 1838 fb37 86b8
00000030: 8318 0f38 5418 df36 a029 e335 2b3c c538
00000040: f45a 0538 015e 3d38 ae4a 9cb8 a0f1 2bb8
00000050: 5280 0338 7652 b837 de6f 87b8 1c03 1138
00000060: 07cd 09b7 a0e8 d036 5690 e936 21fb 9f37
00000070: 4fa6 06b8 898f 6038 8bc6 1cb8 6698 cbb5
00000080: 9f04 d1b7 a944 deb7 dbe6 b037 2b1f fc37
00000090: b943 03b8 0c54 dfb6 3a00 d5b7 5dce 54b8
000000a0: 4dba d137 6055 9538 6ecd a038 3427 b837
000000b0: cd0b e2b7 af44 13b8 6f1e d1b7 e7a5 be37
000000c0: e9c0 87b7 407f 65b5 745c 06b8 f8bf 49b7
000000d0: a457 b2b7 0437 0d38 9c9c 86b7 4426 03b8
000000e0: f43c b9b6 403d bbb7 98ed 3038 0449 d338
000000f0: 7b7f bfb7 a223 6d38 ddc9 15b8 5cae 3db7
2.7851942e-05 4.5903494e-06 4.415253e-05 7.340571e-05 -6.3114596e-05 2.7362192e-05 1.6482976e-05 2.9087005e-06
-3.4615587e-06 2.5848005e-05 3.63387e-05 -6.400045e-05 3.4116685e-05 6.64875e-06 1.6924932e-06 9.404899e-05
3.1794378e-05 4.514866e-05 -7.45257e-05 -4.0994608e-05 3.135234e-05 2.1972908e-05 -6.4581385e-05 3.457359e-05
-8.213573e-06 6.225964e-06 6.960744e-06 1.9071218e-05 -3.2102977e-05 5.353944e-05 -3.7378206e-05 -1.5169032e-06
-2.4916893e-05 -2.6496435e-05 2.1088335e-05 3.0055255e-05 -3.1295906e-05 -6.6557022e-06 -2.5391684e-05 -5.073693e-05
2.5001495e-05 7.120776e-05 7.667659e-05 2.1952765e-05 -2.6946795e-05 -3.5111498e-05 -2.4928913e-05 2.272702e-05
-1.6183085e-05 -8.549432e-07 -3.2034193e-05 -1.202523e-05 -2.1260064e-05 3.3668257e-05 -1.6046972e-05 -3.126847e-05
-5.5205255e-06 -2.2320659e-05 4.2182946e-05 0.00010074864 -2.2828337e-05 5.653839e-05 -3.5712368e-05 -1.1305874e-05

fc4.weight f4 [3, 64]
00000000: 70ec b6bd d62c 353c a6f1 39be 75c2 41bc
00000010: 56e4 2f3d 57ad 0abe b722 67be 4207 44be
00000020: edf5 f9bd dddf 05bc f38c 04be 5367 37be
00000030: e6a6 18be ab77 633d 4fce 52be a708 113e
00000040: 989e afbd c1ba 1a3e 45cd dd3c d59d d9bd
00000050: f6e6 3d3d f0b9 f0ba 67ab cdbd d19d 1cbe
00000060: 7c95 f43d 0ae8 b13d 5dfb 693d 0035 efb6
00000070: e579 253e af1d 35be e882 013e 9c1b 123d
00000080: 5621 89bc 3571 183e 757a 033e baf0 cb3d
00000090: 4e1a f43d d4e5 173e eef2 db3d 1c68 073d
000000a0: f8d6 6ebd 35c5 0ebe 0368 38be 65da e9bd
000000b0: 4341 f7bd 827f 883d b6cc 99bd fe5a 613d
000000c0: 08c8 05be c131 d33d a43a df3d 9fc6 7abc
000000d0: cb5d 5dbe 1a33 8e3d af66 da3d 9dcf 333d
000000e0: f0b1 013d a4e5 c33d 821f dc3c fc32 b3bd
000000f0: 44e9 36bd 1f39 8bbc 80e7 593d 171b b23d
00000100: fabb de3d 4f99 39be 575f 363d 01a1 d13d
00000110: 078a 8f3c 53be 953d bc50 103d b1cc a63c
00000120: 3413 33be 7383 c6bc 127e 8b3d 6454 ea3c
00000130: edde 30bd f4de d23d 0011 65bd 7f74 1a3e
00000140: 0306 ee3d bc7c 21bd a83c 653e 5721 a43d
00000150: 9fd3 0ebd aacd 2dbe 2187 33bc a052 c33d
00000160: 2fa9 983d a832 e63d 1c7c afbd 4e84 963e
00000170: 38a1 1fbe 3227 5a3b 8f3f 24be a740 87bd
00000180: 7a5b 38bd 88f0 2d3d 34a4 9cbd 4ef9 9c3d
00000190: 9946 a03d de54 a13d 03ff d93d b5c4 303e
000001a0: a44c 45be f528 873d fe8c ae3d 5ac9 e73d
000001b0: 16e5 163e f18e 653d 2ea1 d83d 16a9 ca3c
000001c0: 490e fe3d d841 6a3c d2b8 8cbd 0e75 22bd
000001d0: e227 5e3c 4eb1 08be 8330 d0bd 10ab 713d
000001e0: 7b34 a1bd 335b 0e3d ff7d f93d 655b 16be
000001f0: 48db 84bd 3683 2d3e b22c 50bc bfa4 34be
00000200: f914 0f3d 3e6a 59bd f805 7a3d 9886 27be
00000210: 19a5 87be 3cc2 583d b0c9 c8bd e328 593d
00000220: 487b 543c ca5a 143e 1339 c03d 10f4 d4bc
00000230: 58b3 c83d be7c 44be 87d9 3d3d f8b2 1bbe
00000240: e821 2a3e 9613 07be b6b6 c7bd 85c5 2abe
00000250: 13cf 5bbe dafe 7d3d 37df c53d 1b0b 22be
00000260: 6a85 efbd 05e4 1fbe 3338 b83d 2beb 02bd
00000270: 1ce3 1e3e 6eea 973d 2fb5 a83d 550e 88be
00000280: bfbe aa3d a0a4 14be 8fe7 11be 5650 fcbd
00000290: 132e 30be af29 b8bd cdd7 3cbe c4e8 a5bd
000002a0: 46c1 393d 65df d63d f262 b13d b054 093e
000002b0: 99e1 a93d 6491 48be 8a08 1cbe b38b 71be
000002c0: a932 aa3d 4500 1cbe 0d8f 1bbd 47e1 72be
000002d0: af49 1e3d 2dd4 89bd 4ed8 fcbd 6ca7 63be
000002e0: da04 f9bd 0738 1fbe 840c 64be 8611 ad3d
000002f0: 5db8 d43d cd2e 20be 4a56 25be 14fb be3d
-0.089318156 0.011058053 -0.18158588 -0.011826147 0.042942367 -0.13542686 -0.22571836 -0.19143394
-0.1220511 -0.008171049 -0.12944393 -0.17910509 -0.14907417 0.055534046 -0.20586513 0.14163457
-0.08575171 0.15110303 0.02707542 -0.10625807 0.04636284 -0.001836596 -0.10042458 -0.15294577
0.119425744 0.08686836 0.057124484 -7.128925e-06 0.1615978 -0.17687105 0.12647593 0.03567086
-0.016739529 0.14886935 0.12839682 0.09958024 0.1191908 0.14833766 0.107396945 0.03305827
-0.05831048 -0.13942416 -0.18008427 -0.114186086 -0.120729946 0.06664945 -0.07509749 0.055018418
-0.13064587 0.10312224 0.10899857 -0.015306144 -0.2161781 0.069433406 0.106641166 0.043899167
0.031663835 0.09565285 0.026870493 -0.08749959 -0.044656053 -0.01699501 0.05319929 0.08696573
0.108756974 -0.18124889 0.044524517 0.10235787 0.017521871 0.07311692 0.035233244 0.020361276
-0.17487794 -0.024232602 0.068111554 0.028604694 -0.04318135 0.10296431 -0.055924416 0.15083502
0.116222404 -0.039425597 0.2238642 0.080141716 -0.034869786 -0.16972986 -0.01095751 0.09537244
0.07454144 0.11240131 -0.08568594 0.29397815 -0.15588844 0.0033287522 -0.1603987 -0.06604128
-0.045009114 0.042465717 -0.07648507 0.076647386 0.078259654 0.07877515 0.10644343 0.17262538
-0.19267517 0.06599609 0.08522986 0.11317702 0.14735827 0.056044523 0.105776176 0.02473883
0.124050684 0.014297925 -0.06871189 -0.039662413 0.0135593135 -0.13348886 -0.10165503 0.05900103
-0.07871338 0.034754943 0.12182235 -0.14683302 -0.06487137 0.16944584 -0.012705969 -0.1764097
0.03493211 -0.053079836 0.06104085 -0.16359937 -0.26493147 0.05291961 -0.09804094 0.05301751
0.012968846 0.14487758 0.09385886 -0.025995284 0.09799832 -0.1918821 0.04635003 -0.1520499
0.16614497 -0.13191065 -0.09751646 -0.1667691 -0.21465711 0.062010624 0.096617155 -0.15824549
-0.116953686 -0.15614326 0.08995094 -0.031962555 0.15516323 0.07417761 0.08237683 -0.26573434
0.08337163 -0.14515924 -0.14248489 -0.1232001 -0.17205076 -0.089923255 -0.18441696 -0.08101037
0.045350336 0.10491828 0.086614504 0.13411212 0.082949825 -0.19586712 -0.15237632 -0.23588447
0.08310444 -0.15234478 -0.03797822 -0.23718749 0.03864449 -0.067299224 -0.12345944 -0.22231835
-0.121591285 -0.15548716 -0.222704 0.08450608 0.10386727 -0.15642853 -0.16146198 0.09325233

fc4.bias f4 [3]
00000000: 6d75 a63d 57f7 43be f978 103e
0.08127866 -0.19137321 0.14108647

bn1.weight f4 [128]
00000000: bcce 633f 8bdc 523f 39a8 313f 06cb 303f
00000010: b26c 583f 373b 643f 7992 2d3f 1440 783f
00000020: d202 563f 2253 493f 3ad0 423f a9a8 423f
00000030: d611 493f 204d 3a3f 6661 413f 3faa 2d3f
00000040: a84f 603f bb36 483f 4728 563f b493 0f3f
00000050: 9d48 5e3f 0004 643f c676 653f d56b 533f
00000060: 0f73 3f3f 5e7b 5c3f bc09 433f 1118 3b3f
00000070: 9a84 5d3f 3199 3b3f 8b96 5d3f ab94 4f3f
00000080: 521b 3d3f 9739 423f ed1a 283f fdf2 2f3f
00000090: c2ae 383f 921a 5b3f 23ee 363f 75e2 593f
000000a0: 9193 4b3f be97 3a3f 31ce 653f c697 5f3f
000000b0: aaec 7c3f 7ca9 473f 2a85 623f 0868 593f
000000c0: e567 5c3f 1ec3 313f ad52 723f 4fdd 7f3f
000000d0: f367 223f 1e75 1d3f dfdf 683f c610 4e3f
000000e0: cdfb 443f fdd9 563f 7810 473f 7bda 3b3f
000000f0: 052c 533f cb4e 383f 7ad3 633f 70b4 543f
00000100: cedd 2c3f 55f2 493f 9864 2b3f dd7c 4d3f
00000110: 738e 4a3f cac3 5d3f 049e 353f e5e7 3a3f
00000120: 1a2d 653f 0e78 233f f933 543f 4478 773f
00000130: f161 593f a8f8 4b3f bca8 333f 2ff0 723f
00000140: 3626 4d3f 9f48 573f 616b 4c3f b414 343f
00000150: afe3 503f bc9d 413f b105 5c3f 5294 283f
00000160: c8f2 573f 6aa3 7b3f 0034 673f ec3a 5f3f
00000170: ce7d 563f d96a 2a3f 94b6 4c3f ca82 4e3f
00000180: 7a0e 4e3f bdcd 463f d592 5b3f 070e 753f
00000190: 5d84 2c3f 369b 653f 845c 453f 3a87 513f
000001a0: 2e60 4f3f e38e 473f f78f 443f fcf9 483f
000001b0: 871c 3f3f a74f 4a3f 75b8 4f3f 4763 443f
000001c0: 763e 4d3f 7c55 573f 8fdb 4b3f d283 623f
000001d0: 1bd8 6c3f 6cbe 803f 391d 6f3f 8224 2b3f
000001e0: f6f3 623f b44b 3a3f b7c0 453f 14ed 4c3f
000001f0: c83e 633f 7398 5e3f e15c 433f 2aa5 4a3f
0.88987327 0.8236777 0.6939731 0.6905979 0.84540856 0.89152855 0.67801625 0.96972775
0.83598053 0.78642476 0.7609898 0.76038605 0.7854284 0.72773933 0.75539243 0.678379
0.87621546 0.7820851 0.8365521 0.5608475 0.8682955 0.89068604 0.8963436 0.82586414
0.7478494 0.86125743 0.7618673 0.730836 0.8653046 0.73280627 0.86557835 0.81086224
0.7386981 0.75869125 0.65666085 0.68730146 0.7214166 0.8558742 0.7145712 0.8511117
0.79522043 0.7288779 0.8976775 0.8734096 0.9879862 0.7799299 0.8848444 0.84924364
0.8609603 0.6943835 0.94657403 0.99947065 0.63439864 0.6150683 0.909666 0.80494344
0.7694672 0.83926374 0.77759504 0.7338025 0.82489043 0.7199523 0.8899456 0.83087826
0.6752595 0.78885394 0.6695037 0.8026865 0.7912361 0.86626875 0.7094424 0.7301009
0.89521945 0.63855064 0.82891804 0.96667886 0.8491507 0.79676294 0.70179343 0.9489774
0.8013643 0.84095186 0.7985135 0.7034409 0.8159742 0.7563131 0.85946184 0.6585132
0.8435483 0.98296225 0.9031372 0.8719928 0.8378571 0.66569287 0.7996609 0.8066832
0.8049084 0.7765768 0.8577092 0.9572453 0.6738947 0.8968996 0.7709429 0.81846964
0.81006134 0.779524 0.7678217 0.78506446 0.74652904 0.7902779 0.81140834 0.76713985
0.8017343 0.84114814 0.79631895 0.8848239 0.9251725 1.0058112 0.93403965 0.6685258
0.88653505 0.72771764 0.77247185 0.8004925 0.8876767 0.8695137 0.76313597 0.7915827

bn1.bias f4 [128]
00000000: f47e 29bf fa14 31bf 1b4b d2be 9dda 17be
00000010: 077c 2ebf 2c0c 43bf a500 8bbe 9fe9 e2be
00000020: 6892 27bf 944b e2be 0e2c 08bf 2f7e 22bf
00000030: c9fe dfbe ec33 dfbe 8452 0bbf e1ed 9abe
00000040: 19be 0abf bba8 08bf 4a74 11bf 9b40 25be
00000050: bd84 e6be 17d2 12bf aded 12bf 6ef6 22bf
00000060: ec8f 09bf 0b82 e5be a85b 06bf dabd 14bf
00000070: 465f 2bbf 7bc8 5fbe 9345 0abf 9ecf f4be
00000080: f0dc 25bf 9efc afbe 78b2 a8be a9e2 cfbe
00000090: 618a 04bf 5b03 06bf a127 ddbe 3d59 12bf
000000a0: ea94 35bf c470 1abe ea08 bebe 9b2e 35bf
000000b0: 8c6c 38bf 43fd 9dbe 862a 1cbf 7c83 02bf
000000c0: 44ac 0ebf 0928 c5be 3c5a f9be 7911 e3be
000000d0: e543 a2be 55ce cdbd 6c21 f7be d130 35bf
000000e0: 16ed 0fbf 7de9 19bf 79aa b5be 67fb 2dbf
000000f0: c15a b1be 6ba7 8dbe 6a5e 17bf eb72 1dbf
00000100: b02b d6be e8e5 b8be 9b42 eebe ef59 07bf
00000110: 26a4 f6be d409 0dbf 9b1a 36be c6c0 e0be
00000120: aa71 23bf acbf ecbc 6be5 f9be e1f5 12bf
00000130: f53e b1be a893 04bf 603f b4be 25d5 03bf
00000140: cfe7 bdbe 48c5 2ebf 303a 89be bf03 6fbe
00000150: 6eb0 2abf e185 d9be 164e 11bf 686e 72be
00000160: ffc7 10bf df66 56bf 400c 3bbf db27 fcbe
00000170: 3ca1 0bbf 92f6 a2be 3928 03bf 6349 a8be
00000180: 9361 d2be 939b 1bbf 204f 11bf a1d2 1fbf
00000190: 13c8 ddbe 3c02 f4be 4b0e cebe a911 0ebf
000001a0: e9b3 1cbf 644c 94be 47d5 c4be 97ea efbe
000001b0: e970 f7be b6b9 dfbe c09d 12bf b67e 0bbf
000001c0: c5c3 eabe bf92 55bf 76f5 e3be 69d2 50bf
000001d0: 410a 2fbf 1a3f 08bf 76e9 18bf a73a 99be
000001e0: f19f 5abf cc2a b9be dba1 1ebf 1a3d 2fbf
000001f0: e0e3 f1be 2052 ddbe 4bbe fbbe 717c debe
-0.6620934 -0.6917263 -0.41072926 -0.14829488 -0.68158 -0.7619045 -0.2714893 -0.44318864
-0.65457773 -0.44198287 -0.5319222 -0.6347379 -0.43749073 -0.435943 -0.54422784 -0.30259612
-0.54196316 -0.5338246 -0.5681807 -0.16137926 -0.45023146 -0.5735182 -0.57393914 -0.6365727
-0.5373523 -0.44825777 -0.52483606 -0.5810219 -0.6694225 -0.21853821 -0.5401241 -0.4781465
-0.6479025 -0.3437242 -0.3294866 -0.40602615 -0.5177365 -0.5234887 -0.43194297 -0.57167417
-0.7093035 -0.15082079 -0.37116176 -0.7077424 -0.7204063 -0.30857286 -0.61002386 -0.5098188
-0.55731606 -0.38507107 -0.48701656 -0.44349268 -0.31692424 -0.1004912 -0.48267686 -0.7077761
-0.5622114 -0.601219 -0.35481623 -0.67961735 -0.34639552 -0.27666792 -0.5912844 -0.61503476
-0.41830206 -0.36112905 -0.4653519 -0.528716 -0.4817211 -0.5509312 -0.17783587 -0.43897074
-0.6384531 -0.02889999 -0.48807845 -0.5740643 -0.34618345 -0.51787806 -0.352046 -0.5149711
-0.37090918 -0.6826978 -0.26802206 -0.23341273 -0.6667546 -0.42484954 -0.56759775 -0.23674929
-0.5655517 -0.8375072 -0.73065567 -0.49249157 -0.545429 -0.31828743 -0.5123325 -0.3286849
-0.41090068 -0.6078426 -0.5676136 -0.6243077 -0.43316707 -0.47657955 -0.4024528 -0.554957
-0.6121202 -0.2896453 -0.38443968 -0.46858665 -0.4832833 -0.43696374 -0.5727196 -0.5449022
-0.45852485 -0.8342704 -0.4452321 -0.8157106 -0.6837502 -0.53221285 -0.59731233 -0.2992756
-0.854003 -0.36165464 -0.6196572 -0.6845261 -0.47244167 -0.4322672 -0.4916862 -0.43454316

bn1.running_mean f4 [128]
00000000: 4447 48bd 8948 23bc 0deb 86bb 56d2 8c3c
00000010: c731 23bc 7a27 cbbc 73b3 233d a569 2b3d
00000020: d6a2 f23b 83c3 1bbb 294b 17bd 181b 05bc
00000030: 3676 aabc 9d0d 37bd a836 3cbb a970 753c
00000040: 4cd3 7a39 3f14 3e38 eea0 8b3c a05d 023d
00000050: 669d a63b d2f1 9f3c baf6 9abc 9de3 e7bb
00000060: 68ed 13bd adb7 fc3c 9f2b da3a a1c5 703c
00000070: 4ac0 823c 28b3 0fbc 7d4c 7abb 28a2 23bd
00000080: ae2f b73c 1479 553d 75a5 023d e4bf a23c
00000090: 2703 b3bc 0114 09bd e4d0 183c 2a74 d1bc
000000a0: 7873 c6bc d5d2 0ebd cd7f 8dbc 7e90 8e3c
000000b0: 2c9d 03bd af0d 763c 7299 bc3c 7328 d0bc
000000c0: 855f 303d 928a dab8 f829 0b3c 3a12 003d
000000d0: 065f 73bb fc38 2dbd 65b4 17bd 0a29 bebc
000000e0: a2ad e93b 2a8e 7fba a6c0 32bd dd08 363c
000000f0: 792f 44bd b349 3e3c ecaf b43c f934 5ebb
00000100: b864 353d b344 813c b72c 753c d510 d9ba
00000110: 8181 4abc abfc 5b3c bcf5 58bc fbb7 81bb
00000120: 61f0 623b 2f4a 3dbd 8e4a 7ebc 403c d9bc
00000130: 3a3c 513a fce4 583d 098d 56bc 978a acbc
00000140: c599 89bc 2bbe ed3c 87a3 20bd 979b d1bc
00000150: 6f96 9f3b af0b 11bd 8294 07bd e033 1b3d
00000160: dc21 503b 7725 e1bb bf82 a3bb 1837 d4bc
00000170: b2ad a3bc c266 11bb 3d84 303c 18a4 07bd
00000180: 2728 88bb c807 2bbc 8a6c 8b3c 7949 78bc
00000190: bca7 dbbb df2d 19bc 6283 053d b1df 17bd
000001a0: 9295 0fbd 90c0 893c 2583 d3bc 9743 19bd
000001b0: c0ca 213d 83c0 0dbd 9359 733b 7f20 d5bb
000001c0: d906 063d a0c0 a53c 35f6 87bc a117 5c3b
000001d0: fcf8 173d 5e2d 9abc 850b 0bbc 2d8b 503b
000001e0: b106 f2bc 03ba a43c be39 edbb bd1e 8fba
000001f0: 0a9f 9bba f4a4 00bd da07 da3b 150e efbc
-0.04889609 -0.009966024 -0.0041173757 0.01719014 -0.009960598 -0.024799097 0.039966058 0.041848797
0.0074046655 -0.0023767657 -0.036936913 -0.008124135 -0.02080832 -0.044690717 -0.00287191 0.014980474
0.00023920572 4.5318386e-05 0.01704451 0.03182757 0.0050846813 0.019524489 -0.018916477 -0.007076694
-0.03611508 0.030849302 0.001664508 0.014695556 0.015960831 -0.0087707415 -0.0038192563 -0.039949566
0.022361603 0.052117422 0.031896073 0.019866891 -0.02185209 -0.033466343 0.009327147 -0.025568087
-0.024224982 -0.034869034 -0.017272854 0.017402884 -0.032132313 0.015017911 0.023022387 -0.025409913
0.043059845 -0.00010420861 0.008493893 0.031267382 -0.0037135496 -0.042290673 -0.037037272 -0.023212928
0.0071312943 -0.0009748662 -0.043640755 0.011110512 -0.047896836 0.011614251 0.022056542 -0.0033906086
0.044285506 0.015779829 0.014964274 -0.0016560802 -0.012359978 0.01342694 -0.013242181 -0.0039586998
0.003462814 -0.046213325 -0.015520705 -0.026517987 0.0007981692 0.05295275 -0.013095149 -0.021062179
-0.016796956 0.029021343 -0.03921845 -0.025586886 0.004870228 -0.035411533 -0.033100612 0.03789127
0.0031758463 -0.0068709212 -0.0049899514 -0.025905177 -0.019980285 -0.0022186493 0.010773716 -0.033115476
-0.004155177 -0.010438867 0.017019529 -0.015154236 -0.006703345 -0.009349315 0.032596 -0.037078563
-0.03505475 0.016815454 -0.02581937 -0.037417974 0.039499998 -0.03460742 0.0037132248 -0.006504118
0.032721374 0.020233452 -0.016596893 0.003358342 0.037102684 -0.01882046 -0.008486633 0.0031821236
-0.029544206 0.020108229 -0.0072395494 -0.0010919195 -0.0011872959 -0.03140731 0.006653768 -0.02918152

bn1.running_var f4 [128]
00000000: 5f23 a43f f72e b33f 4b5c 803e ed09 d53e
00000010: 80c0 dc3f e412 c43e af2f 863f a7ec ac3e
00000020: 919b 1b3f 5635 2e3f 91ce c43f f3c2 c83f
00000030: 7ed3 f63e 2d78 113f 2727 e83e 2577 923e
00000040: 9f42 f73e 6ef2 883e ce86 f23d 1cfe 283f
00000050: 53f8 493f 3718 c43e 7b67 313f 5b54 813e
00000060: c2e9 023f f8cb a93e 768c e23e 386e 483f
00000070: 9109 ce3e b671 2f3f ed2f 0d3f e25c 993f
00000080: 8883 f93e aa85 303f 2116 113f 7e7c 2c3f
00000090: cf4c 263f 12ed 5e3f 9612 c43e 4331 f93e
000000a0: 6803 cc3e 501c 663e 10cc 033f 31f3 8a3e
000000b0: 4e4d 163f 39bb b43e c5ad b73e 3808 853f
000000c0: 8543 053f dc37 273e 9ad5 aa3e 005b 9b3e
000000d0: 519a 393e e6c0 1e3f 02e1 f73e 500b a53f
000000e0: be89 823f ff8c 283f b066 833f 1a2c d63f
000000f0: cdfd fe3e 6584 f83e 39ea a53e a2e0 083f
00000100: 5bfa 953f 19ec eb3e 7dc8 f53e d48b 9d3e
00000110: 3d99 d53f 5141 9a3e b46c 8b3e 33aa be3e
00000120: a5ee 423f c7b7 db3e 079f 9a3f 9edd 663e
00000130: 57c4 4f3f a451 623f 1e52 153f dfa9 253f
00000140: eccd 3c3f fa72 b33e 8b42 cc3e 960a 963f
00000150: 33ae 803f f1b6 493f bad8 003f 9220 7d3f
00000160: a3c3 183f 7264 1c3f 718f cb3e 1761 133f
00000170: df20 593f d042 be3e ede5 1c3f 14ba df3e
00000180: 0253 4a3f 1585 a93f c28a 553f b884 c43e
00000190: 5f26 e63e c6b2 9b3e aa18 893e d369 3c3f
000001a0: e2d8 963e deab 573e aac9 1d3f 250a 403f
000001b0: 0a13 c43e d7e2 e03e c232 183f df26 023f
000001c0: 5555 4d3f 8c5f 2c3f 6c5f d43e 2d2b 353f
000001d0: d069 003f 2657 953e 9cd7 a33e b439 bc3e
000001e0: 5923 d13e b080 4f3f 4ce6 393f 54a5 143f
000001f0: ba49 4c3f cdf8 4d3f 6041 833f b8ad 303f
1.2823294 1.3998708 0.25070414 0.41609135 1.7246246 0.38295662 1.0483302 0.337743
0.6078425 0.68050134 1.5375539 1.5684494 0.4820823 0.56824 0.4534237 0.28606525
0.48293015 0.2674746 0.11842118 0.6601274 0.7889454 0.38299724 0.69298524 0.2525967
0.51137936 0.33163428 0.44247788 0.7829318 0.40241674 0.68532884 0.55151254 1.198147
0.48733163 0.68953955 0.5667439 0.6737746 0.6496095 0.8708049 0.3829543 0.48670396
0.3984635 0.22471738 0.5148325 0.27138665 0.5871171 0.3529909 0.35874763 1.0393133
0.5205615 0.16329902 0.3336609 0.30342865 0.18125273 0.6201309 0.48413855 1.2894077
1.0198286 0.6584014 1.0265713 1.6732209 0.4980301 0.4853851 0.3240526 0.5346776
1.1717027 0.46078566 0.48004523 0.30770743 1.668739 0.30127957 0.2723137 0.37239227
0.7614539 0.42913648 1.2079781 0.22545478 0.81158966 0.88405824 0.58328426 0.6471233
0.7375171 0.35048658 0.39894518 1.172198 1.0053161 0.7879477 0.503307 0.98877823
0.5967352 0.6109077 0.39757875 0.5757002 0.8481578 0.3716035 0.6128834 0.43696654
0.7903291 1.3243738 0.8341485 0.38382506 0.4495115 0.3040983 0.2677663 0.73598975
0.29462343 0.21061656 0.6163584 0.7501548 0.38295776 0.43923065 0.5945245 0.5084056
0.8020833 0.6733329 0.4147905 0.70769006 0.5016146 0.2916805 0.32000434 0.36762774
0.4084728 0.81055737 0.7261703 0.5806477 0.798 0.80457765 1.0254326 0.69015074

bn2.weight f4 [128]
00000000: a7ca 443f ab9c 483f 016a 533f e2d4 563f
00000010: ff61 433f 0176 4b3f 658f 4d3f 8218 403f
00000020: e80f 473f 0478 553f 2815 553f e47b 403f
00000030: b68f 683f 75b2 4c3f 4461 323f aa82 433f
00000040: 1b11 613f 0f10 593f d000 393f 2931 313f
00000050: 48ee 523f bb43 453f 0c23 553f 2846 593f
00000060: 62a8 563f 2dcc 423f 5114 473f 335d 5c3f
00000070: 22a6 4e3f 6a99 6e3f fa5c 3e3f e0f0 683f
00000080: 4e55 503f 9051 413f 4539 513f 4bd8 513f
00000090: 5e43 323f dae6 4c3f 4fc0 413f b759 583f
000000a0: 470d 413f e8a9 593f e7b2 333f 24f2 4f3f
000000b0: e7c7 4a3f 52ca 583f 01ff 543f 1756 593f
000000c0: 024b 443f 00ad 393f cb64 703f a503 573f
000000d0: c043 473f 9a49 2c3f 2a3b 493f 1ccd 5a3f
000000e0: 85a0 3a3f e3ed 563f 07bf 533f c20f 403f
000000f0: 9f95 553f 6571 403f cfcb 403f 0f9c 323f
00000100: fd67 403f b52c 433f d4c9 553f 3c29 4f3f
00000110: f52e 3a3f ef7e 643f 2ae3 513f 3214 503f
00000120: e4cb 703f a1f7 453f e54f 483f 2e4a 433f
00000130: 3745 193f f7d0 433f 30b6 393f 446e 523f
00000140: 126f 2f3f efeb 343f 1593 4e3f 8d6f 4d3f
00000150: 05aa 3c3f d34e 413f f43a 603f 6b8c 413f
00000160: 9807 473f 8ef8 593f a999 3e3f a2ab 473f
00000170: 9a94 453f 9ef6 403f 16e2 433f 6d22 553f
00000180: 40f8 4c3f b431 4b3f 980c 4f3f f2ca 3b3f
00000190: d077 4b3f 59d8 583f f3ea 463f 4dd7 383f
000001a0: 3988 4c3f 9336 463f 798c 363f a1a7 4a3f
000001b0: 516a 5d3f 3c14 2c3f 2d01 4d3f 7ec5 2a3f
000001c0: daa4 433f 05c8 3d3f e7a9 693f 07dc 483f
000001d0: eb02 5e3f c836 523f 35b2 653f 0a3d 3c3f
000001e0: ed48 673f 86e9 393f 0017 473f 648b 423f
000001f0: 3c0c 423f 7963 373f 0822 773f ee54 553f
0.7687172 0.78364056 0.82583624 0.83918583 0.76321405 0.79476935 0.8029693 0.75037396
0.77758646 0.83386254 0.83235407 0.7518904 0.90844285 0.79959804 0.69679666 0.7637125
0.87916726 0.8479013 0.72266865 0.6921564 0.8239484 0.77056473 0.832566 0.84872675
0.8385068 0.760928 0.77765375 0.8607971 0.8072225 0.9320284 0.7436062 0.90992546
0.81380165 0.7551508 0.8172801 0.8197066 0.69634044 0.8003975 0.75684065 0.84511894
0.75410885 0.8502488 0.7019486 0.8122885 0.79211277 0.84683716 0.83201605 0.8489699
0.7667695 0.725296 0.939038 0.83989936 0.77837753 0.6729981 0.786059 0.8546922
0.72901183 0.83956736 0.8271336 0.75024045 0.8343143 0.75173026 0.7531099 0.69769377
0.75158674 0.7624009 0.8351109 0.80922294 0.727279 0.89256185 0.8198725 0.81280816
0.9406111 0.77330977 0.7824691 0.76285064 0.5987124 0.7649073 0.7254362 0.821995
0.68528855 0.70672506 0.8069318 0.8024834 0.7369693 0.755109 0.87589955 0.75604886
0.7774596 0.8514489 0.74453217 0.77996266 0.77179873 0.7537631 0.76516855 0.83255655
0.800663 0.79372716 0.8087859 0.73356545 0.79479694 0.8470512 0.77702254 0.7220352
0.7989536 0.77427024 0.71308094 0.7916203 0.8649035 0.67218375 0.8007992 0.667076
0.7642342 0.7413333 0.91274875 0.78460735 0.867232 0.8211484 0.8972505 0.7353064
0.9034565 0.72621953 0.7776947 0.75993943 0.7579992 0.7163616 0.965363 0.8333272

bn2.bias f4 [128]
00000000: 904f 0cbf ada3 eabe 2d92 96be d504 2cbf
00000010: 6849 07bf 9d1c 02bf f496 16bf 56ff 0fbf
00000020: fde4 bcbe 196a 29bf 5067 e1be 0c04 1dbf
00000030: fd35 15bf 2c0e a1be 25e8 37bf ff0d 86be
00000040: 67ab a2be 33f7 d7be 1442 21bf f957 fabe
00000050: 6efd 32bf 56ae bbbe 7bdc acbe 62b8 16bf
00000060: 4fb5 c0be 88ac cdbe 038e 0ebf ccf6 8dbe
00000070: 8ab7 c4be e185 e0be ce7c ecbe 3c44 febe
00000080: adc5 ffbe 8397 b3be 0ba1 e7be b631 07bf
00000090: 9749 fabe 9d5e efbe bbba 3cbf e311 bdbe
000000a0: f4df 10bf 2f19 10bf c862 7dbe 744c e9be
000000b0: b99e e3be 1ccb d6be 79b0 d7be 2d2b 32bf
000000c0: af5c 1bbf 43ff 05bf 2a89 d6be 39fa f9be
000000d0: d558 d5be e8b1 e5be 362e 14bf 1b76 c6be
000000e0: a84a 0bbf 129b 03bf 4fe1 e6be 49c3 e7be
000000f0: 2503 b4be 943c d6be e7a3 1dbf 29d3 cabe
00000100: 9fa2 d3be a01b e4be 484a edbe 6c43 f1be
00000110: 8502 e1be f635 dabe 8133 ecbe 432b 21bf
00000120: 030e 96be 8146 c3be b970 a2be 44ba 7bbe
00000130: 6db3 95be 0d1a f4be 5f90 eebe 756c 17bf
00000140: abc9 19bf 03c1 34bf 7771 bcbe a0bf d1be
00000150: 6eec c4be 6985 22bf 0b9b ddbe 17cd bbbe
00000160: bddf 29bf 7455 1abf e037 05bf c24b 05bf
00000170: bbdf d7be 8135 02bf f3e2 fcbe 343a 05bf
00000180: 6c75 f6be 452a b9be 56bc 84be 907e f0be
00000190: 446e 1fbf 8428 a6be 28e1 03bf cf57 eabe
000001a0: 224b e6be 93ce 02bf b988 e6be 694f 0bbf
000001b0: 9eb8 04bf aad5 0cbf 9a1d ccbe fef9 1bbf
000001c0: ef19 b2be 5382 06be f18f 1fbf 9f28 dcbe
000001d0: ef87 c0be 20f4 edbe 4d4e 2abf 40c3 c2be
000001e0: e9dc b9be 96d9 f4be d9d1 11bf 514a 45bf
000001f0: 7574 15bf 6bc3 b8be 7f6d d1be f739 04bf
-0.548089 -0.45828 -0.29408398 -0.67194873 -0.52846384 -0.5082491 -0.58824086 -0.56248987
-0.36893454 -0.6617752 -0.44024134 -0.613343 -0.58285505 -0.31456125 -0.718386 -0.26182553
-0.31771395 -0.42180786 -0.6299145 -0.48895243 -0.69917953 -0.36656445 -0.33761963 -0.58875096
-0.37638327 -0.40170693 -0.5568544 -0.27727354 -0.3842128 -0.43852141 -0.46188968 -0.49661434
-0.49955502 -0.35076532 -0.45240054 -0.5281023 -0.4888427 -0.46751872 -0.7372243 -0.3692771
-0.56591725 -0.5628843 -0.24744713 -0.45566142 -0.44457033 -0.41951835 -0.42126825 -0.6959713
-0.606883 -0.52342623 -0.41901523 -0.48823717 -0.41669336 -0.44862294 -0.5788301 -0.38761982
-0.5441079 -0.51408494 -0.45093772 -0.45266178 -0.3515865 -0.41843092 -0.6157822 -0.39614227
-0.41335008 -0.44552326 -0.46345735 -0.4712175 -0.43947235 -0.42619294 -0.46133044 -0.6295664
-0.29307565 -0.38139728 -0.31726626 -0.24582773 -0.29238454 -0.47676125 -0.4659452 -0.5914987
-0.60073346 -0.7060701 -0.36805317 -0.4096651 -0.38461632 -0.6348482 -0.4328235 -0.3667991
-0.6635702 -0.6028664 -0.52038383 -0.5206872 -0.4216288 -0.5086289 -0.493919 -0.52041936
-0.4813646 -0.36165062 -0.2592494 -0.4697156 -0.62277627 -0.32452786 -0.51515436 -0.45770118
-0.44979197 -0.5109646 -0.45026186 -0.54418045 -0.51844203 -0.55013525 -0.39866334 -0.6092833
-0.3478541 -0.13135652 -0.6232901 -0.4299974 -0.3760371 -0.46475315 -0.6652573 -0.3803959
-0.36301354 -0.47822255 -0.5696083 -0.7706652 -0.58380824 -0.36086592 -0.4090385 -0.5165095
