model/saved_model/premier_league_model.pth (torch, 359764 bytes, 48 tensors)

fc1.weight f4 [128, 18]
00000000: df2b bbbe 65e4 d6bd 6e90 53be 39e2 a2be
00000010: 12f3 ebbd fccb 54be af89 713e aa8f 55bc
00000020: 7502 c43d 177a 743e 4e53 57be e86a de3d
00000030: b160 3c3e f5f6 c0bc 38dd 5e3e af6a 50be
00000040: e0f3 31bd ab46 d6bd f043 13be 14a3 17bf
00000050: 7204 d73d a38a 90bc e7e2 b33d 671b 313e
00000060: f328 a0be 951e 743e 2ff0 af3c 19b9 803e
00000070: f728 d1bd e9c4 87bb 24b3 d1be 7100 45bd
00000080: 0ba2 163e a46a ee3d 7653 243e 1ab8 cb3c
00000090: 130b a9be 545f fc3d b7d5 ca3d d0b9 4cbe
000000a0: 41d0 2d3e 6a44 5b3d 27ea 9f3e 99dc 7b3d
000000b0: 8125 353e 9c66 b33e a75f 2fbe 972d 59be
000000c0: 7861 57bd 103c 4fbe 4ef3 5cbe 846d 4abe
000000d0: 3fa9 95be 3bb2 0b3c 4ff3 0c3e e39d 71be
000000e0: 210c 61be fe52 6dbe 10c0 413e bcfe c0bd
000000f0: 1d38 8e3d 4ae2 1cbc 5163 883d 4726 af3c
00000100: 3cc9 2abe b1aa 563e 4d7f c83e 3dee 4cbe
00000110: 9eb2 cf3e d46f 03be 3967 303e b0db 6bbd
00000120: 3bea 383e f9fd f63d b929 2d3d 1ba4 8a3e
00000130: 8eed ed3c 546b 9f3e 3a97 81be d13c a1be
00000140: 0d0e 393e e10c f83e c119 bbbd 0ea0 07be
00000150: a9e2 18be 87ee 10be 6d0f 2fbe 3d34 343d
00000160: 6a90 6cbe e99b 9bbd e8ce 55be b7a6 81bd
00000170: fba6 0fbe af92 503e 9327 39bc a602 a4bd
00000180: 0db0 48bb a2ac 153e 6ed5 3bbe 26b6 473e
00000190: 142f 933e 64ac 073e 1abe 913d 093b 2bbb
000001a0: 210f f43e 9d2a 5b3d 36d5 b03e 5ed9 c2bc
000001b0: 2507 4e3e 81a5 0dbd 2ddc 56bd c77c ac3e
000001c0: a022 823c 42e7 a2bd aa28 4bbe ab08 eabc
000001d0: 648c 053e 3b57 0d3e 758d 5cbe 3567 023d
000001e0: 251a 42be 98ea 073d 7a59 823d 2099 c73a
000001f0: ed7c 5cbf 158c 9b3e 1d22 953e 37c6 2e3e
00000200: 2de7 ff3c 9492 c9be 4d8a 28be d00a f8be
00000210: 63da 82be 7a1f 113d fcf2 9fbe 9367 f13d
00000220: c96a 02be c55d 86bd d001 ac3d 0a58 a73d
00000230: 983c bcbd 1aab 923c a8cd ec3d d55f 253e
00000240: 9d05 6bbe 2661 a83d f46b 903d e7cf 463d
00000250: 0062 16be e528 1f3e 4a59 073e 0a3a 7fbe
00000260: e74a 0dbe 3f6c 04be 3369 f9be c52b a1bd
00000270: 5df2 1b3e ca38 233e 942c dc3d 184d f8be
00000280: b8fe 8cbd 6df1 69be 9cec 85be 98e2 453e
00000290: 2fb0 39be fe7b 0dbe 9b18 823d 9cf3 1e3e
000002a0: 5830 a5bd b158 2d3e 77cc c73d 0791 933e
000002b0: 9520 94be 7574 42be 783b 763e 99a3 b33d
000002c0: efb9 d13d df09 c63e 70b8 2cbe d207 873e
000002d0: c11d 89be e74f 7c3e 8e10 543e 0de0 c23e
000002e0: ad21 113e dac9 1a3e 559d b43d 1b5a 0bbd
000002f0: 77e1 bbbd a310 7a3d ac75 51bd cca1 683d
00000300: f5e8 05be d516 283d cc8b dfbc 070f fbbe
00000310: 6d95 90be 297c 74be 8992 d6be 3a03 463e
00000320: e43f ab3d 65aa 76be 27e7 aabd dab9 3abe
00000330: 40f9 c13c e69c 893e 6ec1 11be ed5a 1dbe
00000340: 3f32 91bb 23ca 7bbe 8c8c 9b3e b63a babe
00000350: 0b59 0fbc ec86 9bbe 935d 263c 62cb 29be
00000360: cf84 293d ea45 233e 9aab 983e 8e22 8b3d
00000370: ec3c d8bc 9dba 443e 0a1e a1bd 1ba3 31be
00000380: ea99 f4bd 8dfe 28bd a407 19bc f753 33bd
00000390: 08c7 32bd ad66 1c3e 3960 2d3e 2159 43be
000003a0: 3aa2 29bf 363b 903e 5461 91bd ee1c 89be
000003b0: 7be4 89be 1d21 9dbc 600d 173d 4fe0 80be
000003c0: e322 693e 94e9 303e dcca d2bc 7c72 b03d
000003d0: bd13 1fbd d90a 6a3d 8c61 68bb 11de 2dbd
000003e0: 4276 8a3e 7675 3e3e 076c e83e f54e 82be
000003f0: 7786 f93b 8330 6fbd 50be 363d 1809 3b3d
-0.36556908 -0.104927815 -0.20660564 -0.3181322 -0.11520971 -0.20780939 0.23587678 -0.01303474
0.09570781 0.23874699 -0.21027872 0.108602345 0.1839626 -0.023555258 0.21764076 -0.20353197
-0.043445468 -0.104626976 -0.14381385 -0.5923321 0.10498895 -0.017644232 0.087835126 0.1729561
-0.31281242 0.23839791 0.021476833 0.25141218 -0.102128915 -0.0041433466 -0.40956986 -0.048096124
0.14710252 0.11641434 0.16047463 0.02486806 -0.3301626 0.1232287 0.09904044 -0.19992757
0.16973974 0.05353204 0.31233332 0.061489675 0.17690088 0.35039222 -0.17126332 -0.21208797
-0.052583188 -0.20237756 -0.21577188 -0.1976834 -0.29230687 0.00852638 0.1376469 -0.23595385
-0.21977283 -0.2317619 0.18920922 -0.09423587 0.069442965 -0.009575436 0.06659568 0.021380557
-0.16678327 0.20963551 0.39159623 -0.20012756 0.40565962 -0.12835628 0.17226876 -0.057582557
0.18058102 0.1206016 0.042276118 0.27078328 0.029043939 0.31136572 -0.2531069 -0.31491712
0.18071766 0.48447326 -0.091357715 -0.1324465 -0.14930214 -0.14153491 -0.17095728 0.04399513
-0.23101965 -0.07598097 -0.2087971 -0.063306265 -0.14028542 0.20368455 -0.011300939 -0.08008318
-0.0030622513 0.14616635 -0.18343136 0.19503078 0.28746855 0.13249356 0.07116337 -0.0026127717
0.47667792 0.053507436 0.34537667 -0.02378529 0.20119913 -0.034581665 -0.05245607 0.33688948
0.015885651 -0.07954265 -0.19839731 -0.028568586 0.13041836 0.13802807 -0.21538337 0.031836707
-0.18955286 0.03318271 0.063647225 0.001522813 -0.8612812 0.30380312 0.2912759 0.170678
0.031238163 -0.39369643 -0.16459008 -0.4844575 -0.2555724 0.03543041 -0.3124007 0.11787333
-0.12736048 -0.06560854 0.08398783 0.08171089 -0.09191245 0.017903853 0.11562663 0.16149838
-0.2295136 0.082216546 0.070518404 0.048538115 -0.14685822 0.15542944 0.13217655 -0.24924484
-0.13798104 -0.12931918 -0.48713073 -0.078696765 0.15229173 0.15939632 0.1075069 -0.48496318
-0.06884521 -0.22846003 -0.2615708 0.1932472 -0.18133615 -0.1381683 0.06352349 0.15522617
-0.080658615 0.16928364 0.097557954 0.28821585 -0.28931108 -0.18989737 0.24046123 0.08771438
0.10240542 0.38679406 -0.16867232 0.26373154 -0.26780513 0.24639855 0.2070944 0.38061562
0.14173003 0.15116063 0.08819071 -0.03402148 -0.091738634 0.061051022 -0.05113761 0.056794927
-0.13077147 0.0410374 -0.02728834 -0.49034902 -0.28239003 -0.23875488 -0.41908672 0.19337168
0.083617955 -0.24088438 -0.0834487 -0.18234959 0.023678422 0.26877517 -0.14233944 -0.15366717
-0.0044310386 -0.24588828 0.30380666 -0.36372918 -0.008749257 -0.30376375 0.010154146 -0.1658149
0.04138642 0.15944639 0.29818422 0.067937 -0.026396237 0.19211812 -0.078670576 -0.17347376
-0.11943419 -0.041258384 -0.009340201 -0.043781247 -0.043646842 0.15273543 0.16931237 -0.19076969
-0.66263163 0.28170174 -0.07098642 -0.26779884 -0.2693213 -0.019180829 0.03687799 -0.25171134
0.22767214 0.17276603 -0.025731497 0.08615586 -0.038837183 0.05713925 -0.0035458533 -0.042448107
0.2704335 0.18599495 0.45394918 -0.25450864 0.0076149064 -0.058395874 0.04461509 0.04566297

fc1.bias f4 [128]
00000000: c6ca a138 ac2f 5937 e229 6a38 e053 04b9
00000010: 0100 29b8 f1c5 39b9 7e0b a638 06f9 47b9
00000020: a2bc b137 3152 0739 5153 0c39 2794 9838
00000030: 876a 7a38 a010 5437 6485 00b8 f432 9eb7
00000040: 4176 8cb8 f3c1 ba38 1050 3fb8 b89b ceb8
00000050: 2897 68b7 890a e4b8 0e31 7138 7ec3 11b8
00000060: 0680 6237 2a80 fe37 5d6c 6eb8 f66a 5ab8
00000070: 97c5 2538 d2ca 03b8 caf1 9a38 eb98 1938
00000080: c54d 93b8 ee2e ef38 f90a 32b8 1304 1eb9
00000090: a48b b136 d8c9 79b8 924a 26b8 602c d2b8
000000a0: f5ba 46b8 ee9e 99b6 acc4 3038 ff58 2d38
000000b0: 3930 e137 c0c9 bf38 b6d7 3837 6201 e2b8
000000c0: 5146 0c38 76d2 14b9 a104 e2b7 e474 72b8
000000d0: 42d8 ebb8 9af1 9d37 f6f6 d7b8 282d 0fb7
000000e0: b4d3 00b8 f0c7 b038 3898 b036 7113 4cb8
000000f0: a1b1 7238 9501 2cb8 aeaf c338 74b6 85b7
00000100: 8f9f b438 e993 d8b8 d192 2139 755a 28b7
00000110: 6b94 65b7 201a 6db5 8893 f138 ac19 e637
00000120: 780a aab8 100e ae38 067d 54b7 5ea6 51b7
00000130: 398e 3238 7195 9838 a4a1 09b9 2872 0ab6
00000140: bf3f c237 3a32 b4b8 dc3b e238 2d83 1d37
00000150: 5420 2ab8 5c88 1839 dbf4 8237 6bb1 5eb8
00000160: a03e 6538 64d0 bc37 7f62 db38 766b 9438
00000170: 6c25 4838 38ec 75b7 a846 c3b7 35dd 48b9
00000180: f450 4438 a97d a537 0c6f c537 d9f8 e0b8
00000190: d5f8 41b8 e1b7 9538 0f15 31b8 4268 4f39
000001a0: 0ea9 5138 d6b4 61b8 e0bd b6b8 5215 9337
000001b0: 64d4 9538 24c0 5638 c567 6db8 9476 6bb7
000001c0: 2840 b237 44f8 a437 d8fd 4738 aca6 7f38
000001d0: 9f2d b5b8 87ae b8b8 408d b535 8f3d 47b9
000001e0: 7410 6fb8 1e35 f1b8 58ff f1b6 abff 12b9
000001f0: f944 3ab7 8da7 1839 fa27 cfb6 b86c 32b8
7.714848e-05 1.2945307e-05 5.5828954e-05 -0.00012619747 -4.0292744e-05 -0.00017716714 7.9176374e-05 -0.00019070887
2.1187883e-05 0.00012905222 0.00013382478 7.27552e-05 5.9703856e-05 1.26400555e-05 -3.0641808e-05 -1.8858795e-05
-6.697747e-05 8.905297e-05 -4.5612513e-05 -9.85185e-05 -1.3863471e-05 -0.000108738495 5.7504563e-05 -3.475276e-05
1.35004575e-05 3.033884e-05 -5.6844543e-05 -5.2074865e-05 3.9523085e-05 -3.1421725e-05 7.388329e-05 3.662046e-05
-7.023992e-05 0.000114051494 -4.2448726e-05 -0.00015069572 5.2912674e-06 -5.9554208e-05 -3.9646933e-05 -0.00010021846
-4.7380996e-05 -4.578257e-06 4.2144835e-05 4.13293e-05 2.6844546e-05 9.1451686e-05 1.1017479e-05 -0.00010776777
3.344409e-05 -0.00014192783 -2.6943455e-05 -5.780616e-05 -0.000112459544 1.8828363e-05 -0.00010297999 -8.533978e-06
-3.0714742e-05 8.429575e-05 5.2629293e-06 -4.8655496e-05 5.7862726e-05 -4.100947e-05 9.3310475e-05 -1.5939797e-05
8.612789e-05 -0.00010327233 0.0001540885 -1.00346415e-05 -1.368402e-05 -8.8327397e-07 0.00011519255 2.7430091e-05
-8.108182e-05 8.299586e-05 -1.2665294e-05 -1.2496106e-05 4.2570962e-05 7.2757604e-05 -0.00013125554 -2.063005e-06
2.3156286e-05 -8.592424e-05 0.000107876695 9.388471e-06 -4.0561266e-05 0.00014546647 1.5611227e-05 -5.3094158e-05
5.465618e-05 2.2508386e-05 0.0001046108 7.077206e-05 4.7718568e-05 -1.4658137e-05 -2.3278713e-05 -0.00019155892
4.6805435e-05 1.9728048e-05 2.353594e-05 -0.00010727504 -4.624653e-05 7.139124e-05 -4.22197e-05 0.00019779897
4.9986927e-05 -5.3812597e-05 -8.713803e-05 1.7533694e-05 7.1444345e-05 5.120052e-05 -5.6601846e-05 -1.40347e-05
2.1249129e-05 1.9665931e-05 4.7681708e-05 6.0951963e-05 -8.63925e-05 -8.806312e-05 1.352666e-06 -0.00019001051
-5.6997364e-05 -0.00011501669 -7.2120856e-06 -0.00014018889 -1.1102523e-05 0.00014558267 -6.1737346e-06 -4.253976e-05

fc2.weight f4 [128, 128]
00000000: 5433 8f3b 41a8 c63e ac5c db3e 7b61 04be
00000010: d2a6 12be a211 1e3d 1da7 fd3c dec6 8c3d
00000020: 5624 91bd d360 383e b8e4 563d f9b8 ad3e
00000030: f5bf 953c 7396 043e a921 a5be 30ef 77bc
00000040: beff 58be ae72 3abd 7bf0 68be bc1d 8cbc
00000050: 413c 813e b569 1e3d 3737 7d3d 6987 2dbe
00000060: 2a7e 9d3d 43fe c43c e65d e23e bb61 e3bd
00000070: e8f9 abbe c106 92bd 8ba6 de3d 3d5e 3e3e
00000080: 1d32 903d 41e8 7cba dbdc 823e 9b92 fc3c
00000090: 4790 f23d d1c5 343e 2daf a1bd ae7f 01be
000000a0: 58c7 f73d e754 4e3d 4deb ba3c 830d d339
000000b0: d647 013e eda7 5abe dd7b 4f3e 521e cf3d
000000c0: 6073 0abe bbce e93c 96cb b3be 0828 d63d
000000d0: 857c 84be 43d5 d43d 371d 26be 19c7 203d
000000e0: c642 0e3e 9cda 43be f636 a8be 4823 2d3e
000000f0: 746d ef3d ad06 133e 6aab f63d c6ed 573e
00000100: bf17 17be 8db3 62be 3273 0cbd e1a9 623d
00000110: dca2 ac3c 7201 083e 05ce 003e 0b20 55bd
00000120: 1136 b9bc b052 0b3e b289 06be 198d e53d
00000130: b8bd 363e a25a 153c b527 3abc 2b7e 3bbe
00000140: a055 e13e 12d1 45be 66fd 9c3d 0acf f3bd
00000150: 93a4 b1bd a757 2c3e acab bebe ec6f 563d
00000160: 0e03 7cbe 8e17 54bd 9507 9b3d 6869 da3c
00000170: f581 1b3e 72e3 b13d 6dac 29bd cedb eb3d
00000180: 1a49 633c 9047 fb3d bd41 06bd 34e5 cd3d
00000190: 8a42 e83c c2fa d43c 6f90 d6bd 5309 b03d
000001a0: 2a9b 513d 9ac7 a8bd 6d45 5c3e f3fe 7b3e
000001b0: 8db6 a53d e942 afbc 387c e3bd c1aa ca3d
000001c0: 5bf7 0f3e ce52 4cbd 8a62 2d3e 562e 8dbd
000001d0: 2d10 e23d 66ef 183e 106a 953e 99d6 0e3e
000001e0: f21c 0c3e f3e8 b93d 9818 553e 68d8 a8bd
000001f0: 46bd 28bd c3f5 ac3c 1eec 6cbe b7e5 75be
00000200: d941 69bc d439 a8be 1104 8ebe 4fb8 313e
00000210: 92d9 96bd e209 6f3d c077 87be 7794 3a3d
00000220: 0922 493e 8e11 5abd a681 29bc 197f 053e
00000230: 7c5a 423e 501b 303e 9c22 4d3d 4f72 873d
00000240: 080a 393e b436 dfbd 5610 15be 014f 193e
00000250: 0893 923d 5184 57bc 1675 dbbe 71f7 98bd
00000260: 4fd3 643d 2297 42be 9b21 41be 845f 0cbe
00000270: cc80 023e 27d7 7b3d 14c3 803d f27b 9fbe
00000280: 2d55 0dbe c92d 0e3e 0f08 94bd b3b1 263d
00000290: 067a 0bbe 9e2d a5bd 48cb 013e 0d27 693e
000002a0: 3137 aabe 4142 12be 5e4b 4bbe 7666 133e
000002b0: 2331 ccbd 6d3a a4bc 7d50 35be 1bdb 8cbe
000002c0: 56d6 92be 2b1d e2bd 29d0 543d f929 b73d
000002d0: 256c 003c a4a4 133e 0604 223e daf1 53be
000002e0: cb1e 79be ebe9 773d 0e74 8bbd f85d 14bd
000002f0: b52d 64bd 9a2c 51be 9f33 9b3e 04cb 073e
00000300: 5e07 9f3d d87c d9bc 9716 f83d c9e2 7c3e
00000310: c31f 5cbd aa89 e9be 47dd 36be 8567 a93c
00000320: 5ee7 283e 7a25 f0bd ec29 3ebd 1c14 06bd
00000330: b9eb 6cbe 206a 933d fa77 28bd 5628 07be
00000340: e99a 243e 970f 7d3e f19d cc3d 2b1f 723d
00000350: b4fa 273e d04d ee3d 20a3 dabd 936e 7dbe
00000360: 2085 b7bc f1be 183d 710b 71bd 141c 823e
00000370: 4f5e f8be 5d47 90be 7bed 003e 31ea 21bd
00000380: 35d2 8ebe 114d d43d fadf 48be 3d2d 1f3e
00000390: a3f1 8fbe 66ab 593e ca33 953d 744b 9d3c
000003a0: bdec 373d d481 1fbd 4b5e 4fbd 0905 43be
000003b0: fb30 103c 783b 3a3d daf8 8fbe 83f7 803e
000003c0: cc6f b63c d5fd 0ebe 4d72 5a3c 8fe9 bdbc
000003d0: a79e 79bc 7a78 9f3d d494 1d3d 1816 23be
000003e0: 3474 123d eaf8 62ba 1d91 b9bc 12b3 5e3e
000003f0: f96e 3d3e cd80 cc3d e086 2d3e 2445 2b3d
0.0043701325 0.38800243 0.4284414 -0.12927811 -0.1432145 0.038591035 0.030963475 0.068738684
-0.07087009 0.18005686 0.052464217 0.33930185 0.018280009 0.12948017 -0.32252243 -0.01513271
-0.21191308 -0.045519523 -0.22747986 -0.017104022 0.25241283 0.03867503 0.061820235 -0.16946186
0.076900795 0.024047023 0.44212264 -0.11102625 -0.335891 -0.071301945 0.10871609 0.18590637
0.07040808 -0.00096476456 0.25559124 0.030831626 0.11843925 0.17653586 -0.0789474 -0.12646362
0.12098569 0.050373938 0.022817278 0.00040255123 0.1262506 -0.21353121 0.20262094 0.10113205
-0.13520575 0.02854096 -0.3511626 0.10456854 -0.2587625 0.10392239 -0.16222082 0.039252374
0.1389266 -0.19126362 -0.32854432 0.1690799 0.116907984 0.14358015 0.120444134 0.21086797
-0.14755152 -0.22138806 -0.034289546 0.05533779 0.021073751 0.13281801 0.1257859 -0.05203251
-0.022608789 0.13605762 -0.13138464 0.11208553 0.1784581 0.009115847 -0.011362006 -0.18309848
0.4401064 -0.19318035 0.076655194 -0.11904724 -0.08673968 0.16830312 -0.3724035 0.05235283
-0.2461054 -0.051780276 0.075698055 0.02666159 0.15186293 0.0868596 -0.041424204 0.11516534
0.013872409 0.12269509 -0.032777537 0.10053483 0.02835204 0.025998477 -0.10476767 0.085955285
0.051173367 -0.08241196 0.21510859 0.24608974 0.080914594 -0.02139421 -0.11107677 0.0989585
0.14059202 -0.049883656 0.16932121 -0.068936035 0.110382415 0.14935073 0.29182482 0.1394905
0.13682917 0.09077635 0.20810163 -0.08244401 -0.04119613 0.021113282 -0.23136947 -0.2401341
-0.014236891 -0.3285662 -0.27737477 0.17355464 -0.07365717 0.058359034 -0.2645855 0.045551743
0.1964189 -0.053239398 -0.010345852 0.13036765 0.1897983 0.17197919 0.050081834 0.066135995
0.18070233 -0.10899106 -0.14557013 0.14971544 0.0715695 -0.013154105 -0.42862767 -0.07469071
0.055865582 -0.19002965 -0.18860476 -0.13708311 0.12744445 0.061484482 0.06287208 -0.3114925
-0.13802023 0.13884653 -0.072280996 0.04069681 -0.13620767 -0.080653414 0.12675202 0.22768803
-0.33245233 -0.14283086 -0.19852969 0.14394554 -0.099703096 -0.02004739 -0.17706485 -0.27510914
-0.2867915 -0.110407196 0.05195633 0.089435525 0.007838284 0.14418274 0.15821847 -0.20697728
-0.24328153 0.060525816 -0.06809245 -0.036222428 -0.055707652 -0.2042717 0.3031282 0.13261038
0.07765077 -0.026548788 0.12113684 0.24695887 -0.053741228 -0.45612842 -0.17857848 0.020679245
0.1649451 -0.11725898 -0.0464267 -0.03273402 -0.23136796 0.07197976 -0.041130044 -0.1319898
0.16074719 0.24712978 0.099910624 0.059111755 0.1640423 0.11635935 -0.10675645 -0.24749212
-0.022402346 0.03729147 -0.058848802 0.25412047 -0.48509452 -0.28179446 0.12590592 -0.039529983
-0.2789475 0.10366262 -0.1961669 0.15544601 -0.28114042 0.2125679 0.072852686 0.019201018
0.044903506 -0.038942173 -0.050627034 -0.1904489 0.00880074 0.04546687 -0.28119546 0.25188836
0.022270106 -0.13964017 0.0133329155 -0.023182658 -0.01523558 0.07786651 0.03847201 -0.15926397
0.03575535 -0.0008658307 -0.022652203 0.21747997 0.18499364 0.09985504 0.16945982 0.041813985

fc2.bias f4 [128]
00000000: 7ebf 64b7 7068 4bb8 b829 c5b8 ec1c e436
00000010: dff4 cb37 1c86 1438 afee 7c37 60f3 f8b4
00000020: caae 1236 2149 67b8 5c5a f838 86fc c937
00000030: 2296 ae35 ea23 a2b8 98c8 78b6 123a 2a38
00000040: 31d2 b6b8 2cd4 9238 bbcd dfb7 d221 37b7
00000050: 8855 1c37 cea3 bd38 9416 0d38 fd73 c2b5
00000060: 6372 30b8 20ac a1b7 6e5a 87b7 30e4 a838
00000070: 507b 46b7 9026 5637 790f f937 d73f 34b8
00000080: 93ba 2c38 1a52 1838 315c adb7 07fa 68b7
00000090: 2d4a 5337 2ae1 aab6 5184 1ab8 d6d7 c5b7
000000a0: cfad 34b8 d49f 1f37 cbb7 03b8 980e e5b7
000000b0: 794c 70b7 7217 65b8 ce23 0eb8 4f97 5038
000000c0: 18be bd38 319c 0db8 4be1 29b8 6156 8438
000000d0: ac0b 7fb8 6477 5eb6 1a2e 53b8 0b35 a238
000000e0: d27f 80b8 116f 06b8 a5f2 e037 8291 d038
000000f0: 3077 8db8 1b5d a337 a0bd 2c34 4b50 6db8
00000100: 17e4 06b8 dece 84b8 da05 1f38 0b13 09b8
00000110: 2137 09b8 a979 7f38 9d31 26b7 46b0 d8b7
00000120: bed2 80b7 4da6 68b7 ce55 0439 308a 1ab7
00000130: ac5a 2d37 1afe 06b8 e82a 9cb8 5505 7e36
00000140: ef14 84b8 007e a135 b88a 5e38 5a58 67b8
00000150: aac1 cbb6 ee4d a638 3c38 e9b7 925f 1eb5
00000160: 7e2b 1638 24af ec36 921f fa37 5898 2738
00000170: 89c0 0bb8 a691 ee38 76f2 b3b8 abff 20b8
00000180: 764d 8638 2db4 85b7 8d69 71b8 4943 53b8
00000190: 32c2 ddb7 71c2 3db8 c439 17b7 e174 ac38
000001a0: 22e1 6036 42c5 c3b5 35fd 4138 b631 b537
000001b0: 75c6 5db8 4ff5 a737 ca09 b6b7 a787 5637
000001c0: 3adc 0238 d303 ab37 7132 f836 2799 0d38
000001d0: b5b3 70b7 7f70 45b8 7277 b436 4031 1a37
000001e0: 2e6c c337 ac8b eeb7 4da4 80b7 4ab8 3137
000001f0: fdb5 8738 aa2a e4b8 f610 ecb8 dd01 35b8
-1.3634444e-05 -4.8496237e-05 -9.401463e-05 6.7982965e-06 2.4313513e-05 3.541085e-05 1.5075943e-05 -4.6370678e-07
2.1857436e-06 -5.51428e-05 0.00011842392 2.4078658e-05 1.3007705e-06 -7.7314515e-05 -3.707164e-06 4.058524e-05
-8.7175875e-05 7.0013426e-05 -2.6679472e-05 -1.0915524e-05 9.318239e-06 9.042733e-05 3.3638047e-05 -1.4487883e-06
-4.20682e-05 -1.9272848e-05 -1.6135364e-05 8.0533675e-05 -1.1830431e-05 1.27643725e-05 2.9690318e-05 -4.29748e-05
4.1181756e-05 3.6316087e-05 -2.0666137e-05 -1.3886492e-05 1.259385e-05 -5.0926074e-06 -3.683969e-05 -2.3584736e-05
-4.3077216e-05 9.514351e-06 -3.1404004e-05 -2.7305723e-05 -1.432292e-05 -5.461969e-05 -3.3888784e-05 4.973198e-05
9.04763e-05 -3.3762484e-05 -4.050256e-05 6.31034e-05 -6.0807608e-05 -3.3150072e-06 -5.0349256e-05 7.734642e-05
-6.127324e-05 -3.205153e-05 2.6815871e-05 9.945316e-05 -6.745604e-05 1.947447e-05 1.6087733e-07 -5.6579982e-05
-3.2160515e-05 -6.3327825e-05 3.7914004e-05 -3.268108e-05 -3.2714688e-05 6.0910043e-05 -9.9059225e-06 -2.583129e-05
-1.5356924e-05 -1.38669975e-05 0.00012620466 -9.21129e-06 1.0332715e-05 -3.218474e-05 -7.4466516e-05 3.7852053e-06
-6.29815e-05 1.2032106e-06 5.3058116e-05 -5.5156976e-05 -6.072417e-06 7.930012e-05 -2.780195e-05 -5.899866e-07
3.5803292e-05 7.053737e-06 2.9817023e-05 3.9957784e-05 -3.3319495e-05 0.000113758535 -8.580547e-05 -3.8385082e-05
6.404046e-05 -1.5938736e-05 -5.755718e-05 -5.0368984e-05 -2.6435682e-05 -4.52422e-05 -9.013751e-06 8.2233695e-05
3.3509646e-06 -1.4586042e-06 4.6250603e-05 2.160003e-05 -5.2875333e-05 2.0022182e-05 -2.1700649e-05 1.2786978e-05
3.1199517e-05 2.038657e-05 7.396848e-06 3.3759654e-05 -1.4346956e-05 -4.707323e-05 5.3783233e-06 9.190582e-06
2.3296187e-05 -2.843685e-05 -1.5335298e-05 1.059293e-05 6.4711996e-05 -0.00010879834 -0.00011256516 -4.3155498e-05

fc3.weight f4 [64, 128]
00000000: 8c6b 323d cfc8 e1bc 572f b4bc ef66 d2be
00000010: e220 3bbd 56ba 52be 9588 bcbe 9950 76bd
00000020: 8370 493e 1b3d 82be 18c5 13be a7ce 8bbd
00000030: 4bf0 5f3d 31cc 4dbd 93cf 8f3b bdc4 d3bc
00000040: 85ea c8bd a8bd 543c 598e 2f3e 1086 393e
00000050: 857e 42be 97dc 993b def1 3bbc ec0d e73c
00000060: 98bd 5ebe 0296 03be c249 203e 30d7 b5be
00000070: 4a73 9f3d 9f10 8a3c e035 c43d 952f 35be
00000080: 29db a53c 4ff6 3a3c bd76 97bd 3d49 aabe
00000090: 4fb1 66bd 59e7 e8bd 6934 9b3d 0301 06be
000000a0: 37e0 38be e18b c7bc f1ae df3d 6a47 c93d
000000b0: c68e 713e b1b5 31bb e7bb 0f3e 9360 7dbe
000000c0: f710 7b3d c183 a0be 8b0b 37be 646f debd
000000d0: 7775 49be 40ba f0bc eb4e 22be 5512 b8be
000000e0: cccc 33bd 325d 443e 4299 0c3c 3258 20be
000000f0: f1ee 283d b990 d1bc 2a13 21be 8ed7 753d
00000100: 784d 23be 6fd5 80bd 8180 abbd 867e 90be
00000110: 615e 143e fff9 88be 76be 463d 1f48 ff3c
00000120: 9352 f7bd 2dc4 b53d 649f 91be 3d0c 9ebd
00000130: 59f3 85be f8cf 733e ccee 28bc 805a 01bc
00000140: ac62 67bd 881e 063e cf73 f7bd 7cfa 403e
00000150: d77a 3abe 30d5 123b 228e 91be 17e2 cf3d
00000160: 4f1d 8fbd 8fd6 913d 57dc 92be 8f4b 86be
00000170: 8883 e83d f4f7 e93d 1711 ad3d caa3 74be
00000180: 572b 45be af91 a3be a58c fc3d ab18 bdbc
00000190: d3b1 803e 8eaf ee3d bc6d 25be 6034 023e
000001a0: 969e 0bbe c921 493d a67b df3d b85a c23d
000001b0: 20b9 843d c893 503e 9212 033d a07c 6c3c
000001c0: 29b0 e23d 89b8 90bd e280 5bbd 6563 9ebd
000001d0: 2726 563d 6b85 1e3e 44e9 593d 5709 8cbe
000001e0: 2002 603d ef62 84be acb7 dd3c 3980 6d3d
000001f0: 8c39 d7bd dc38 7bbe e1c7 32be cf8e 1ebe
00000200: ebfa 913d ea63 35be 391c 17bd 718b 1f3d
00000210: d4ca 013e 01b8 eabd 054f 76bd d778 9abe
00000220: 1d4b 9ebe 6388 22bd 030d c5bd 5ae0 f8bd
00000230: fe58 a9be f37c f9bd a83b 16bd 1a9e 413d
00000240: 9c00 143e c89a d4bd 8819 aebd 1028 a13c
00000250: f863 0bbc f456 85be 5d83 1f3c 7e44 273d
00000260: 2cad 48bd 65c3 72bd 721f 2ebe caf3 8abc
00000270: a2ed 14bd c1d8 d8bc c0cf bd3c ddc1 473e
00000280: 7e34 f9be a838 0bbe 7b42 b53d ad8f ad3d
00000290: c567 633c 16a3 c0bc 3b3f 10be ab53 6dbc
000002a0: 571b 53be a023 38be 2b0d 993e c625 20be
000002b0: e0d5 edbd b8df 48be 0ef7 57be 70eb b5bc
000002c0: 9b29 73be 9c2c 08be 939f 85be 7f6d 33bd
000002d0: 96dd a23c 571a 94bd 4c52 f33c df64 72bd
000002e0: df7d 63bd d69d d93c cd05 9dbe 8643 883e
000002f0: 3353 f1be 4a79 6ebd 5983 773d 5a0f 90bd
00000300: 69e4 8abc b4ab 8b3d 1c52 70be 0176 84bd
00000310: 85ab 31be 57fe b8bc 5fe6 c13d f7ed a8be
00000320: 1eac 45bb 519b 6dbe 03b4 773d b8ab 513d
00000330: 592a 81bc 5da7 103d 1996 793d 808a 7c3d
00000340: b0de 683e 602b 1f3a d23f 45bb b7cf fbbd
00000350: 052d 88be 03f0 92be 4e3f 09be bd6f 303c
00000360: 3699 d43c bbc4 0d3e c173 c1bb db89 933c
00000370: 51e8 9fbb 73a9 2ebd 1970 933c 51f8 163c
00000380: 2119 d43b dd18 49bd 7093 d8bb 52cb 57be
00000390: 9be9 85bc d80f 443d 9448 33bd 4d3c 77be
000003a0: 2f4b 4dbe e137 0dbe 358a d6bd 5780 383d
000003b0: 75ef 8dbe 1fdd 133e 6f29 8dbe edd4 f03d
000003c0: 06a2 98bd 6524 82bd 1b0c 09bc 2b02 5dbe
000003d0: 0e5f 203c e730 393e 61b9 aabe 7023 263d
000003e0: 7002 073e ef82 513c a171 afbe 3de5 75be
000003f0: 552b 803d ba8b 193d 59ba c8bd 57e7 79be
0.043559596 -0.027561573 -0.02199523 -0.41094157 -0.045685656 -0.20578894 -0.36822954 -0.060135458
0.19671826 -0.25437245 -0.14430654 -0.06826525 0.05467252 -0.05024356 0.0043887584 -0.025850648
-0.09810356 0.012984671 0.17144145 0.18117547 -0.18993576 0.004695486 -0.01147124 0.02820488
-0.21752012 -0.12850192 0.15653136 -0.35515738 0.077856615 0.016853629 0.09580588 -0.17693932
0.020246105 0.011411264 -0.073956944 -0.33259 -0.05632144 -0.11372251 0.07578356 -0.13086323
-0.18054281 -0.024358692 0.10922039 0.09828074 0.2358962 -0.0027116353 0.14036523 -0.24743871
0.061295476 -0.3135052 -0.17875497 -0.1086109 -0.19673716 -0.029385686 -0.15850417 -0.35951486
-0.04389648 0.19176176 0.008581461 -0.15658644 0.041243497 -0.025581704 -0.15729967 0.060020022
-0.1594752 -0.06290709 -0.083741195 -0.2822153 0.14489128 -0.26753232 0.04852148 0.03116232
-0.12076297 0.08875308 -0.28441918 -0.07717178 -0.26162222 0.23809803 -0.01031084 -0.007895112
-0.056490585 0.13097584 -0.120826356 0.18845552 -0.18210922 0.0022404902 -0.2842875 0.10150545
-0.06988012 0.07121002 -0.2868373 -0.26229522 0.113532126 0.114242464 0.08450525 -0.23890606
-0.19254814 -0.31947085 0.12331513 -0.023083052 0.2513567 0.11654578 -0.16155142 0.12715292
-0.13634714 0.049104486 0.10912256 0.094899595 0.06480622 0.20368874 0.032000132 0.01443401
0.11068756 -0.07066447 -0.05358971 -0.07733802 0.05228248 0.15480582 0.053200975 -0.27350876
0.054689527 -0.2585673 0.02706512 0.05798361 -0.10509023 -0.24533409 -0.1745906 -0.15484165
0.07127937 -0.17713895 -0.03689215 0.03895134 0.12675029 -0.11460877 -0.060133953 -0.30170318
-0.30916682 -0.03968085 -0.096216224 -0.12152167 -0.33075708 -0.12182035 -0.036677986 0.047269918
0.14453357 -0.10381085 -0.085009634 0.019672424 -0.008507721 -0.26042902 0.009735909 0.040836804
-0.048993275 -0.059268374 -0.17004183 -0.01696195 -0.036359437 -0.026470544 0.023170352 0.19507547
-0.4867286 -0.13595831 0.08850571 0.084746696 0.013879721 -0.023515265 -0.1408662 -0.01448528
-0.20615898 -0.1798234 0.2989286 -0.1563941 -0.11613059 -0.19616592 -0.21090338 -0.022206992
-0.2374634 -0.13298267 -0.26098308 -0.043805595 0.019881051 -0.072315864 0.029702328 -0.05917823
-0.055539962 0.02656452 -0.30668488 0.26614016 -0.47133788 -0.05822114 0.060427997 -0.07034178
-0.016954618 0.06819859 -0.23468822 -0.0646782 -0.17350586 -0.022582216 0.09467768 -0.32994053
-0.0030162404 -0.2320378 0.060474407 0.051189154 -0.015767263 0.03531586 0.06093416 0.06165552
0.22741199 0.0006071832 -0.0030097854 -0.12295478 -0.26596847 -0.2869874 -0.13403055 0.010768828
0.025951963 0.13844578 -0.0059036915 0.01801007 -0.004879989 -0.042642068 0.017997788 0.009214477
0.006472722 -0.049095977 -0.006609373 -0.21073654 -0.016346743 0.047866672 -0.043770388 -0.24144097
-0.20048212 -0.13790847 -0.1047558 0.04504427 -0.27721754 0.1443982 -0.27570674 0.11759362
-0.074527785 -0.06354598 -0.008364703 -0.21582858 0.009788288 0.18085061 -0.33344558 0.04056114
0.13184524 0.012787565 -0.3426638 -0.24013229 0.06258265 0.03748677 -0.09801168 -0.24404655

fc3.bias f4 [64]
00000000: 7913 b137 1ce0 adb7 9d30 fd38 da19 8f38
00000010: fe54 3eb8 c3d8 9d37 705a ac36 70dd 9437
00000020: b409 83b8 c767 f4b7 9e92 88b6 ed8a 5538
00000030: 279d 6ab8 5d17 93b8 cca6 4638 bd5f 5738
00000040: 5ca2 17b7 c4c7 20b8 9a85 3837 a462 8338
00000050: 8d11 aab7 2314 8a38 52c6 16b7 0cb0 2538
00000060: 7c4a 61b8 0026 80b4 e159 9738 20a7 54b4
00000070: 35ed 3038 0ea7 e6b6 63d0 1438 940b c437
00000080: 38ea 4db8 b17f 31b8 f694 4837 8555 08b8
00000090: 36f8 a5b7 ba4c 27b8 91ab 8fb8 8a70 13b8
000000a0: b1b4 14b8 da54 8137 a94b e5b7 9225 c4b7
000000b0: 6121 6438 c059 6cb8 a486 8db7 d038 48b7
000000c0: bb5d 0ab7 c6ae 1738 a08c ba37 a9b1 18b9
000000d0: 7886 6ab7 e1f9 21b8 3ad2 3a37 bee1 c1b6
000000e0: a407 4d38 acbc 9b37 5036 9238 c01e 1bb8
000000f0: 5cf2 0538 964d 4c37 e757 1838 cbd8 c337
2.1109112e-05 -2.0727566e-05 0.00012073035 6.8235866e-05 -4.5378685e-05 1.8816796e-05 5.1365278e-06 1.774609e-05
-6.248374e-05 -2.9135392e-05 -4.0701843e-06 5.0912542e-05 -5.5936307e-05 -7.013858e-05 4.736222e-05 5.1349158e-05
-9.038104e-06 -3.833302e-05 1.0998361e-05 6.26494e-05 -2.0273752e-05 6.5841035e-05 -8.986872e-06 3.9503022e-05
-5.371355e-05 -2.3869507e-07 7.216982e-05 -1.9804838e-07 4.2182586e-05 -6.873982e-06 3.5480025e-05 2.3370412e-05
-4.9093942e-05 -4.231901e-05 1.1955612e-05 -3.2504573e-05 -1.9785115e-05 -3.988736e-05 -6.850728e-05 -3.515234e-05
-3.545423e-05 1.541751e-05 -2.733416e-05 -2.3382516e-05 5.4390523e-05 -5.635037e-05 -1.6871207e-05 -1.1934157e-05
-8.247264e-06 3.6163976e-05 2.2238411e-05 -0.00014562033 -1.3978795e-05 -3.861811e-05 1.1135411e-05 -5.778128e-06
4.8882925e-05 1.8565297e-05 6.971939e-05 -3.6983518e-05 3.1935386e-05 1.2177412e-05 3.632149e-05 2.3346764e-05

fc4.weight f4 [3, 64]
00000000: cb4c 0b3e 6eed 25be 224f 4bba a8e0 47be
00000010: 57e6 753d d6c2 263d 1986 cd3b dcf9 e23d
00000020: 45a0 ddbd a3d5 293c d8f8 963d 158b e6bd
00000030: 3c0d e9bd 1dd8 bcbd 5d01 a7bc e29e e2bd
00000040: 5c9b d3bd 092c 38be 4332 3e3b 5c61 c0bc
00000050: 9a7a 69be 67e9 a03d 9a49 2c3d 42e5 073d
00000060: 7fdc babc 91ee b63d c8d8 ae3d e860 e33b
00000070: 9a82 39be 48f4 be3d 2406 49bd 8fbf 2a3c
00000080: d5a4 bd3c b858 b53d 1558 db3d 9868 f03d
00000090: c2b9 5a3d 7a90 24be 3920 273d 4e62 3ebe
000000a0: 0fbb bebd a273 74be ac71 33bd ade4 ef3d
000000b0: b8f8 403d 96e6 1abe 758e 2cbd 248d 48be
000000c0: 25cb 613d e5a7 163e 4fff b1bd 130f 5b3d
000000d0: caf8 b53b 6770 2bbe af2d 453d 59bc fe3d
000000e0: fb4f de3d dc1a be3d 43c5 1b3d abad 873d
000000f0: 69d2 edbd 12aa 0e3e 893d 43be 3df8 d0bd
00000100: 93e3 e93d f81e 1fbb 77a0 3cbe ca37 983d
00000110: fc7b 123d ca3e 763c 8c40 29bd 7a54 a13d
00000120: cf41 6a3b da1c 60bc 5c3a b0bb 56cf 7e3d
00000130: d840 9d3d 601d ec3d c479 2a3b 6822 c73d
00000140: 083c 083b 83fe 1fbe 7f85 0b3d 12f5 52be
00000150: 21e9 5ebd 3ac4 e7bd 8b0f aebd a43a 17be
00000160: 0525 17be 1084 e2bd 4cf8 e6bd 0469 373d
00000170: dd48 113e 4471 a0bd 3fdb 4a3e ee55 e9bc
00000180: 0568 b83c 758d 873d a482 e63d fae1 103e
00000190: 3b08 a3bd ee20 f33d 1564 c63c 3b15 88bd
000001a0: 4e3c 0b3e 21c9 6c3c a5f6 a8bc 2c28 ed3d
000001b0: 1efd 7d3c 78e4 323e 52c0 413e 2d8a 87bc
000001c0: 293b f0bd a407 7a3d 201a d93c 8fbd 493e
000001d0: 6fbc dcbd 5a00 82bd 9f80 0bbe cdc6 dbbd
000001e0: a24d 073e 0360 7fbd c762 45bd 88d6 933c
000001f0: e1af 813d f8af 453c 9686 153d 75ae 04bd
00000200: 4fdd 04be b299 643d 25ed 8b3b 6f15 daba
00000210: 106d 3ebe de49 89be 94ef 56be e68f 11be
00000220: e8a9 483d 00e6 3cbe 3556 0abe 47d5 b73d
00000230: eb32 9e3d de00 023e 6c04 69be 0265 e03d
00000240: a834 d83d bb85 eebc 9c42 95be bee7 153d
00000250: 5afb 813c eab5 6f3d 0956 90bd c5f0 b93c
00000260: ec2d 9f3d 9dbc 0c3e e9b3 9a3d 1b17 72be
00000270: fe04 04bd b774 ae3d cb70 ecbd e1e7 e73d
00000280: d4a2 57be 1a4b 0fbe 0b0f 56be 4517 aabd
00000290: 316e fb3b d655 303c 7857 3fbe 8547 3d3d
000002a0: 8dc7 013e 220f 75bc 5b53 cb3d f921 e9bd
000002b0: 4187 2cbe b1ae 0fbd 3ee4 1dbe ea63 1d3d
000002c0: 393b 463d 041d a1bd 7cdf 6d3d aa7a febd
000002d0: 6c4e 533d 5a3b ae3c 2d0e 6c3d dc79 5fbc
000002e0: dd3b 2ebe 32d6 a53c 872e 0ebe 08ec 1ebe
000002f0: 4c7f aa3c 3d34 33bd dc1f 263d c554 783d
0.13603513 -0.16203853 -0.0007755627 -0.19519293 0.060034122 0.040713154 0.006272089 0.11082813
-0.108215846 0.010365876 0.07371682 -0.112569965 -0.113794774 -0.09220908 -0.020386392 -0.11065461
-0.10332367 -0.17985548 0.0029021658 -0.023483925 -0.22800675 0.07857018 0.04206238 0.03317762
-0.022810219 0.08932222 0.085374415 0.0069390424 -0.18116227 0.09323937 -0.04907812 0.010421648
0.023149887 0.088548124 0.1071016 0.117387 0.05339981 -0.16070738 0.040802214 -0.18592188
-0.09313022 -0.23872235 -0.043809578 0.11713538 0.047112197 -0.15127024 -0.042128045 -0.19585091
0.055125374 0.14712484 -0.086912744 0.053481173 0.0055533396 -0.16742097 0.04813927 0.12438268
0.10855099 0.09282467 0.03802992 0.066249214 -0.11612398 0.13932064 -0.19066443 -0.10203598
0.114203595 -0.0024279933 -0.18420587 0.07432516 0.035762772 0.0150296185 -0.041321322 0.07877441
0.0035744791 -0.013678754 -0.0053780507 0.06220945 0.076783836 0.1152904 0.002601252 0.09723359
0.0020787735 -0.15624432 0.03406286 -0.206013 -0.054421548 -0.11316724 -0.08499058 -0.14768463
-0.14760216 -0.11060345 -0.112778276 0.044777885 0.14187951 -0.07834104 0.19810198 -0.028483357
0.022510538 0.06618778 0.112553865 0.14148703 -0.07960554 0.11871515 0.024217645 -0.066446744
0.13597223 0.01445225 -0.020625422 0.11579928 0.015502242 0.17469966 0.1892102 -0.01654538
-0.11730034 0.061042443 0.026501715 0.19701217 -0.10778128 -0.06347723 -0.13623284 -0.107312776
0.13213208 -0.062347423 -0.048189905 0.018046632 0.06332374 0.01206588 0.036505304 -0.032392938
-0.12975048 0.055810638 0.004270213 -0.0016638468 -0.18596292 -0.2681417 -0.2098983 -0.14215049
0.04899016 -0.18447113 -0.13509448 0.08976226 0.077245556 0.12695643 -0.22755593 0.10956766
0.105569184 -0.029116502 -0.2915238 0.03659796 0.015866924 0.058523096 -0.0704766 0.022697816
0.07772431 0.13743825 0.075538464 -0.23641627 -0.032231323 0.08518355 -0.11544951 0.11323524
-0.21058208 -0.13993493 -0.20904176 -0.083052196 0.007673048 0.010762652 -0.1868571 0.046210784
0.12673779 -0.014957221 0.09928008 -0.11383433 -0.1684847 -0.035078708 -0.15419099 0.038425364
0.048396323 -0.078668624 0.05807446 -0.1242574 0.05158846 0.021268535 0.057630707 -0.013639893
-0.17015024 0.020243738 -0.13884936 -0.15519726 0.020812653 -0.04375099 0.040557727 0.060627718

fc4.bias f4 [3]
00000000: 7a64 753c 5166 d8bd 2e58 1e3d
0.014977569 -0.1056639 0.038658313

bn1.weight f4 [128]
00000000: 9f04 543f 54e4 733f 60bf 4f3f c0c4 653f
00000010: 73fa 5e3f 07d6 553f 93dc 553f cd4b 703f
00000020: 5cd3 6a3f 9122 3f3f 1fd6 5b3f 3ca1 773f
00000030: c509 623f ad17 1c3f 0682 383f bf6a 563f
00000040: c0e7 443f b84e 483f 10e4 3f3f 3bd3 6b3f
00000050: b52d 803f e92d 283f 9d55 463f aed0 4e3f
00000060: dcc1 4b3f a8f7 3b3f 8d93 493f 1983 5c3f
00000070: 2bcb 4d3f d116 5a3f fd16 543f 2f93 453f
00000080: 7dcf 683f d093 5b3f 58e5 613f 5f49 5d3f
00000090: 2a9c 673f 93dd 283f 3bea 603f 06da 453f
000000a0: 230a 693f 0b34 373f c491 3f3f 96d8 423f
000000b0: 09e8 3c3f 8c72 5e3f dc2b 553f 682f 533f
000000c0: a5ce 5c3f bcd2 753f c8ee 363f 0d8a 483f
000000d0: 2b65 6f3f 2027 413f ee2c 5d3f e80b 4d3f
000000e0: 4686 3c3f b991 4a3f 6ac4 783f 1470 623f
000000f0: c1d9 413f cfb1 553f f500 5a3f 0850 413f
00000100: 5b69 5a3f 5048 663f 7f3b 4c3f 4b92 7c3f
00000110: 3111 523f c2ed 423f bd61 583f 69cd 6f3f
00000120: eb9a 473f fe1b 4f3f 3bd2 453f 32ce 3a3f
00000130: 3b52 633f 5528 423f dd59 583f 5691 503f
00000140: e194 5b3f 84ef 5f3f 38f8 583f eafd 6b3f
00000150: 9b1e 623f 3baa 6b3f e1e1 4c3f 4592 623f
00000160: 951e 543f ee5b 363f 7d77 623f 8564 633f
00000170: d671 733f 7748 543f fbc6 4d3f 32cb 6d3f
00000180: ff42 603f acd4 5e3f 4a0d 673f feb9 543f
00000190: 8042 3b3f 61f4 633f 35ec 4e3f b3ae 503f
000001a0: d1b5 363f 6c8f 383f fa94 5a3f 60f5 413f
000001b0: 7ed6 633f a5d8 4f3f 46e5 6f3f 88e6 553f
000001c0: d386 433f 395b 663f 03af 5d3f 92e2 7a3f
000001d0: 0537 633f f27e 5c3f e111 563f 76b4 4c3f
000001e0: 325a 5f3f 371e 5e3f 67bb 4c3f 2130 5d3f
000001f0: d7be 623f 759a 553f 223b 583f 524f 583f
0.8281955 0.95270276 0.8115139 0.8975334 0.87100905 0.83529705 0.83539695 0.9386566
0.9172876 0.7466212 0.858736 0.967304 0.8829616 0.60973626 0.720734 0.8375663
0.7691612 0.78245115 0.7495737 0.9211919 1.0013949 0.65695053 0.77474385 0.8078717
0.7959268 0.7342477 0.7874077 0.8613754 0.80388135 0.85191065 0.8284758 0.7717771
0.909416 0.8577242 0.88240576 0.8644008 0.9047266 0.65963095 0.8785741 0.772858
0.9103109 0.71563786 0.74831796 0.76111734 0.7379156 0.86893535 0.8327005 0.8249421
0.86252815 0.9602468 0.714581 0.7833565 0.93513745 0.75450325 0.8639668 0.8009629
0.73642385 0.79128605 0.97174704 0.8845227 0.7572289 0.8347444 0.8515771 0.75512743
0.8531701 0.8995409 0.79778284 0.98660725 0.8205748 0.7614404 0.84524137 0.93672806
0.7797076 0.8090209 0.7727391 0.7297088 0.8879735 0.7584279 0.8451212 0.81471765
0.85774046 0.87474847 0.8475375 0.9218432 0.8832795 0.92056626 0.80032164 0.8850444
0.82859164 0.71234024 0.88463575 0.88825256 0.95095575 0.8292307 0.80381745 0.92888176
0.8760223 0.8704326 0.9025465 0.830963 0.73148346 0.8904477 0.80829173 0.8151657
0.7137118 0.72093844 0.8538357 0.7576504 0.88999164 0.8118995 0.9370922 0.8355489
0.763776 0.89982945 0.8659517 0.9800197 0.8875583 0.86131203 0.8362103 0.7996286
0.87247 0.86764854 0.79973453 0.86401564 0.8857245 0.8343881 0.8446523 0.84496033

bn1.bias f4 [128]
00000000: be70 00bf a192 3fbf 33fd e6be 7dfe 23bf
00000010: 4589 c9be b2f0 d2be d577 46bf 0829 e3be
00000020: 3d86 d1be 1a2d 8bbe d16d cdbe 2cf2 d9be
00000030: 1e8d 1fbf f526 02be 4e1e 0cbf 9774 19bf
00000040: 67ec 2fbf eaf9 9abe cc13 77be d98b 03bf
00000050: fbc2 2bbf 4bb2 6bbe 8f34 e6be 60d7 e6be
00000060: e084 bfbe f640 d4be d4a4 26bf b507 0ebf
00000070: 393a a7be fb7e 3cbf 76e1 c7be 4c8d fabe
00000080: d382 f2be aca3 26be 202f 22bf a4d3 a6be
00000090: 2239 0abf b6ad c8be 95eb eabe 4341 6fbe
000000a0: d5da 2dbf a9f9 10bf 5706 e5be e2af fdbd
000000b0: 1a12 89be 43a5 09bf 79f2 fdbe 10b4 ffbe
000000c0: 96ae dcbe 668f 15bf 64ca fbbd 7c8c e7be
000000d0: 3521 d6be e2e1 c4be d08e 25bf 7053 f0be
000000e0: 457e 94be 83b9 eabe 1191 2bbf 38a5 eebe
000000f0: cc3f edbe fd62 8cbe 672c 82be d41c cdbe
00000100: 2418 18bf 8501 1ebf 7584 2abf 2815 05bf
00000110: a951 b1be 9e0e c7be 7690 b6be e38f f5be
00000120: d82a 30be 2256 88be d253 d2be 4838 aebe
00000130: f463 10bf 1530 46be 0c41 f8be 540b f4be
00000140: 0a1c 1bbf f654 09bf 7606 0cbf 0b6c 03bf
00000150: 0d90 05bf 7bac 0cbf 2c95 03bf a756 ccbe
00000160: 180e a4be 395c 09bb b2c9 f5be d64a e1be
00000170: b7e4 19bf 0a55 cfbe 02fc d0be 57f4 1dbf
00000180: 18cd ccbe 672d ccbe 88dc 07bf 9bbc 6cbe
00000190: 2c15 aebe b06f 25bf d576 c8be b612 9dbe
000001a0: be8f 4abe 991c 08bf f3d6 18bf c5d4 0fbf
000001b0: e8e6 5dbe 3f2a dfbe 6fdb 49bf ef91 d1be
000001c0: 4fa2 93be bc0b 0abf 1361 cdbe e40f 17bf
000001d0: a6a2 c6be da1b 9fbe 58e6 21bf ffc2 cabe
000001e0: e293 e9be c2ce ebbe ee8f 05bf 662e 43bf
000001f0: 0aab f5be e729 9bbe 4776 ebbe a855 dbbe
-0.5017203 -0.7483311 -0.4511505 -0.64060193 -0.3936254 -0.4119926 -0.775266 -0.44367242
-0.40922728 -0.27182847 -0.40122846 -0.42567575 -0.623247 -0.12710173 -0.5473374 -0.59943527
-0.68720096 -0.30268794 -0.24128646 -0.51385266 -0.6709439 -0.23017232 -0.44961974 -0.45086193
-0.37406063 -0.4145581 -0.6509526 -0.5548051 -0.32661608 -0.73631257 -0.390392 -0.48935926
-0.47365436 -0.16273373 -0.6335316 -0.32583344 -0.5399343 -0.3919503 -0.4588286 -0.23364739
-0.67912036 -0.5663095 -0.447314 -0.123870626 -0.26771623 -0.53767794 -0.49599054 -0.49942064
-0.43101948 -0.58421934 -0.12294462 -0.4522437 -0.4182221 -0.38453585 -0.6467104 -0.46938658
-0.29002586 -0.4584466 -0.6701823 -0.46610427 -0.46337736 -0.27419272 -0.254245 -0.40061057
-0.59411836 -0.6172107 -0.66608363 -0.51985407 -0.34632614 -0.3887834 -0.3565709 -0.4796134
-0.17203844 -0.26628214 -0.41079575 -0.34027314 -0.56402516 -0.1935428 -0.48487127 -0.47664893
-0.6058966 -0.53645265 -0.5469736 -0.51336735 -0.5217293 -0.54950684 -0.51399493 -0.3990986
-0.32042003 -0.002095951 -0.48005444 -0.44002408 -0.60114616 -0.40494567 -0.40817267 -0.6170096
-0.40000224 -0.3987839 -0.5307088 -0.23118822 -0.34000528 -0.64623547 -0.39153162 -0.30678338
-0.19781396 -0.53168637 -0.59702986 -0.56184036 -0.21670115 -0.4358692 -0.78850454 -0.4093165
-0.2883477 -0.53924155 -0.40113124 -0.5900862 -0.38795966 -0.31075937 -0.632421 -0.39601895
-0.45620638 -0.4605618 -0.52172744 -0.76242673 -0.47982055 -0.30305406 -0.45988676 -0.42838788

bn1.running_mean f4 [128]
00000000: fec3 893c 6760 963c f7ad b3bb 8ed9 7c3c
00000010: df1a 6bbc ed8d d6ba ae50 0cbd 1f64 c13b
00000020: bcbb c43b 4c07 f7bc 0de6 a3bc 87e3 9a3c
00000030: 9250 42bd d191 0d3d 8c18 f93b 7742 933b
00000040: c371 073c 5c68 e1bc ed9d 023c db7a 8f3c
00000050: 6971 343c 5811 6ebc 8b55 d53c d755 afbb
00000060: 5dd1 0c3c 1184 4bbc 707b bc3c 955e 983c
00000070: 541b a1bc 34e9 1fbd ab66 903c 46e9 833a
00000080: f2aa 133c 377c a83c 6ffd 5f3c acd8 b5bc
00000090: 6f31 fdbc 5186 d23b b789 f43b 5b06 cf3b
000000a0: 2a21 f63b e45a 973c 29ec 59bc 27cd 1a3d
000000b0: cd6a 38bc d32f a13c 5c81 a23c c0de abbc
000000c0: 58c8 89bc 3e6e 88b8 4f38 ac3c 498a 7abb
000000d0: c816 d53c c5fa 193d ad7a 11bb 85a5 13bc
000000e0: bc1c d0bc c3f4 50bc bf2e 95bc 904f d23c
000000f0: f0eb d0bb 6fa9 b63c fd61 ebbc 1da1 b1bb
00000100: 8e0f bd3b 425c 2e3c 6672 3ebc 811d a43c
00000110: 3e0b dbbc e8c9 5a3c 9d16 10b8 4fe0 133c
00000120: cd4d ce3c a723 ec3c 8891 21bc f533 93b8
00000130: bb47 2cbd 56a6 b1bb 005d f13b a846 223c
00000140: 3a3f a63b ef12 b63b b2d6 0abd bb80 b53b
00000150: 8e79 53bb d6dc 403c ac35 b33c ba08 47bc
00000160: 9991 713c 1fd6 ed3b 26de 483c cbe8 123c
00000170: fa8d 143c 92cc 13bb 681b c13a dd3e bcba
00000180: 0971 6e3c 86b5 c73b a1e5 09bd 96da 5e3c
00000190: f505 c3bb de1f 7dbb 96b3 92ba 7254 b8ba
000001a0: b1f5 9bbc 5cdd e83b 051a 063c 1ebc 6ebc
000001b0: 35fc 5c3c 65ff 903c c341 673c 6066 d5bb
000001c0: 7497 85bc f0cb d1bb 4fd0 3f3d afd0 023b
000001d0: 1d3d 393c 42a8 71bc b466 b63c 0dc0 993b
000001e0: c745 c1b8 ad4b 413c 4676 b83b 2e0f 0dbc
000001f0: 7ded c9bb f7b7 8ebb b8de 45bb 36c5 25bc
0.01681709 0.018356515 -0.0054833847 0.015432728 -0.014349668 -0.0016369201 -0.03425663 0.005901828
0.006003825 -0.030154847 -0.020007158 0.018907322 -0.04744012 0.03456289 0.007601803 0.004494007
0.008266869 -0.027515583 0.007972223 0.017514637 0.011013367 -0.014530502 0.026041767 -0.005350809
0.008594838 -0.012421624 0.023008078 0.018599788 -0.019666351 -0.03904076 0.01762708 0.0010064028
0.0090129245 0.020567043 0.013671263 -0.022198044 -0.03090736 0.006424703 0.007462706 0.0063178963
0.0075112777 0.018475957 -0.013300934 0.037793305 -0.011255932 0.019676125 0.019837074 -0.020980239
-0.016819164 -6.5055196e-05 0.021022944 -0.0038229397 0.02601184 0.037592668 -0.0022198365 -0.009011631
-0.025404327 -0.012753668 -0.018210767 0.025672704 -0.006375782 0.02229759 -0.028733248 -0.0054208175
0.0057696765 0.010642113 -0.011623954 0.0200336 -0.02673876 0.013353802 -3.4353336e-05 0.009025647
0.025183583 0.028825594 -0.0098613575 -7.019184e-05 -0.042060595 -0.00542144 0.007365823 0.009904541
0.005073455 0.0055564563 -0.033896156 0.0055390275 -0.0032268497 0.011771401 0.021876179 -0.012148077
0.014744186 0.0072581912 0.012259996 0.008966635 0.009067053 -0.0022552353 0.0014732899 -0.0014361996
0.014553317 0.0060946373 -0.033666257 0.01360192 -0.005951638 -0.003862373 -0.0011192437 -0.0014063253
-0.019038053 0.007106466 0.0081849145 -0.014571218 0.013487865 0.017699907 0.0141148 -0.006512448
-0.01630757 -0.006402485 0.046829518 0.001996081 0.011306074 -0.014749588 0.02226577 0.0046920837
-9.215954e-05 0.011797828 0.0056293337 -0.008609576 -0.006162344 -0.0043554264 -0.0030192565 -0.0101178195

bn1.running_var f4 [128]
00000000: 06be aa3e 4a63 b43f fa6e f53e e40b a43e
00000010: af5b 093f 293b be3e bb00 b13f 82d1 b63e
00000020: a59c f13e 5c04 1b3f 8a40 153f ef66 a03e
00000030: d67e 353f f347 023f ddbd a33f f881 243f
00000040: 304d 1b3f 76a7 c53e d6cf 3c3e d582 123f
00000050: 769a 813e 5c22 223f 1cff b23e a546 073f
00000060: 9749 9e3e 79c6 223f 3789 da3f 9caa 9c3e
00000070: 02d4 223f a8d5 1c3f 3d88 e93e d1db 0c3f
00000080: cc64 8f3e 7922 b23e 2754 3a3f 9b0b 9d3e
00000090: 49fc c13e 4894 9b3f 75d4 a43e 582b 083f
000000a0: a5ad d63e c9ad 4b3f e8e0 883f f15c 413f
000000b0: 10fc cd3e acf4 053f 633a 143f 344f b33e
000000c0: ceaa 0e3f e73d a13e 8b23 ca3e 9d4a e23e
000000d0: 340a df3e c86e c53e 4582 4c3f 85a6 2e3f
000000e0: f8cf 563f e04b 0b3f 4011 a83e e4be 0b3f
000000f0: 1934 3c3f 68a6 713e b9d3 193f afcd b13e
00000100: ec19 193f 9b90 f73e b7b1 033f ff12 e53e
00000110: 5067 513f 051d 473f 9406 893e 92fd 873e
00000120: bf6d 093f bf1e 133f 44f6 cb3e 0110 8e3f
00000130: 5165 1f3f ee81 c23e d0bd f53e aa64 023f
00000140: 5f67 9c3e 217d e43e c914 a73e e4b1 883e
00000150: ebc9 b03e e9cb be3e 6e49 e23e c5b6 1b3f
00000160: a8bc bf3e d5db d33e b277 3a3f 1651 ae3e
00000170: c215 b93e 4903 8b3e 0d02 d33e 5fba 053f
00000180: 1b03 a93f 2518 be3e 4011 d03e 3f40 a53e
00000190: 633d 443e ba10 c23e 3be0 973e 3053 893e
000001a0: 25ba 203f 0040 243f ea2b 613f 9562 f33e
000001b0: 7b41 c13e 11a6 2d3e bc94 0f3f 7495 993e
000001c0: 3127 293f 4106 f83e 9d90 0c3f e804 903e
000001d0: 322c c33e 1cd3 ab3e 9a7c 703f 7da4 e63e
000001e0: aa63 bb3e 4c34 913e 6133 043f 9a01 ba3e
000001f0: dce0 b13e 3a6d 8d3e 1cf2 aa3e 0f76 9e3e
0.333481 1.4092801 0.4793623 0.32040322 0.53655523 0.3715451 1.3828348 0.35706717
0.47189823 0.60553527 0.58301604 0.31328532 0.7089666 0.50891036 1.2792317 0.64260817
0.60664654 0.38604325 0.18438658 0.57230884 0.25313157 0.6333368 0.34960258 0.5284217
0.3091552 0.63584095 1.7073125 0.30598915 0.6360475 0.61263514 0.45611754 0.55022913
0.2800659 0.34791926 0.72784656 0.30672917 0.3788779 1.2154627 0.32193342 0.5319114
0.41929355 0.7956205 1.0693636 0.7553244 0.4023137 0.52326465 0.5790159 0.35021365
0.5572938 0.3149254 0.39480242 0.4419755 0.43562472 0.38561082 0.79886276 0.6822284
0.83911085 0.5441265 0.3282566 0.5458815 0.73516995 0.23598635 0.6008869 0.34727237
0.5980518 0.48352513 0.51443046 0.44741055 0.8179827 0.77778655 0.2676283 0.26560646
0.53683084 0.5746879 0.39836323 1.1098634 0.6226397 0.37989753 0.47996378 0.5093485
0.30547616 0.44626716 0.32633045 0.2669822 0.3452905 0.37264946 0.44196647 0.6082576
0.3744862 0.41378656 0.7283889 0.3404624 0.36149412 0.27150944 0.41212502 0.52237505
1.3204073 0.37127796 0.4063816 0.32275578 0.19164042 0.37903386 0.29663262 0.2682128
0.62784034 0.64160156 0.8795763 0.4753615 0.3774527 0.1695788 0.56086326 0.29996836
0.66075426 0.4844227 0.5490816 0.28128743 0.38119656 0.335595 0.93940127 0.4504737
0.36599475 0.28360212 0.516409 0.36329347 0.34741867 0.27622396 0.3338784 0.30949447

bn2.weight f4 [128]
00000000: b538 4b3f 6b87 363f 77e9 4f3f 96ff 563f
00000010: 0ab9 3f3f 74f1 533f fc4b 483f 9083 5f3f
00000020: a11b 433f 2f49 3f3f 4bb2 433f 38f2 483f
00000030: 1270 613f 379b 743f 787a 2f3f 52cc 3a3f
00000040: 783b 513f 802f 533f 3b01 383f ff89 453f
00000050: c973 473f 99b8 623f 8954 633f 4d7f 363f
00000060: 2988 613f 9140 3d3f af2a 4a3f 9bbc 3d3f
00000070: 989e 4b3f 9bd6 533f ae8e 7b3f efc5 483f
00000080: 9324 623f 3aaa 683f 9866 483f 0ec4 503f
00000090: 38ff 543f 8669 443f 710b 2e3f 473a 333f
000000a0: 3fdd 4f3f d5b2 473f 5006 683f 2f6f 693f
000000b0: d387 413f 3b5d 523f 4880 513f 585a 513f
000000c0: d707 613f 5952 2e3f 758f 513f 0f15 493f
000000d0: 75c3 543f 0519 543f 957e 273f 79df 673f
000000e0: 94a2 6b3f 7f18 503f ac7b 513f 46d8 3d3f
000000f0: adef 693f ee5e 543f b24b 493f 334c 533f
00000100: 37f8 423f a82a 493f c74c 583f 612b 533f
00000110: 5782 503f ddec 593f 4dcd 383f 79c6 493f
00000120: 68b4 393f 6e86 463f 92c5 583f 0516 4d3f
00000130: 74c2 573f 8931 413f e9c5 4e3f f281 583f
00000140: 77c6 523f 66d8 513f 2c73 4d3f 5f97 4b3f
00000150: 0ea0 573f 54a5 5c3f 9201 5d3f a8d4 4a3f
00000160: a4cc 2c3f fe9a 5a3f 3fb2 583f 930d 553f
00000170: 10a8 503f 23ec 5d3f 68df 4f3f bae8 4b3f
00000180: a457 613f cc05 5a3f 7581 643f 7eaf 573f
00000190: 94d2 553f c6d4 553f 52e1 623f c31e 573f
000001a0: bc2e 4e3f cf47 5e3f 4235 493f fa67 593f
000001b0: 2987 653f 202f 613f 0dfe 623f 26b2 393f
000001c0: 60c4 523f cabb 5f3f 2e4a 303f 434b 543f
000001d0: 2230 603f bffe 643f 33c6 3f3f e574 553f
000001e0: 38dc 423f 917b 523f 10a6 6d3f bd53 3d3f
000001f0: c227 423f 40dd 733f 4b38 553f 7368 6c3f
0.79383403 0.7130038 0.81215614 0.83983743 0.7489172 0.82790303 0.7824094 0.87310123
0.76214033 0.74721044 0.7644393 0.78494596 0.8806163 0.9554934 0.6854625 0.7296802
0.8173137 0.82494354 0.7187688 0.7716369 0.7791105 0.88562924 0.88800865 0.71287996
0.8809839 0.73926646 0.7897138 0.74115914 0.7953887 0.82749337 0.98264587 0.7842702
0.8833706 0.90884745 0.78281546 0.81549156 0.8320193 0.76723516 0.6798621 0.700108
0.8119697 0.7800725 0.9063463 0.9118528 0.75597876 0.8217351 0.81836367 0.8177848
0.8790259 0.680944 0.81859523 0.7854776 0.83110744 0.82850677 0.65427524 0.9057537
0.9204495 0.8128738 0.81829333 0.7415813 0.9138134 0.8295735 0.78631127 0.82538146
0.76159996 0.78580713 0.8449215 0.82488066 0.8144888 0.8512705 0.72188264 0.7881847
0.72540903 0.77548873 0.8467647 0.80111724 0.84281087 0.7546621 0.80770737 0.8457328
0.82334083 0.8197082 0.80253863 0.7952785 0.842286 0.8618977 0.8633052 0.7923074
0.67499757 0.8539275 0.8464698 0.8322384 0.81506443 0.8668844 0.81200266 0.7965199
0.88024354 0.85165095 0.89260036 0.84252155 0.8352444 0.8352779 0.8862506 0.84031314
0.8054006 0.8682832 0.7859689 0.8492428 0.89659363 0.8796253 0.886689 0.7253746
0.82330894 0.8739592 0.6886319 0.8292734 0.87573445 0.8945121 0.74911803 0.8338149
0.7611728 0.822198 0.92831516 0.739559 0.75841916 0.95259476 0.8328902 0.92346877
