model/saved_model/premier_league_predictor.pth (torch, 71226 bytes, 14 tensors)

fc1.weight f4 [128, 55]
0.046112746 -0.03917491 0.037378952 0.039460447 0.11917727 0.0047947345 -0.0894842 0.07066924
0.057046432 0.15121193 -0.22663105 0.106164224 0.18156824 -0.15971778 -0.089314744 0.012793765
-0.08547089 0.06297913 -0.1087467 0.07331542 -0.098207586 0.14713933 0.030768456 -0.21651126
-0.028449168 0.15126838 -0.20527652 0.13408828 0.078583844 -0.10052601 -0.011218815 -0.0541707
-0.010958432 0.14807054 0.12518176 0.11941548 -0.0001713924 0.102867 -0.15968652 0.07855057
-0.22171003 -0.031167924 0.1653399 -0.3331513 0.0701723 0.006711198 -0.0048396597 0.22524431
-0.071034364 -0.047188517 0.03328296 -0.08702107 0.07636594 -0.24077779 0.05486146 0.12076269
0.06839678 -0.04718108 -0.024413852 0.124947384 0.05997335 -0.02520539 0.10662656 -0.08578753
0.31967124 0.09420973 -0.0055566323 -0.12381352 0.12597233 0.0063530374 -0.23567984 -0.041094977
0.15254444 -0.08535385 -0.13964076 -0.28474998 0.20251387 -0.016105572 -0.1911138 0.10667788
0.06588711 -0.052427206 -0.13516472 -0.11663022 0.021808904 -0.14411114 -0.032714512 -0.07784868
-0.107281305 -0.11614884 0.13425827 0.07406211 0.02603146 0.005124365 -0.010738902 0.13990855
-0.06851381 0.07494245 0.042076245 0.13311553 0.02196794 -0.09590818 -0.010244918 -0.15088621
0.09579864 0.1557638 0.10247522 0.094526246 0.03366114 -0.07943237 -0.06499942 0.018418865
0.08340904 0.0919553 -0.0059209876 0.096543975 0.091531366 0.1315987 0.103270486 -0.024488594
0.089843035 0.17373525 -0.059317585 -0.018521423 -0.11024726 0.02441361 -0.09774384 0.013399118
0.048843246 0.052347645 -0.074706376 -0.006122354 0.12673892 -0.0003853249 0.24569072 0.11899168
-0.03426265 -0.19942835 0.008620373 0.09247153 -0.02670136 -0.10180425 0.075314954 0.15479448
0.119174466 -0.15930875 -0.22032136 -0.21523178 0.0057197493 0.05568621 -0.09842238 0.003034918
-0.04524446 0.009812135 -0.06566456 -0.10197778 -0.0050828345 -5.4501543e-05 0.13587792 -0.12750587
0.24541117 -0.035917375 0.2103756 0.10151675 -0.013332146 -0.030430818 0.051261943 -0.038785446
0.008059122 0.031082992 -0.08613771 -0.1351441 0.0858687 0.019891238 0.12034392 -0.02825968
-0.06620358 0.02514152 0.09941892 -0.043935295 -0.025798282 -0.006557169 -0.28736487 0.02200504
0.0942119 0.17266887 0.062300622 0.017703973 -0.2167259 -0.10239358 -0.018885221 0.018212957
0.09716545 -0.18775474 -0.21677198 0.0699876 -0.21005589 -0.1409266 0.061862808 -0.068876125
-0.038366113 0.0824635 0.01785676 -0.12878042 -0.19078001 -0.112066 -0.01998304 -0.06520199
-0.23834436 -0.032370765 0.020675804 -0.16568188 0.15279064 0.054196384 -0.27452186 -0.024688896
0.17804682 0.10865459 -0.08789969 0.038648106 -0.013966886 0.10196186 -0.064369775 -0.16138236
0.038409196 -0.10959644 0.0065348605 0.10918966 0.005774835 0.1309356 -0.3119381 -0.08644448
0.055310797 -0.091172785 0.09140496 0.04868796 0.032206606 -0.16445203 -0.108246855 -0.24053018
-0.12225607 0.098701924 0.059118133 0.042566694 -0.2471993 -0.12550439 0.11842275 -0.17589745
0.10620098 0.0009173558 0.041909527 -0.20111547 -0.14302151 0.074571095 0.09164039 0.08777696
00000000: b8e0 3c3d df75 20bd ac1a 193d 47a1 213d
00000010: 3613 f43d 261d 9d3b 7e43 b7bd 09bb 903d
00000020: 85a9 693d 4dd7 1a3e f811 68be a16c d93d
00000030: 06ed 393e 0f8d 23be a6ea b6bd f19c 513c
00000040: 5d0b afbd 34fb 803d 97b6 debd 6526 963d
00000050: 0f21 c9bd b1ab 163e 210e fc3c 21b5 5dbe
00000060: 3b0e e9bc 19e6 1a3e 0234 52be 704e 093e
00000070: 91f0 a03d 95e0 cdbd 1fcf 37bc 19e2 5dbd
00000080: ff8a 33bc ce9f 173e a62f 003e 1a90 f43d
00000090: ccb7 33b9 efab d23d dd84 23be 1fdf a03d
000000a0: f407 63be e053 ffbc dd4e 293e cf92 aabe
000000b0: 7fb6 8f3d 9ce9 db3b 0296 9ebb 72a6 663e
000000c0: 777a 91bd bf48 41bd b753 083d 1a38 b2bd
000000d0: bf65 9c3d 748e 76be 69b6 603d 6e52 f73d
000000e0: 9c13 8c3d f340 41bd 8fff c7bc 6ae4 ff3d
000000f0: 9ea6 753d 897b cebc 075f da3d 5fb1 afbd
00000100: f3ab a33e 08f1 c03d 6914 b6bb f191 fdbd
00000110: e4fe 003e 242d d03b 0e56 71be 3553 28bd
00000120: 9c34 1c3e 00ce aebd fdfd 0ebe c0ca 91be
00000130: cc5f 4f3e d5ef 83bc 56b3 43be ef79 da3d
00000140: d2ef 863d e9bd 56bd 9f68 0abe d3db eebd
00000150: 96a8 b23c df91 13be a7ff 05bd 216f 9fbd
00000160: 4db6 dbbd 71df edbd 007b 093e e0ad 973d
00000170: ee3f d53c 4aea a73b 38f2 2fbc 3044 0f3e
00000180: f850 8cbd 6d7b 993d 2458 2c3d 704f 083e
00000190: 1cf6 b33c 826b c4bd 4dda 27bc ea81 1abe
000001a0: 1432 c43d 8c80 1f3e 87de d13d fa96 c13d
000001b0: 43e0 093d 70ad a2bd 6a1e 85bd 29e3 963c
000001c0: 5cd2 aa3d 0f53 bc3d d804 c2bb d9b8 c53d
000001d0: cc74 bb3d cfc1 063e 7a7f d33d 4e9c c8bc
000001e0: a0ff b73d a7e7 313e fff6 72bd 3dba 97bc
000001f0: 51c9 e1bd 0dff c73c ec2d c8bd f987 5b3c
00000200: db0f 483d 7c6a 563d a8ff 98bd 079e c8bb
00000210: d9c7 013e 6f05 cab9 5996 7b3e e9b1 f33d
00000220: fe56 0cbd f236 4cbe 773c 0d3c b761 bd3d
00000230: cfbc dabc bf7e d0bd ba3e 9a3d 7282 1e3e
00000240: be11 f43d d521 23be ec9b 61be b865 5cbe
00000250: bc6c bb3b 3917 643d ac91 c9bd 7ae5 463b
00000260: 4152 39bd 14c3 203c 247b 86bd bad9 d0bd
00000270: e88d a6bb 9698 64b8 9523 0b3e e690 02be
00000280: 114d 7b3e 191e 13bd b46c 573e 04e8 cf3d
00000290: 136f 5abc 0d4a f9bc 0bf8 513d 7ddd 1ebd
000002a0: 680a 043c c2a1 fe3c f868 b0bd 3763 0abe
000002b0: eedb af3d f3f2 a23c e076 f63d d880 e7bc
000002c0: be95 87bd 97f5 cd3c 269c cb3d 7ff5 33bd
000002d0: eb56 d3bc 85dd d6bb 7d21 93be ea43 b43c
000002e0: 2bf2 c03d 1cd0 303e f02e 7f3d ec07 913c
000002f0: 65ed 5dbe bab3 d1bd 2eb5 9abc 5733 953c
00000300: aefe c63d c742 40be 79f9 5dbe a955 8f3d
00000310: e418 57be 104f 10be db63 7d3d ed0e 8dbd
00000320: c925 1dbd a0e2 a83d 5748 923c 04df 03be
00000330: d65b 43be dc82 e5bd 79b3 a3bc 9f88 85bd
00000340: 8b10 74be 3597 04bd 4e60 a93c 83a8 29be
00000350: 2675 1c3e 07fd 5d3d 218e 8cbe 5e40 cabc
00000360: e851 363e 4c86 de3d c104 b4bd 7a4d 1e3d
00000370: 5ed5 64bc 61d1 d03d 4dd4 83bd 6b41 25be
00000380: f652 1d3d 1974 e0bd 6222 d63b d49e df3d
00000390: d43a bd3b fb13 063e 5ab6 9fbe ce09 b1bd
000003a0: 938d 623d ccb8 babd 8632 bb3d 076d 473d
000003b0: 13eb 033d 1d66 28be 87b0 ddbd 8b4d 76be
000003c0: 6461 fabd 3c24 ca3d db25 723d 6a5a 2e3d
000003d0: d021 7dbe 3984 00be a087 f23d 761e 34be
000003e0: e67f d93d b57a 703a 53a9 2b3d 37f1 4dbe
000003f0: 3b74 12be bbb8 983d f5ad bb3d 68c4 b33d

fc1.bias f4 [128]
-0.11886711 -0.03948106 -0.0024163974 -0.06128402 -0.14355765 -0.044560533 -0.12354202 -0.1331468
-0.05620673 -0.15158825 -0.05860254 0.029648812 -0.08403273 0.046610456 -0.04657709 -0.12292259
-0.15321751 -0.1797615 -0.10382454 -0.124175206 -0.19602865 -0.124352716 -0.10378207 -0.01849472
0.0071864286 -0.15302502 -0.036869228 -0.16732706 -0.19982237 -0.11507688 -0.1308283 -0.25582024
-0.16035888 -0.12247537 -0.18420663 -0.11177793 -0.2522412 -0.17494483 -0.01143488 -0.16790773
-0.08848383 -0.106815465 -0.15002044 -0.11107611 0.0133236265 -0.15982765 -0.14471404 -0.1407702
-0.14354353 -0.0049785143 -0.21802284 -0.063446015 -0.14595321 -0.072362304 -0.078780495 -0.059441894
-0.08263683 0.010319104 -0.1500213 -0.0073407926 -0.15034759 -0.054481633 -0.11037659 -0.14477779
-0.15657866 -0.031072449 -0.087781355 -0.11177427 -0.07550411 -0.050407253 -0.15629427 -0.098538235
-0.0329123 -0.07114268 -0.11036944 -0.058002498 -0.011626238 -0.050753478 -0.19155695 -0.14765441
0.02457368 -0.13807917 -0.17321528 -0.16484268 -0.18935265 -0.047641672 -0.18094677 -0.2250231
-0.026451964 0.03501991 -0.17054117 -0.16663603 -0.084807396 -0.055742063 -0.18870795 -0.18859078
-0.02942195 0.043514065 -0.10449176 0.01933762 -0.1921142 -0.14138623 0.015818143 -0.19118325
-0.05107709 -0.0044198446 -0.18976936 -0.018244177 -0.014203426 -0.13612711 0.008244508 -0.16629599
-0.038750302 -0.13816684 -0.047576245 -0.18990344 -0.05210625 -0.09872641 -0.19871831 -0.17364898
-0.07790014 -0.032020338 -0.12351064 -0.13553882 0.096834965 -0.17165126 0.017502718 -0.07607706
00000000: 9970 f3bd e4b6 21bd 6c5c 1ebb f404 7bbd
00000010: c700 13be 1b85 36bd 9903 fdbd a257 08be
00000020: 0739 66bd f339 1bbe 3809 70bd 11e2 f23c
00000030: 5a19 acbd 9bea 3e3d 9ec7 3ebd d7be fbbd
00000040: 0de5 1cbe 6613 38be f6a1 d4bd 924f febd
00000050: bcbb 48be a3ac febd b28b d4bd 3d82 97bc
00000060: 227c eb3b 97b2 1cbe 3004 17bd c957 2bbe
00000070: 3c9e 4cbe 6dad ebbd dbf7 05be dffa 82be
00000080: 1e35 24be 5ed4 fabd aaa0 3cbe d4eb e4bd
00000090: c225 81be bd24 33be 5d59 3bbc 01f0 2bbe
000000a0: 0337 b5bd 11c2 dabd f59e 19be df7b e3bd
000000b0: 574b 5a3c dca9 23be eb2f 14be 1026 10be
000000c0: 13fd 12be ce22 a3bb 6141 5fbe fcef 81bd
000000d0: c274 15be b032 94bd ab57 a1bd 5879 73bd
000000e0: 803d a9bd 7611 293c 2f9f 19be 088b f0bb
000000f0: b8f4 19be 2228 5fbd 1f0d e2bd a140 14be
00000100: 2856 20be a68b febc b6c6 b3bd e9e9 e4bd
00000110: e6a1 9abd d677 4ebd 9b0b 20be 6ace c9bd
00000120: 0ccf 06bd 41b3 91bd 5f09 e2bd 0794 6dbd
00000130: fa7b 3ebc e1e2 4fbd 8127 44be b832 17be
00000140: be4e c93c a064 0dbe 595f 31be 85cc 28be
00000150: a9e5 41be ea23 43bd 1c4a 39be 756c 66be
00000160: cab1 d8bc 0a71 0f3d 58a2 2ebe a3a2 2abe
00000170: 80af adbd ca51 64bd a83c 41be f11d 41be
00000180: 4d06 f1bc ce3b 323d c7ff d5bd ee69 9e3c
00000190: 96b9 44be 8dc7 10be 0d95 813c 8bc5 43be
000001a0: 3636 51bd 58d4 90bb e652 42be d074 95bc
000001b0: 7db5 68bc e864 0bbe f913 073c 7f49 2abe
000001c0: a3b8 1ebd 9c7b 0dbe 4fdf 42bd 0c76 42be
000001d0: 5d6d 55bd 1231 cabd d07c 4bbe 0ad1 31be
000001e0: 1c8a 9fbd c227 03bd 25f3 fcbd b0ca 0abe
000001f0: 6951 c63d 59c5 2fbe dc61 8f3c 4ace 9bbd

bn1.weight f4 [128]
1.0730176 0.8378766 0.9478998 1.0309991 1.0109481 0.929016 1.0444155 1.0813698
0.9444109 1.0340124 0.98114055 1.0791562 0.9932457 0.89857954 0.9974428 0.96870494
1.0080208 0.92144686 0.9642171 1.0307316 1.0188438 1.0108513 0.9276989 0.9046267
0.90358526 1.042645 1.0134611 1.0799656 0.9574156 0.9650741 0.95945144 1.0142438
1.0874583 1.029633 0.98278564 1.0614864 1.0312532 0.9350276 0.9874274 1.0648447
0.96252394 1.0999854 0.9898954 0.982423 0.89844465 0.91863906 0.9494298 1.0070916
0.9645071 1.0117244 1.0653551 1.0245576 1.0114113 0.8610534 1.0381671 0.94077694
0.8956845 1.0043362 0.9836498 0.96628314 1.0101001 1.0017191 0.97985125 1.0123448
0.9057679 0.9859323 0.97909427 1.0999503 0.98565555 1.0331603 1.0118312 1.0433577
1.0653915 0.92770046 0.97069144 0.9200289 0.96563685 0.98723274 0.999758 0.9934012
0.8740313 0.9209125 1.1342794 1.0733837 1.0070583 0.9828578 0.93099 0.9797351
0.97866535 1.0192788 0.98779696 1.0257947 1.0699313 0.9409765 1.0284063 0.9568011
1.0356481 1.0033772 1.0241323 0.99847484 1.0191871 0.9885085 1.0201463 0.95812786
0.93903947 0.8893222 0.97749823 1.0105895 0.96714246 1.0331578 0.9760842 1.080195
0.9547715 0.95419145 0.98153806 0.95284116 1.0576543 0.9958218 0.995462 1.008631
1.0180876 0.9551926 0.96323967 1.0476829 0.9073193 1.056606 0.95247287 1.0582982
00000000: a458 893f 157f 563f 90a9 723f c7f7 833f
00000010: bf66 813f fed3 6d3f 68af 853f 536a 8a3f
00000020: eac4 713f 855a 843f 072c 7b3f ca21 8a3f
00000030: 5a45 7e3f 4f09 663f 6958 7f3f 0cfd 773f
00000040: d306 813f f1e3 6b3f efd6 763f 03ef 833f
00000050: 7969 823f 9363 813f ad7d 6d3f 9e95 673f
00000060: 5d51 673f 6475 853f 18b9 813f 503c 8a3f
00000070: 3019 753f 190f 773f 9c9e 753f bed2 813f
00000080: d531 8b3f 04cb 833f d797 7b3f c9de 873f
00000090: 1b00 843f f85d 6f3f 0bc8 7c3f d54c 883f
000000a0: f867 763f 52cc 8c3f c969 7d3f 1380 7b3f
000000b0: 7800 663f ee2b 6b3f d50d 733f 61e8 803f
000000c0: f0e9 763f 2f80 813f 8e5d 883f b424 833f
000000d0: ed75 813f ff6d 5c3f a9e2 843f c2d6 703f
000000e0: 944b 653f 178e 803f 79d0 7b3f 555e 773f
000000f0: f64a 813f 5538 803f 88d7 7a3f 8494 813f
00000100: 68e0 673f 0f66 7c3f eca5 7a3f 2ccb 8c3f
00000110: ec53 7c3f 993e 843f af83 813f bf8c 853f
00000120: c05e 883f c77d 6d3f 3c7f 783f 0487 6b3f
00000130: fa33 773f 49bb 7c3f 24f0 7f3f 8b4f 7e3f
00000140: 84c0 5f3f ecc0 6b3f 1130 913f a364 893f
00000150: 49e7 803f 929c 7b3f 5c55 6e3f ebcf 7a3f
00000160: d089 7a3f ba77 823f 43e0 7c3f 3e4d 833f
00000170: 82f3 883f d6e3 703f d1a2 833f ebf0 743f
00000180: 1e90 843f aa6e 803f c416 833f 0c9c 7f3f
00000190: b974 823f e50e 7d3f 2794 823f de47 753f
000001a0: e464 703f 9faa 633f 533d 7a3f ff5a 813f
000001b0: a696 773f 843e 843f a7e0 793f d443 8a3f
000001c0: e86b 743f e445 743f 1446 7b3f 66ed 733f
000001d0: 3761 873f 2dee 7e3f 99d6 7e3f d21a 813f
000001e0: b250 823f 8187 743f e096 763f 791a 863f
000001f0: 1446 683f de3e 873f 43d5 733f 5176 873f

bn1.bias f4 [128]
0.13432726 -0.13123725 0.08063528 0.12583096 0.14045022 0.03557094 0.090265 0.10029912
-0.008532777 0.23668715 0.12539688 0.15225063 0.0125500355 0.0038649556 0.13098292 0.010485057
0.04645467 0.047546122 0.16240847 0.12939377 0.035023272 -0.0612519 0.32910562 -0.14903842
0.116928615 0.15273254 0.08645749 0.24699496 0.0145505695 0.09679635 0.030560141 0.04897544
0.19649976 0.03281596 0.05253258 -0.021241805 0.1550429 0.09542192 0.04878053 0.2505122
0.18440637 0.17433324 0.033284083 0.21026011 0.072134055 0.12005421 0.06615159 0.10908056
-0.036894716 0.20030399 0.033231568 -0.035555374 -0.025749164 -0.037793178 0.14145525 0.026221503
0.067995526 0.22883202 -0.1042662 0.15362631 0.1025672 0.14500095 -0.06274435 0.046104766
-0.026041092 -0.056553278 0.07588603 0.09634441 0.069917776 0.15501744 0.0687987 0.124723114
0.21136925 -0.075457744 0.02007377 0.120196275 0.037920017 0.006711109 0.08503065 0.05992849
0.1049427 -0.099351786 0.21857013 0.18791988 0.081223 -0.0680216 0.05972158 -0.006901041
0.16402602 0.047105044 0.25611028 0.041234344 0.058725424 -0.080241375 0.014455091 0.12162312
0.120986745 -0.05899685 0.05333428 0.09229305 0.18484196 0.1878384 0.030430382 0.081514545
0.051914595 -0.07582857 -0.0037547415 0.02240178 -0.015291158 0.06280773 -0.01684096 0.1662163
0.08017487 0.12890399 0.16422603 0.07993227 0.14318424 -0.04916382 0.07799647 0.15156972
0.14470917 0.08437837 -0.060663797 -0.11817512 -0.04300275 0.09312252 0.2062521 0.053003065
00000000: 168d 093e 0f63 06be 1c24 a53d d5d9 003e
00000010: 2fd2 0f3e d5b2 113d dbdc b83d a069 cd3d
00000020: 10cd 0bbc 1e5e 723e 0a68 003e 97e7 1b3e
00000030: aa9e 4d3c 324b 7d3b 6320 063e 84c9 2b3c
00000040: 4147 3e3d b9bf 423d 684e 263e cd7f 043e
00000050: 9074 0f3d 46e3 7abd 8880 a83e 879d 18be
00000060: 4578 ef3d eb65 1c3e a010 b13d 3fec 7c3e
00000070: 8365 6e3c 2a3d c63d 4359 fa3c 799a 483d
00000080: 3c37 493e 076a 063d 672c 573d 4b03 aebc
00000090: 91c3 1e3e 916c c33d 18ce 473d 2343 803e
000000a0: 06d5 3c3e 6a84 323e e454 083d 6d4e 573e
000000b0: 05bb 933d fbde f53d 7c7a 873d a165 df3d
000000c0: ea1e 17bd 7d1c 4d3e d31d 083d 83a2 11bd
000000d0: e9ef d2bc 05cd 1abd a5d9 103e 7ace d63c
000000e0: 3d41 8b3d f152 6a3e 8489 d5bd 3750 1d3e
000000f0: c10e d23d 217b 143e 1c80 80bd 5ad8 3c3d
00000100: 2154 d5bc 69a4 67bd 236a 9b3d 3850 c53d
00000110: 0d31 8f3d e4bc 1e3e 55e6 8c3d d56e ff3d
00000120: 2e71 583e 9789 9abd bf71 a43c 7729 f63d
00000130: 0552 1b3d dde8 db3b 8d24 ae3d 9477 753d
00000140: 33ec d63d f378 cbbd d9d0 5f3e 126e 403e
00000150: 3f58 a63d e94e 8bbd 9e9e 743d 2122 e2bb
00000160: 70f6 273e 38f1 403d e320 833e 58e5 283d
00000170: 128a 703d 9755 a4bd 0cd5 6c3c 8b15 f93d
00000180: e6c7 f73d aea6 71bd 0c75 5a3d 2304 bd3d
00000190: 3647 3d3e b658 403e 2349 f93c 19f1 a63d
000001a0: 66a4 543d 024c 9bbd 1c12 76bb f083 b73c
000001b0: c487 7abc 57a1 803d 0ef6 89bc 9b34 2a3e
000001c0: b932 a43d 68ff 033e de2a 283e 88b3 a33d
000001d0: e49e 123e 0060 49bd 9dbc 9f3d 1835 1b3e
000001e0: a42e 143e 91ce ac3d 9a7a 78bd cc05 f2bd
000001f0: a723 30bd 05b7 be3d c033 533e be19 593d

bn1.running_mean f4 [128]
0.04271918 0.10540223 0.12255291 0.031955767 0.03488493 0.05552414 0.04977993 0.02766667
0.05957526 0.06398447 0.093151495 0.0928532 0.04964947 0.094439216 0.08245472 0.043065336
0.031116666 0.059274714 0.10215232 0.037190527 0.03135598 0.032774296 0.05575934 0.080128156
0.06579377 0.0417512 0.08128442 0.032509208 0.054603737 0.04804196 0.029997695 0.00746563
0.040372103 0.051200617 0.019178744 0.03630644 0.0081450045 0.028881479 0.07551616 0.021670926
0.03589575 0.04589519 0.03751881 0.061648514 0.11494528 0.023290036 0.043200027 0.023892852
0.029122785 0.0710939 0.022540791 0.054665755 0.054773603 0.090468906 0.046153504 0.07458947
0.09500719 0.09070691 0.027296674 0.14204074 0.026530944 0.059530474 0.062592655 0.040550306
0.042602357 0.088250995 0.03734619 0.02507202 0.058232635 0.060965937 0.03176794 0.04846233
0.070170686 0.06098341 0.060922135 0.06571504 0.04597054 0.055718634 0.019136503 0.044709474
0.12024801 0.014066627 0.017878203 0.033332754 0.023432875 0.04496885 0.038108464 0.010209423
0.0794622 0.0912243 0.031445384 0.030041838 0.051373933 0.09138163 0.017791376 0.036771733
0.10097746 0.13520344 0.038964476 0.075402334 0.021672955 0.052817307 0.104896 0.016280055
0.106663935 0.090264775 0.030575296 0.089014485 0.124375165 0.043888684 0.0838033 0.023390105
0.05223861 0.05707447 0.06503 0.036947478 0.04396473 0.06304277 0.029684342 0.021690166
0.030124133 0.057618987 0.038765207 0.05069088 0.12033086 0.039293744 0.13048369 0.03964747
00000000: 4ffa 2e3d 20dd d73d 05fd fa3d 0de4 023d
00000010: 80e3 0e3d 486d 633d 0ae6 4b3d 36a5 e23c
00000020: 3005 743d 4a0a 833d 36c6 be3d d229 be3d
00000030: 3e5d 4b3d 5969 c13d 05de a83d 4765 303d
00000040: 61e8 fe3c 0bca 723d 3c35 d13d 1855 183d
00000050: 216f 003d 573e 063d e863 643d 3b1a a43d
00000060: e2be 863d 4e03 2b3d 7278 a63d 6028 053d
00000070: 2ba8 5f3d a5c7 443d babd f53c 3ea2 f43b
00000080: 385d 253d bdb7 513d be1c 9d3c 10b6 143d
00000090: a072 053c da98 ec3c 37a8 9a3d 3a87 b13c
000000a0: 6c07 133d 98fc 3b3d 53ad 193d 2783 7c3d
000000b0: 6e68 eb3d bfca be3c 83f2 303d f1ba c33c
000000c0: e892 ee3c ae99 913d 77a7 b83c 33e9 5f3d
000000d0: 495a 603d c347 b93d 750b 3d3d 5dc2 983d
000000e0: 2193 c23d 8bc4 b93d 469d df3c 2173 113e
000000f0: 6c57 d93c 3ad6 733d 9430 803d 1418 263d
00000100: cf7f 2e3d f0bc b43d 52f8 183d d663 cd3c
00000110: 5885 6e3d 6bb7 793d 191f 023d 7080 463d
00000120: a6b5 8f3d bdc9 793d 7d89 793d 9b95 863d
00000130: 9b4b 3c3d 3939 643d 28c4 9c3c 4821 373d
00000140: 9744 f63d b677 663c 4f75 923c ed87 083d
00000150: 4df6 bf3c 4231 383d 9f17 1c3d 6c45 273c
00000160: 14bd a23d ced3 ba3d e0cc 003d 4d1a f63c
00000170: 796d 523d 4b26 bb3d 38bf 913c f59d 163d
00000180: 45cd ce3d c572 0a3e 3799 1f3d 8a6c 9a3d
00000190: 7b8b b13c f656 583d b7d3 d63d c05d 853c
000001a0: 9f72 da3d bddc b83d 0b79 fa3c 3a4d b63d
000001b0: 68b8 fe3d 9fc4 333d 11a1 ab3d 9b9c bf3c
000001c0: 27f8 553d ebc6 693d 732e 853d 3d56 173d
000001d0: 5c14 343d 911c 813d 942c f33c 93af b13c
000001e0: e3c6 f63c e301 6c3d 44c8 1e3d 3da1 4f3d
000001f0: 0770 f63d 7af2 203d 849d 053e 6365 223d

bn1.running_var f4 [128]
0.008770734 0.032176975 0.034871258 0.0056102127 0.007199092 0.009024201 0.00941745 0.0035644218
0.012740802 0.014340771 0.024028787 0.0178826 0.010138986 0.019229278 0.01637229 0.008261249
0.005752593 0.016541585 0.025333848 0.0071467306 0.0059633753 0.0058406997 0.012339585 0.016554782
0.010391483 0.007457529 0.019660812 0.005954193 0.011821985 0.00877172 0.0053491397 0.00089303876
0.008729686 0.010959151 0.003585464 0.00631364 0.0011646749 0.0060352613 0.015527312 0.003872051
0.0052188807 0.009051386 0.0075350553 0.013449369 0.02646434 0.0042559244 0.008119091 0.0042923964
0.006654457 0.01680876 0.0038198875 0.008498073 0.0110989595 0.021339785 0.009337045 0.013994777
0.033385072 0.022227893 0.0045486004 0.03467132 0.004676136 0.013934955 0.0135824615 0.008377477
0.007546028 0.01629448 0.0073584695 0.003841775 0.010739196 0.009366005 0.0056608957 0.009029333
0.0141865425 0.012920717 0.012463014 0.013820282 0.007991451 0.010212076 0.0027469674 0.010135695
0.026147662 0.0018553191 0.003330356 0.007983602 0.0046324176 0.0076028355 0.0076448424 0.0013343816
0.015759587 0.014866996 0.0066343904 0.0060053593 0.009615384 0.020286301 0.00303379 0.007888638
0.023250826 0.024734661 0.006087569 0.015193928 0.0041525797 0.010467392 0.016715337 0.0028238494
0.024030952 0.023242341 0.005855235 0.016704964 0.03807727 0.010070681 0.015576403 0.0035730945
0.009562139 0.012414776 0.010823164 0.00820587 0.007827672 0.013278493 0.006188514 0.004363948
0.004859858 0.009716684 0.007953422 0.00885338 0.016874216 0.009333306 0.03184434 0.006289065
00000000: 20b3 0f3c 01cc 033d 2ad5 0e3d e0d5 b73b
00000010: 5ce6 eb3b 3eda 133c a64b 1a3c 1399 693b
00000020: ccbe 503c 8ef5 6a3c 05d8 c43c 887e 923c
00000030: fd1d 263c b886 9d3c 2e1f 863c 315a 073c
00000040: 3f80 bc3b 3882 873c ee88 cf3c 1f2f ea3b
00000050: 6b68 c33b 5763 bf3b f92b 4a3c e59d 873c
00000060: 0a41 2a3c 4a5e f43b b60f a13c 641b c33b
00000070: 00b1 413c 43b7 0f3c d647 af3b d11a 6a3a
00000080: f506 0f3c 038e 333c 1bfa 6a3b a7e2 ce3b
00000090: 01a8 983a 71c3 c53b 4466 7e3c 3cc2 7d3b
000000a0: 2503 ab3b 444c 143c a0e8 f63b be5a 5c3c
000000b0: becb d83c 4875 8b3b f005 053c 3ba7 8c3b
000000c0: a20d da3b 86b2 893c 1457 7a3b 803b 0b3c
000000d0: 69d8 353c c6d0 ae3c 68fa 183c 594a 653c
000000e0: c9be 083d 4517 b63c 6d0c 953b 8403 0e3d
000000f0: 463a 993b 704f 643c f988 5e3c af41 093c
00000100: ac44 f73b 007c 853c 511f f13b 4ac6 7b3b
00000110: 74f3 2f3c df73 193c 097f b93b c4ef 133c
00000120: ac6e 683c 6ab1 533c ab31 4c3c 776e 623c
00000130: 93ee 023c 8d50 273c 7706 343b 3010 263c
00000140: 9f33 d63c 2e2e f33a 1a42 5a3b a7cd 023c
00000150: 89cb 973b 3521 f93b 9681 fa3b 6be6 ae3a
00000160: 401a 813c b394 733c 4d65 d93b 9bc8 c43b
00000170: d889 1d3c 752f a63c 8dd2 463b 593f 013c
00000180: 8478 be3c 58a0 ca3c 3b7a c73b f4ef 783c
00000190: 5d12 883b 6d7f 2b3c 9aee 883c 5510 393b
000001a0: 8fdc c43c b966 be3c 45dd bf3b d9d8 883c
000001b0: e9f6 1b3d 7fff 243c 2b34 7f3c 942a 6a3b
000001c0: 85aa 1c3c 5867 4b3c a453 313c ea71 063c
000001d0: a33f 003c 098e 593c 05c9 ca3b 73ff 8e3b
000001e0: 723f 9f3b ba32 1f3c 124f 023c c40d 113c
000001f0: cc3b 8a3c b9ea 183c 366f 023d 8014 ce3b

fc2.weight f4 [64, 128]
0.05872845 0.02445123 0.028919777 -0.055931866 -0.15714118 0.008632912 -0.096332505 -0.044797875
-0.071031734 -0.013711583 0.06461672 0.022352481 -0.1256106 -0.0095340945 0.085900776 0.001564486
-0.11009961 -0.0809637 0.06180332 0.041668776 -0.02422468 -0.1122516 -0.1698023 -0.01657153
0.02034774 0.020092327 0.058477048 -0.13678546 0.05067023 -0.042680856 0.06990286 -0.018302653
-0.026526188 0.045054346 -0.02939433 -0.0142847095 0.020351036 -0.020815967 -0.180222 -0.0072948565
-0.043814473 -0.16970056 0.020202793 0.031089813 0.03776069 -0.0139805665 -0.0071148938 -0.057086933
-0.015495201 -0.05608717 0.050605983 -0.012559458 0.060058095 -0.040762335 0.02458516 0.043238163
-0.044518746 -0.14665449 -0.053951416 0.050880823 0.029724423 0.09108117 -0.053180613 -0.16768831
0.0010322214 0.017934248 -0.0040743235 0.04729473 0.011513283 0.006792957 0.02412384 0.09708585
0.035074268 -0.015979381 -0.028681178 -0.0044657793 -0.04270403 -0.07900251 -0.00022447406 -0.03967602
-0.05087231 0.0040471954 0.018749243 0.10888675 0.0052787075 -0.13887207 -0.08013999 -0.18362401
0.05206159 0.054703724 0.0016044237 -0.032486394 -0.024796365 -0.14776164 0.062334448 -0.12120122
-0.031461366 -0.036839332 0.07281954 -0.2762093 0.0030887262 0.14790003 0.10555856 -0.033801995
-0.15679304 0.06476582 0.024742603 -0.0039978316 -0.07604448 -0.07959876 0.018920705 0.13834864
0.024997342 -0.07150158 -0.008874107 -0.14929652 0.007450154 0.09040277 0.02709637 -0.0056714974
-0.033306837 0.06857747 -0.09684053 0.02279691 -0.059813697 -0.1707802 -0.037266288 0.13437568
0.13511635 0.10973224 0.022691762 -0.017071428 -0.106016316 -0.0010233081 -0.083386734 0.032306314
0.03751227 0.041206393 -0.06395481 -0.031955134 -0.09701997 0.03279749 0.12222983 0.05437499
0.03539793 -0.037390936 0.061708078 0.07767971 0.0056003435 0.040396765 -0.10234373 0.08640974
-0.038065035 0.09417352 0.038947277 -0.04356985 -0.0027358213 0.04938527 0.045146827 -0.07979722
0.07772466 0.14770734 -0.039105654 0.06702913 0.0037518893 -0.02185221 -0.15358658 0.049813323
0.035266306 -0.057610404 -0.15506496 -0.1654174 -0.06818392 0.015396918 -0.09642638 -0.04144831
-0.008750107 -0.123470776 0.08451054 0.12350154 -0.056958225 0.12063613 -0.08718258 -0.018386973
0.009763945 -0.10230953 0.0033617702 -0.001647804 0.066968486 -0.09535511 0.08598866 -0.1666576
-0.13729574 0.081187285 -0.03299419 0.043895442 -0.056057423 0.12222595 0.008776149 0.026817143
-0.0968308 0.099338554 0.13994586 0.023238836 0.14604212 0.12124506 0.021641904 -0.063181296
0.0029600505 -0.024039047 -0.04171434 0.012916958 0.07125509 0.01492195 0.052578382 0.061339945
-0.017971843 -0.029975392 0.004934845 0.026432274 0.019912727 0.12489417 0.07541317 -0.15767576
0.016403472 0.03198244 -0.014468873 0.011943273 0.0130408835 -0.06526501 0.06272911 0.10831367
0.09786433 -0.03465825 -0.069261365 0.08080832 0.09146715 -0.036484096 -0.15992188 0.08963536
0.04476373 -0.00974471 -0.045599863 -0.09471634 -0.035573673 -0.066955574 -0.09163066 -0.009647807
-0.012737438 0.045239553 0.004161263 0.012597498 0.015169283 0.006836806 -0.017245231 -0.057745747
00000000: 3e8d 703d f24d c83c 2be9 ec3c d018 65bd
00000010: 9ee9 20be 0f71 0d3c fa49 c5bd fa7d 37bd
00000020: 1679 91bd 8ca6 60bc c555 843d 8d1c b73c
00000030: 11a0 00be e434 1cbc bfec af3d 700f cd3a
00000040: e87b e1bd 4cd0 a5bd 7a25 7d3d e1ac 2a3d
00000050: d672 c6bc 2be4 e5bd a7e0 2dbe 04c1 87bc
00000060: 4eb0 a63c aa98 a43c a185 6f3d 7d11 0cbe
00000070: 968b 4f3d 1fd2 2ebd 3b29 8f3d 72ef 95bc
00000080: 734d d9bc e88a 383d 61cc f0bc 6a0a 6abc
00000090: 37b7 a63c 3f86 aabc 1e8c 38be b109 efbb
000000a0: ce76 33bd fcc5 2dbe 5480 a53c 10b0 fe3c
000000b0: f4aa 1a3d bf0e 65bc 0e24 e9bb fdd3 69bd
000000c0: 95df 7dbc a9bb 65bd 3848 4f3d 2fc6 4dbc
000000d0: 7aff 753d 68f6 26bd d166 c93c 801a 313d
000000e0: 4a59 36bd 982c 16be 29fc 5cbd 6968 503d
000000f0: a280 f33c c488 ba3d ead3 59bd 7cb6 2bbe
00000100: 9a4b 873a d8ea 923c e781 85bb 1eb8 413d
00000110: 35a2 3c3c 7497 de3b 5c9f c53c f2d4 c63d
00000120: 09aa 0f3d 31e7 82bc caf4 eabc ac55 92bb
00000130: 6cea 2ebd 11cc a1bd cc60 6bb9 5383 22bd
00000140: 7c5f 50bd 569e 843b 0398 993c 0400 df3d
00000150: 02f9 ac3b 7b34 0ebe 6f20 a4bd ef07 3cbe
00000160: 893e 553d 0311 603d 874b d23a 7410 05bd
00000170: bf21 cbbc d44e 17be 6852 7f3d 5838 f8bd
00000180: a2dd 00bd d7e4 16bd 6922 953d 4e6b 8dbe
00000190: 3a6c 4a3b 1b73 173e 162f d83d f673 0abd
000001a0: 5b8e 20be f1a3 843d 00b1 ca3c 3e00 83bb
000001b0: 35bd 9bbd ad04 a3bd 98ff 9a3c 44ab 0d3e
000001c0: 3ac7 cc3c 6c6f 92bd b464 11bc 30e1 18be
000001d0: 6c20 f43b 1625 b93d 35f9 dd3c f8d7 b9bb
000001e0: c06c 08bd 5872 8c3d 5454 c6bd 96c0 ba3c
000001f0: 35ff 74bd 01e1 2ebe 89a4 18bd c799 093e
00000200: f15b 0a3e 4cbb e03d 13e4 b93c 61d9 8bbc
00000210: 151f d9bd 8620 86ba aac6 aabd a053 043d
00000220: 77a6 193d 09c8 283d bdfa 82bd 63e3 02bd
00000230: 68b2 c6bd a956 063d a253 fa3d 4fb8 5e3d
00000240: 6bfd 103d 3d27 19bd 9cc1 7c3d 8a16 9f3d
00000250: 1683 b73b 1477 253d 9799 d1bd 97f7 b03d
00000260: 15ea 1bbd 0cde c03d 2e87 1f3d 4d76 32bd
00000270: 774b 33bb 3548 4a3d e1eb 383d ba6c a3bd
00000280: 1b2e 9f3d 9840 173e 402d 20bd 9246 893d
00000290: 42e2 753b 6803 b3bc cd45 1dbe 0e09 4c3d
000002a0: 6773 103d e3f8 6bbd 59c9 1ebe 2e63 29be
000002b0: 03a4 8bbd 5b43 7c3c 327b c5bd b4c5 29bd
000002c0: 9c5c 0fbc 3fde fcbd dd13 ad3d 60ee fc3d
000002d0: 074d 69bd 1310 f73d c88c b2bd 47a0 96bc
000002e0: f4f8 1f3c a987 d1bd 2551 5c3b 21fb d7ba
000002f0: c626 893d 8a49 c3bd d31a b03d 4aa8 2abe
00000300: 4197 0cbe 8545 a63d ea24 07bd b5cb 333d
00000310: 789c 65bd 9951 fa3d d6c9 0f3c a0af db3c
00000320: 3a4f c6bd 0372 cb3d f84d 0f3e 5f5f be3c
00000330: 118c 153e 544f f83d 5d4a b13c 3265 81bd
00000340: 68fd 413b 89ed c4bc a8dc 2abd a6a1 533c
00000350: 30ee 913d 327b 743c 6e5c 573d 983f 7b3d
00000360: b039 93bc f48e f5bc 7bb4 a13b 7f88 d83c
00000370: 0420 a33c 84c8 ff3d 3872 9a3d c175 21be
00000380: 9360 863c 0500 033d da0e 6dbc b8ad 433c
00000390: 6ea9 553c a9a9 85bd 1f78 803d 8fd3 dd3d
000003a0: 186d c83d cff5 0dbd e7d8 8dbd d57e a53d
000003b0: 2153 bb3d 5970 15bd 90c2 23be be92 b73d
000003c0: 2c5a 373d 47a8 1fbc ecc6 3abd a4fa c1bd
000003d0: b3b5 11bd 0120 89bd dba8 bbbd d611 1ebc
000003e0: b0b0 50bc 1c4d 393d 345b 883b bc65 4e3c
000003f0: 9688 783c 4907 e03b df45 8dbc ce86 6cbd

fc2.bias f4 [64]
-0.15788855 -0.29313448 0.0175855 -0.119579986 -0.14656365 -0.14362726 -0.068162456 0.05832043
-0.10957142 -0.09328978 -0.16371928 -0.09391783 -0.24371104 -0.15686905 -0.19609095 -0.19350469
-0.2763682 -0.2868835 -0.08645497 -0.011371116 -0.128667 -0.25994694 -0.19765821 -0.14808874
-0.09620252 -0.1470777 -0.13538566 -0.21859924 -0.20181613 -0.06466837 -0.10920294 -0.19129527
-0.15350741 -0.123525925 0.0831393 -0.28601676 -0.00245316 -0.10784317 -0.061114743 -0.24653761
-0.08218465 -0.30345127 -0.13446367 -0.050418243 -0.15922892 -0.14114164 -0.08019514 -0.05815767
-0.033895712 -0.21616752 -0.1354537 -0.28552055 -0.18783268 -0.11655394 -0.2194363 -0.048737127
-0.098849736 -0.12813072 -0.31597212 0.00094276 -0.19960469 -0.24572362 -0.32205805 -0.32081348
00000000: 89ad 21be b915 96be 770f 903c 5ae6 f4bd
00000010: c814 16be 0613 13be c298 8bbd 67e1 6e3d
00000020: fb66 e0bd b60e bfbd 07a6 27be fe57 c0bd
00000030: 638f 79be 48a2 20be 11cc 48be 1826 46be
00000040: 2280 8dbe 65e2 92be 4e0f b1bd eb4d 3abc
00000050: 48c1 03be c417 85be ea66 4abe 93a4 17be
00000060: d405 c5bd 899b 16be 8aa2 0abe 7bd8 5fbe
00000070: e3a8 4ebe da70 84bd caa5 dfbd e8e2 43be
00000080: 0c31 1dbe 29fb fcbd f044 aa3d ca70 92be
00000090: 32c5 20bb e1dc dcbd 7453 7abd 5b74 7cbe
000000a0: 6d50 a8bd f75d 9bbe d8b0 09be 5c83 4ebd
000000b0: e80c 23be 6f87 10be 593d a4bd bd36 6ebd
000000c0: 3bd6 0abd 055b 5dbe 60b4 0abe c02f 92be
000000d0: 3657 40be d5b3 eebd e9b3 60be 95a0 47bd
000000e0: bb71 cabd b334 03be 19c7 a1be 8d23 773a
000000f0: 2c65 4cbe f99e 7bbe cbe4 a4be aa41 a4be

bn2.weight f4 [64]
1.1174752 1.1870401 1.215448 1.2417098 1.2159415 1.1566943 1.1442971 1.18138
1.2255486 1.2022376 1.1493717 1.1940855 1.3117981 1.2337146 1.1564709 1.142759
1.1866279 1.1614448 1.1216924 1.2188972 1.2019265 1.1578594 1.0756892 1.217952
1.2257692 1.260571 1.1923127 1.1056459 1.1246184 1.1910088 1.1850173 1.1975293
1.1427834 1.1508086 1.2124786 1.1543919 1.2641144 1.2856288 1.2118801 1.1936911
1.2457178 1.2006809 1.2129594 1.2073848 1.1652162 1.2296625 1.2600706 1.1885672
1.1460711 1.1566234 1.1818312 1.079734 1.1588187 1.1765623 1.1788583 1.1923004
1.1707513 1.0932827 1.1091937 1.1857933 1.2323815 1.0906069 1.2532446 1.136771
00000000: 6d09 8f3f eef0 973f cd93 9b3f 59f0 9e3f
00000010: f9a3 9b3f 8f0e 943f 5478 923f 7637 973f
00000020: c7de 9c3f ece2 993f 9d1e 933f cbd7 983f
00000030: 00e9 a73f 5cea 9d3f 3d07 943f ed45 923f
00000040: 6ce3 973f 39aa 943f 9e93 8f3f d304 9c3f
00000050: bad8 993f bd34 943f 2fb0 893f dae5 9b3f
00000060: 01e6 9c3f 645a a13f b49d 983f ce85 8d3f
00000070: 7ff3 8f3f fa72 983f a6ae 973f a448 993f
00000080: ba46 923f b24d 933f 8032 9b3f 1dc3 933f
00000090: 80ce a13f 7c8f a43f e31e 9b3f dfca 983f
000000a0: ae73 9f3f e9af 993f 4142 9b3f 968b 9a3f
000000b0: ce25 953f 9565 9d3f fe49 a13f f822 983f
000000c0: 75b2 923f 3c0c 943f 3f46 973f b934 8a3f
000000d0: 2c54 943f 9899 963f d4e4 963f 4d9d 983f
000000e0: 2edb 953f b0f0 8b3f 0ffa 8d3f 13c8 973f
000000f0: adbe 9d3f 0299 8b3f 526a a03f b681 913f

bn2.bias f4 [64]
0.019949295 0.012430037 -0.021668095 -0.005897665 0.04942371 0.051056955 0.01037888 0.03619342
0.021296214 0.010193651 0.0343446 -0.0037270156 -0.0019677503 0.03426837 -0.0067501403 -0.045944724
-0.009038101 -0.05886209 0.004997684 0.019721318 0.10103939 -0.030972656 0.07443729 -0.055928636
0.027010687 -0.0265386 0.02931704 -0.029275436 0.035351064 0.12769401 0.013614489 -0.006465187
-0.046566997 0.11200517 0.02690297 -0.06764655 0.03466154 0.042892884 0.01918272 -0.012392449
0.06798606 0.02318397 0.012281017 0.05023338 0.042507432 0.11118309 0.033070944 0.079668865
-0.0028959347 0.04616293 0.08435431 0.013991069 0.05319167 -0.019743497 -0.035420272 0.10662247
-0.0186831 -0.11633912 0.097515695 0.03992599 0.07642379 -0.029940601 0.007870846 -0.037912738
00000000: b46c a33c 5ba7 4b3c 4a81 b1bc 3341 c1bb
00000010: 8470 4a3d 1921 513d 2e0c 2a3c 8d3f 143d
00000020: 6675 ae3c 4503 273c ecac 0c3d f240 74bb
00000030: 5ff5 00bb fe5c 0c3d 4830 ddbb 8930 3cbd
00000040: 8b14 14bc 6019 71bd 9dc3 a33b 9a8e a13c
00000050: bded ce3d 5eba fdbc 9472 983d 6d15 65bd
00000060: 8445 dd3c 7a67 d9bc 4a2a f03c 0ad3 efbc
00000070: 47cc 103d 38c2 023e 4e0f 5f3c ebd9 d3bb
00000080: 09bd 3ebd f762 e53d 9e63 dc3c 468a 8abd
00000090: 42f9 0d3d 73b0 2f3d 1425 9d3c b309 4bbc
000000a0: 473c 8b3d 4fec bd3c 5236 493c 84c1 4d3d
000000b0: 461c 2e3d f6b3 e33d 6675 073d 6e29 a33d
000000c0: b9c9 3dbb 5715 3d3d f4c1 ac3d cc3a 653c
000000d0: 82df 593d 1dbd a1bc d914 11bd e25c da3d
000000e0: 4d0d 99bc 3443 eebd 4fb6 c73d 6f89 233d
000000f0: 1384 9c3d fe45 f5bc b9f4 003c 634a 1bbd

bn2.running_mean f4 [64]
0.4395903 0.35242656 0.42981067 0.52572864 0.3638892 0.48740798 0.3227593 0.4002244
0.3467425 0.49703887 0.46916172 0.5151182 0.33762884 0.3408121 0.25703916 0.21336012
0.22222 0.22809182 0.33175045 0.43800607 0.43732473 0.32484418 0.4247116 0.48301208
0.4015178 0.36299872 0.4350447 0.2735228 0.3687812 0.5624111 0.3695737 0.34246215
0.4106104 0.3518408 0.48351294 0.2686793 0.41347867 0.31809887 0.40947816 0.35076487
0.442537 0.26319954 0.46853238 0.31677955 0.38259313 0.48958567 0.36139318 0.4466548
0.33525652 0.45234033 0.55511546 0.31263596 0.4964584 0.27705112 0.22945912 0.4477926
0.37193155 0.20624955 0.3502258 0.43340868 0.39784282 0.24836001 0.26147196 0.29484552
00000000: fb11 e13e 4171 b43e 2510 dc3e 2796 063f
00000010: af4f ba3e 8a8d f93e b540 a53e 36ea cc3e
00000020: 3c88 b13e e17b fe3e f735 f03e c9de 033f
00000030: b0dd ac3e ec7e ae3e a39a 833e 137b 5a3e
00000040: a48d 633e e790 693e 32db a93e 5542 e03e
00000050: 07e9 df3e fa51 a63e cd73 d93e 5c4d f73e
00000060: be93 cd3e f8da b93e 2ebe de3e 2e0b 8c3e
00000070: e4d0 bc3e 2dfa 0f3f c438 bd3e 3357 af3e
00000080: 873b d23e 7a24 b43e 028f f73e 5590 893e
00000090: 7ab3 d33e dbdd a23e 1fa7 d13e 7497 b33e
000000a0: 3694 e23e 17c2 863e 7ae3 ef3e ee30 a23e
000000b0: 3fe3 c33e f9aa fa3e 8708 b93e f0af e43e
000000c0: bea6 ab3e 2799 e73e 0c1c 0e3f d211 a03e
000000d0: cc2f fe3e a5d9 8d3e 55f7 6a3e 1245 e53e
000000e0: d06d be3e 1533 533e cc50 b33e bee7 dd3e
000000f0: 0eb2 cb3e 1652 7e3e a7df 853e fef5 963e

bn2.running_var f4 [64]
0.4491931 0.4734563 0.37033254 0.6755047 0.36487857 0.64289767 0.30140305 0.39433664
0.3175575 0.536182 0.62127346 0.5785829 0.4440432 0.36133724 0.2550143 0.18063489
0.21838856 0.23448204 0.3014504 0.42909715 0.44123828 0.35046458 0.42739686 0.57497317
0.4578924 0.39839855 0.47223288 0.27021295 0.46885687 0.7162133 0.40186867 0.39626282
0.4744378 0.33140072 0.57522523 0.27576396 0.4916964 0.30801794 0.423375 0.37972167
0.48503032 0.28634435 0.49925435 0.28022754 0.53406674 0.5071834 0.39951122 0.49507254
0.32774338 0.5595751 0.7633912 0.31143242 0.653118 0.24353205 0.22464895 0.492073
0.36327887 0.19948924 0.41491762 0.46535617 0.49647057 0.21741548 0.25490853 0.34375542
00000000: a3fc e53e dd68 f23e 3a9c bd3e e0ed 2c3f
00000010: 5dd1 ba3e f194 243f 8051 9a3e 7ee6 c93e
00000020: e696 a23e 3943 093f c70b 1f3f 021e 143f
00000030: a159 e33e 3201 b93e 3c91 823e 5af8 383e
00000040: 40a1 5f3e 0f1c 703e b557 9a3e 9fb2 db3e
00000050: fce9 e13e 1870 b33e c3d3 da3e 7131 133f
00000060: df70 ea3e e5fa cb3e 82c8 f13e 5a59 8a3e
00000070: 020e f03e c159 373f bbc1 cd3e f6e2 ca3e
00000080: 83e9 f23e 5bad a93e f641 133f ef30 8d3e
00000090: a1bf fb3e 87b4 9d3e 9cc4 d83e e16a c23e
000000a0: e555 f83e ba9b 923e 449e ff3e fc79 8f3e
000000b0: 99b8 083f c5d6 013f bc8c cc3e 267a fd3e
000000c0: fbcd a73e 5040 0f3f 9b6d 433f 1274 9f3e
000000d0: be32 273f 7760 793e 600a 663e fef0 fb3e
000000e0: b0ff b93e e846 4c3e 1570 d43e 2a43 ee3e
000000f0: 6431 fe3e 2aa2 5e3e 5f83 823e b600 b03e

fc3.weight f4 [3, 64]
-0.16292948 -0.12990108 0.1859087 0.11445206 0.007932007 0.020322088 0.08518242 0.05593379
0.09774508 -0.21524538 -0.13857774 0.058307532 0.12553564 0.120142736 0.13237749 0.21541955
0.1684689 0.2121593 -0.1557762 0.08316755 -0.23279244 0.13958655 -0.15231249 0.22905613
0.16789083 0.06924928 -0.1298359 0.13187756 -0.12408367 -0.28952622 0.021606013 0.15161245
0.21619552 -0.08962785 -0.056143846 0.2035793 0.1417993 0.12665161 0.08270013 0.00046087021
0.15017566 0.11720317 0.02643511 0.24331312 -0.14264765 -0.31350794 0.043064028 -0.18115646
0.058197327 -0.20504339 -0.20952629 -0.17499515 -0.17602064 0.15005237 0.10540046 -0.20461364
0.005742847 0.20534016 -0.25890628 0.17678805 -0.091749534 0.15703604 0.051528677 0.17838506
0.21459565 0.18131742 0.0618115 0.052460205 -0.3063755 -0.23213291 -0.19982408 -0.29639193
0.15389019 0.16704161 -0.060142506 -0.14674856 -0.2535481 0.18194054 -0.19668213 0.03315948
-0.28585264 -0.10686239 -0.1412759 -0.30054626 0.1489526 -0.062481083 0.1303734 0.1006327
0.19514799 -0.30541855 -0.21546532 -0.010425869 -0.13106333 0.10328434 -0.28528437 0.019889506
-0.050334387 0.14683524 -0.29773265 -0.20720582 0.0994379 -0.21111841 0.15292521 0.21091993
-0.18756224 -0.012662949 0.29721415 -0.24590425 0.11666913 0.16066794 -0.2240048 0.01864913
-0.19347785 0.21939906 0.07004195 -0.10954077 0.23338905 -0.25865746 -0.053336814 -0.017546602
-0.19997598 -0.08400832 0.12848663 -0.29536155 0.23536555 -0.16507962 -0.16489634 -0.06722375
-0.096502714 -0.22445638 -0.25303543 -0.31078374 0.10993509 0.21812437 0.15937683 0.12387216
-0.29293865 -0.15550043 0.21154796 0.23857574 0.14034645 -0.19564308 0.106623486 -0.15328158
-0.019612793 -0.22235432 0.23794578 0.16042711 0.19381414 -0.1745614 0.08467669 -0.16783209
-0.16271013 -0.003447068 0.184473 -0.15334924 0.21236052 0.083502874 0.106358804 -0.23828134
-0.24892128 0.203554 0.010277871 -0.04086755 -0.25096083 0.16508283 -0.22670123 -0.16807275
0.21411508 -0.30838478 -0.0795871 0.104935504 -0.10288016 0.10318742 0.15006226 0.25413817
0.11102382 -6.3847176e-05 0.13866273 0.14364621 -0.11069771 0.0972876 -0.2731394 0.16252962
0.1902117 -0.07182328 -0.009177126 0.056229524 0.18662713 -0.14927912 0.273647 -0.123305395
00000000: fcd6 26be ca04 05be da5e 3e3e d765 ea3d
00000010: 40f5 013c 827a a63c 1f74 ae3d d41a 653d
00000020: 932e c83d 4969 5cbe 53e7 0dbe e1d3 6e3d
00000030: 6a8c 003e 650d f63d f78d 073e f196 5c3e
00000040: 1c83 2c3e 4a40 593e cc83 1fbe c053 aa3d
00000050: 2461 6ebe c7ef 0e3e cef7 1bbe b18d 6a3e
00000060: 93eb 2b3e 91d2 8d3d b4f3 04be e90a 073e
00000070: 941f febd c83c 94be 18ff b03c 4b40 1b3e
00000080: 5c62 5d3e ce8e b7bd 17f7 65bd 1877 503e
00000090: d633 113e f6b0 013e b05e a93d f4a0 f139
000000a0: a6c7 193e 3708 f03d 728e d83c 1327 793e
000000b0: 3a12 12be 1d84 a0be e863 303d 1481 39be
000000c0: 5260 6e3d e5f6 51be 0f8e 56be ee31 33be
000000d0: c13e 34be 54a7 193e 32dc d73d 3d86 51be
000000e0: 7e2e bc3b b144 523e 5d8f 84be ed07 353e
000000f0: 2ee7 bbbd 0ece 203e bc0f 533d 93aa 363e
00000100: f6be 5b3e 46ab 393e 0e2e 7d3d 83e0 563d
00000110: 40dd 9cbe 40b4 6dbe af9e 4cbe afc0 97be
00000120: 6495 1d3e f50c 2b3e fd57 76bd 4145 16be
00000130: 0ed1 81be 9f4e 3a3e 0a67 49be 3cd2 073d
00000140: 475b 92be abda dabd a1aa 10be 33e1 99be
00000150: 0887 183e 2aec 7fbd 9b80 053e 8418 ce3d
00000160: e0d4 473e d25f 9cbe f1a2 5cbe 44d1 2abc
00000170: 7735 06be bd86 d33d cb10 92be 51ef a23c
00000180: 6e2b 4ebd fa5b 163e 6a70 98be c32d 54be
00000190: 19a6 cb3d 6d2f 58be 6d98 1c3e 65fb 573e
000001a0: 5110 40be 4278 4fbc 742c 983e 53ce 7bbe
000001b0: 3af0 ee3d 2386 243e 8461 65be 0fc6 983c
000001c0: 0f1f 46be 26aa 603e 2772 8f3d e956 e0bd
000001d0: 8afd 6e3e c06e 84be b477 5abd e4bd 8fbc
000001e0: 81c6 4cbe 8e0c acbd 0092 033e a139 97be
000001f0: ab03 713e a20a 29be 96da 28be 9bac 89bd
00000200: 37a3 c5bd e5d7 65be dc8d 81be 0c1f 9fbe
00000210: a625 e13d ff5b 5f3e ae33 233e b0b0 fd3d
00000220: 0efc 95be 813b 1fbe 07a0 583e 334d 743e
00000230: fbb6 0f3e a956 48be 6a5d da3d d9f5 1cbe
00000240: 02ab a0bc dab0 63be 0fa8 733e 0147 243e
00000250: 3777 463e 39c0 32be f96a ad3d 2ddc 2bbe
00000260: 7c9d 26be 34e8 61bb 7de6 3c3e 9507 1dbe
00000270: 0975 593e 8e03 ab3d a5d2 d93d 0600 74be
00000280: 38e5 7ebe 7670 503e 8464 283c bb64 27bd
00000290: f07d 80be 790b 293e 5e24 68be 431b 2cbe
000002a0: fc40 5b3e 9ce4 9dbe 90fe a2bd 6de8 d63d
000002b0: d5b2 d2bd ed53 d33d eca9 193e 661e 823e
000002c0: 7560 e33d b1e5 85b8 9afd 0d3e fe17 133e
000002d0: 7bb5 e2bd b93e c73d edd8 8bbe 2a6e 263e
000002e0: dbc6 423e 1518 93bd a85b 16bc ee50 663d
000002f0: 2f1b 3f3e a0dc 18be 761b 8c3e 8a87 fcbd

fc3.bias f4 [3]
-0.0012900945 0.11764154 0.104874246
00000000: 6318 a9ba 0cee f03d 4fc8 d63d
