model/saved_model/premier_league_predictor.pth (torch, 90644 bytes, 24 tensors)

fc1.weight f4 [128, 25]
00000000: 221b 44bd 3ceb 243e 603c 483e c39c b93d
00000010: cad0 dcbd 5337 293d ca05 7c3d a7e0 87bd
00000020: 1842 bd3d a57e 233e 013b 5bbe 28fd 903c
00000030: e1cb 23be 8e00 3bbe 81b6 1dbe e6b5 acbd
00000040: 8b1f 003d 27b5 1ebe faf4 4cbe bbb5 0ebe
00000050: 2501 7e3d d3da 913d f6d2 1a3e bdef 043e
00000060: 029f e0bd 0975 3ebe 1c48 0f3e 603b 1b3e
00000070: 1f68 43be 56cc 22be 0291 503e 6bf3 4fbe
00000080: 58ba 7e3d cff6 853d 8a4f a23d c891 19be
00000090: 8217 053e 9892 303e 5590 053e 70d0 22bd
000000a0: eca9 b73d d9cc 263e f980 dfbd b1e5 993d
000000b0: c6c1 093c 6cf3 a53d 28c2 c7bc 14f8 08be
000000c0: 0378 85bc aa59 3e3d 25c3 89bd 59ec 1abe
000000d0: 32d4 253e 46db 043e b0fd 2ebe 15c9 38be
000000e0: 17ec 21be 6a47 e93b 46f2 093e 2f02 62be
000000f0: c7d0 80bc e4cc a3bd 347d f93d 7c32 b3bc
00000100: bde4 413e 447f c7bc 4ad7 80bc be85 1f3e
00000110: 6b1f 1b3e 57af 333e 4b9e 19be 4610 24be
00000120: 0f84 20be 6129 603d f8f5 213e 5b7c 5c3c
00000130: e4e9 0ebe 9c6d 4a3e 92fc 2cbe 27df 0e3e
00000140: 7eff 1dbe a2af a2bc 377f 943d 7efc c53d
00000150: 44b0 733c 2d2b fa3d 6540 003e 5183 2e3e
00000160: d51c b03c 3529 47bd fe27 17bd d569 81bd
00000170: 82ca 793c 194d 33be e96d 403c 4f73 d03c
00000180: 6969 d7bd 5da6 ce3d e4f2 0b3e 795b 3ebe
00000190: ddf4 ffbd ff3c 063c 08e5 703d 991a c13d
000001a0: 326a 18be 7bfd a63d 9ad9 d2bd 1b89 23be
000001b0: dd0b 1fbc d06e 4fbe 3033 203d 71cf ec3d
000001c0: 262a 2f3e 59a2 c7bd ff6b e2bd 52dd f6bd
000001d0: 5758 6c3c b400 123d b777 e63d b2c7 e7bc
000001e0: 84ac 023d ffc3 f3bd 58c5 9e3d 5fe9 453e
000001f0: c52c a9bd 6d56 2fbc 8813 803d 5550 aebb
00000200: 0eb5 ed3d 3ca7 1b3e 56e5 f1bd 590d 99bc
00000210: f78a 713d 652c f6bc 9a78 f93d 90b0 dbbd
00000220: 5300 4ebe 6cb4 80be 3299 113d 35d1 e9bd
00000230: 9c1f bdbd ae4b b9bd fd09 8abd dd02 dc3d
00000240: 3488 983c b0e5 1dbe e4c1 b3bd edc1 03be
00000250: b789 d43d 864f 3bbe e329 5d3d a8dc 2c3e
00000260: adcc 73bd ea53 063e cca1 f43d ac5e 143e
00000270: f5e6 c4bd 8205 763c 41b1 253e cc29 4cbd
00000280: 3a33 f23d 7c34 96bd 3fb6 3fbd 2870 473e
00000290: f55b 53be 8c80 e739 0fac 01bd 8a2d e03c
000002a0: 696b 0abd 062c 2f3e d58b 1e3e 58f5 423e
000002b0: c34c fdbd 7b7e 87bd 6d7e d73d 50ac 04bd
000002c0: a064 503e e774 243e 2116 e63d 00ae 3f3d
000002d0: 4610 b63b 87b4 563e fedf 7b3c 5bdb 62bb
000002e0: d2b0 943d ca78 ab3d 5b7d a43d 3665 1f3d
000002f0: e757 c4bd b5cd 013d d36c fb3d ef73 a7bd
00000300: 07de cf3d 49ea 553e 3e62 053d ea5a 1ebe
00000310: e465 83bd 77a8 2bbe 8e02 903d d741 053e
00000320: d07e 8d3d e69a babd 7b02 30be 9d0e babd
00000330: 5aeb 133e 297c 85bc f42e 4f3e 77a2 2ebe
00000340: 9fe8 153e 6f4d 4a3e 5e8c 15be a214 cd3d
00000350: ad78 453e 01e3 593c 091e 523d 04bc 0e3e
00000360: 43e0 15bd f235 273e d7e6 1abd cf1e fabd
00000370: 2d70 aebd 3ab6 da3d eb3c 303e 0072 1bbe
00000380: 04ff 513e 43f0 19be 8e2b 35be 8c12 a4bd
00000390: 7fd4 c9bd b01c 003c d4e0 11bd 0356 36be
000003a0: 0508 b53d 14aa f13d 67ae 703d 10ed 9ebd
000003b0: e984 103e 3d41 d53d 2bb6 afbd e61b 413e
000003c0: 1e3d 47be b598 1a3e 34a1 56be 1a78 073e
000003d0: d47e 73bc a3a4 8bbb 9253 a43d ff42 50bc
000003e0: ff3e 8abd 4c19 48bc f53f 0f3d f1ca 03be
000003f0: 7ab9 49bd 65b2 b73d 5427 ab3d 8cf0 203e
-0.04787744 0.1610536 0.19554281 0.09063103 -0.10782011 0.041312527 0.06152896 -0.06634646
0.09241122 0.1596628 -0.21409227 0.01769884 -0.15995742 -0.1826193 -0.15401651 -0.08433132
0.03128008 -0.15498792 -0.20015326 -0.13936512 0.06201281 0.071218155 0.15119538 0.12982078
-0.10967828 -0.18599333 0.13992351 0.15159369 -0.19082688 -0.1589826 0.20367816 -0.203077
0.06218943 0.06541216 0.07925327 -0.14997017 0.12997249 0.17243421 0.1304334 -0.039749563
0.08967957 0.1628908 -0.109132715 0.07514513 0.008408016 0.0810307 -0.024384573 -0.13375884
-0.016292578 0.04647223 -0.06726674 -0.15129222 0.16194227 0.12974271 -0.17088962 -0.18045457
-0.15812717 0.007119109 0.13471326 -0.22071145 -0.015724553 -0.07998064 0.12182084 -0.021874659
0.18934913 -0.024352677 -0.015727658 0.15578362 0.15148704 0.17547356 -0.1500179 -0.16021833
-0.15675376 0.054726962 0.15816486 0.013457383 -0.1395641 0.19768375 -0.16893223 0.13952313
-0.15429494 -0.019859139 0.07250827 0.096673 0.014873568 0.122152664 0.12524565 0.1704228
0.021498123 -0.048623282 -0.036903374 -0.06319014 0.0152460355 -0.17509879 0.011744955 0.025445608
-0.10518152 0.10090325 0.13666874 -0.18589582 -0.12497876 0.008193254 0.05881217 0.09428901
-0.1488426 0.08153816 -0.102954105 -0.1597027 -0.009707418 -0.20257115 0.039111316 0.11563004
0.17105922 -0.09747762 -0.11055755 -0.12053932 0.014425359 0.0356452 0.112533025 -0.028293464
0.031902805 -0.11902618 0.07752484 0.19327305 -0.08260492 -0.010701758 0.06253725 -0.005319635
0.11606799 0.15200514 -0.118113205 -0.018683122 0.058970418 -0.030050466 0.12181206 -0.10727036
-0.20117311 -0.2513765 0.03554649 -0.11416856 -0.09234545 -0.09047638 -0.06740186 0.10742734
0.018619634 -0.1541965 -0.08777216 -0.12866946 0.103778295 -0.18292055 0.053995024 0.16881049
-0.059521366 0.13117948 0.11944923 0.1448924 -0.09614364 0.015015962 0.16180898 -0.049844548
0.11826177 -0.07334229 -0.046804663 0.19476378 -0.20640548 0.00044155528 -0.03165823 0.027365465
-0.03379384 0.17106637 0.15483029 0.19038904 -0.12368157 -0.06615921 0.10522161 -0.032390893
0.20350885 0.1606022 0.112346895 0.0467968 0.005556139 0.20967303 0.015373228 -0.003461561
0.07260288 0.08372648 0.08031722 0.03891488 -0.095870785 0.03169032 0.12276616 -0.081764095
0.1014977 0.20890154 0.032564394 -0.15464368 -0.064159185 -0.16763483 0.07031737 0.13013397
0.06908953 -0.09111576 -0.17188446 -0.090848185 0.14445248 -0.016294556 0.20232755 -0.17054163
0.14639519 0.19756101 -0.14604327 0.10013701 0.19284315 0.013298751 0.051298175 0.1393891
-0.036590826 0.16329172 -0.037817802 -0.122129075 -0.085174896 0.10679288 0.17210738 -0.15180206
0.20507437 -0.15033059 -0.17692396 -0.0801135 -0.098549835 0.00781934 -0.035614803 -0.17806248
0.0883942 0.11800018 0.058760073 -0.0776006 0.14113201 0.10412834 -0.08579668 0.18858299
-0.19456908 0.15097316 -0.20959932 0.13229409 -0.014861781 -0.0042615696 0.08023752 -0.012711286
-0.06750297 -0.0122130625 0.034973104 -0.12870385 -0.04924915 0.08969573 0.083571106 0.15716761

fc1.bias f4 [128]
00000000: 633a 003d dafc eb3d a89a 483e 0fe4 afbc
00000010: f4ab 1e3e 051b 913d 7786 97bd 8d11 543e
00000020: b9d2 19be e603 0cbe 1618 f43d b49b 72be
00000030: 563f 32be 2362 bfbd 1515 05be fc9f 26be
00000040: 4313 0e3e 9ebe 20be e340 3e3e 68e2 3fbe
00000050: d91b 4ebe b155 44be 5037 34bd bcde 28be
00000060: ed9c 17be 71bd c03c c9ee f2bd a41d 013e
00000070: 92db 06be ad67 2fbe 4aa6 8e3a 4d48 e83a
00000080: a323 22be 39bf cfbc c23c 05be 245e be3d
00000090: 02a5 0a3e 9009 42be 0627 283e 0a82 f2bd
000000a0: 5337 0fbe a208 193e 3736 0f3e 3df2 39bd
000000b0: d792 253d 3a1c 5fbe b269 b3bd c557 14be
000000c0: 71fc a23d 8096 c13d 6ccc 213e 715e e4bd
000000d0: 6336 053e 3462 6e3d 118a 9ebd 323f f53d
000000e0: d440 703e 0a8b 85bd 7835 243e 4a7e bc3d
000000f0: 558c c93c 3c95 02be 4f7f d6bd cdae 313e
00000100: 296e 923c 75c0 263e a20d 06be 29a0 4e3e
00000110: 5096 04bd eba4 673d 5e93 90bd 5542 e9bd
00000120: 99ee f1bc 41af 0bbe 979f 61be e7af 193e
00000130: 8130 28be 15f4 d9bd 0464 c13d 0dbb d13d
00000140: 9ad6 eabc 11c1 783c 9173 163d e8a1 08bd
00000150: fbaf 20bd 9a06 1dbd fce6 0ebe fb15 943b
00000160: d8f2 3c3e 9c8e b03d 0bef abbd 2e8d 34be
00000170: d3c1 363e 211d 08bd f85a 44be 9470 09be
00000180: 46cf ecbd 89a8 d63d 9688 ed3d 6c2f 27be
00000190: bb5c 10be b492 bf3d 7144 70bd b28e 023e
000001a0: 46e2 363e f89c c53d 23a5 dbbc a5c7 22be
000001b0: 2f67 51bd ac4a 233e bd97 5dbe b8e7 d9bd
000001c0: c2fc 91bc 87d0 093e 2f5b f8bc c7c2 24be
000001d0: 31c5 933d 3837 aa3d ce16 0bbd 8115 3dbe
000001e0: caf9 2cbe 62f6 303e fdc2 f0bd d390 3fbc
000001f0: a4c0 133e a670 44be 061c 733d 8c9d e7bd
0.031305682 0.11522837 0.19590247 -0.021471051 0.15495282 0.07085232 -0.07398694 0.2070982
-0.1502179 -0.13673362 0.119186565 -0.23692209 -0.17406973 -0.0934489 -0.12996323 -0.16271967
0.13874535 -0.15697715 0.1857944 -0.18738711 -0.2012781 -0.19173314 -0.043998063 -0.16491216
-0.14805956 0.023527833 -0.11861951 0.12608963 -0.13169697 -0.17129393 0.0010883298 0.0017721743
-0.15833907 -0.025359737 -0.13011459 0.092953 0.13539508 -0.1894896 0.16421136 -0.11841209
-0.13985948 0.149447 0.13985525 -0.045397032 0.04042324 -0.21788111 -0.08760394 -0.14486606
0.079583056 0.09452534 0.15800637 -0.11150826 0.13009028 0.058199123 -0.07741178 0.11974944
0.2346223 -0.0652066 0.16036022 0.09203775 0.024603048 -0.12752241 -0.10473501 0.17351837
0.017874794 0.16284354 -0.13091138 0.20178284 -0.03236991 0.056553762 -0.07059358 -0.11389605
-0.029532718 -0.13641073 -0.22033535 0.15008508 -0.16424753 -0.10642258 0.094429046 0.10240755
-0.028666783 0.015182749 0.036731306 -0.03335753 -0.039230328 -0.038336374 -0.13955301 0.004519222
0.18452013 0.086209506 -0.08395203 -0.17631981 0.17847376 -0.033230904 -0.19175327 -0.13421851
-0.11562972 0.10481364 0.11598317 -0.16326684 -0.14097874 0.09354153 -0.05865902 0.12749746
0.17859754 0.0964908 -0.026812142 -0.15896471 -0.051123794 0.15946454 -0.21639915 -0.106399
-0.01782072 0.13458453 -0.030316917 -0.16089927 0.07215346 0.083113134 -0.033957295 -0.18465234
-0.16892162 0.17281488 -0.11755941 -0.011692244 0.14428955 -0.19183597 0.059352897 -0.113093466

bn1.weight f4 [128]
00000000: e769 813f 9dfc 7a3f 937c 833f 74b6 7a3f
00000010: 08aa 763f 5e27 813f 0285 7c3f 3b6a 783f
00000020: 019d 833f 2095 7f3f a949 7b3f f0c0 7e3f
00000030: 02fc 7f3f 6521 793f 4f03 813f 3dae 863f
00000040: 34f5 813f 4381 7c3f 931b 7c3f 146e 843f
00000050: d992 7d3f c38b 773f 5f3b 833f 0e80 783f
00000060: 2ca6 803f 363c 813f d260 813f 8daa 843f
00000070: 24af 783f 98cb 7b3f 3dd6 833f 6e50 7d3f
00000080: 8f2c 803f d01d 833f d543 843f eb7b 7a3f
00000090: 74c7 803f 355f 843f 8f05 813f 1796 843f
000000a0: 62f3 883f b987 7d3f 84e3 823f 4722 823f
000000b0: 88f0 833f 0457 813f 57c4 813f 245d 7e3f
000000c0: a7de 753f 254d 813f a08b 7d3f 3415 833f
000000d0: 45c9 7e3f 1d16 833f 0a26 823f b883 7d3f
000000e0: 106a 773f 6373 7d3f 1c1b 823f 5abe 7d3f
000000f0: a111 793f 7308 823f ccf0 883f 168a 7a3f
00000100: 77af 823f 19d0 823f 1ae0 7d3f dddb 7f3f
00000110: 38d5 7d3f c12c 843f 565b 823f 0527 7e3f
00000120: 32cb 7a3f cf43 7d3f 3d30 823f dcd0 7d3f
00000130: b707 7b3f 374f 803f 8bf8 793f bca0 7d3f
00000140: 555a 7a3f ee99 7e3f eb16 7e3f e134 7b3f
00000150: ac14 823f 69ec 7b3f 22bc 793f 8f68 7c3f
00000160: 29a9 743f b14b 7e3f dc9c 823f 8628 7c3f
00000170: c32d 823f 0603 7f3f 16a9 803f f563 823f
00000180: 29fa 813f 3e40 783f 29b8 7c3f 53cb 813f
00000190: 26fd 803f 629c 763f 3437 823f 116e 7c3f
000001a0: 322b 763f de1f 7e3f 72ae 763f 42dd 773f
000001b0: 8585 763f 2035 823f 0558 843f 1c5b 833f
000001c0: 4e9b 763f 02f9 7a3f ab91 793f b64c 813f
000001d0: 6487 793f 9867 853f 435a 813f 8ace 803f
000001e0: c279 823f b6bc 793f 1e90 823f 2dcd 813f
000001f0: 0895 7c3f 8588 843f c830 843f e40a 813f
1.0110444 0.9804171 1.0272392 0.9793465 0.963532 1.0090139 0.98640454 0.97037095
1.0282289 0.9983692 0.9815927 0.9951315 0.9999391 0.9731658 1.0079135 1.0521923
1.0152955 0.9863474 0.98479575 1.0346093 0.99052197 0.96697634 1.0252494 0.97070396
1.0050712 1.00965 1.0107672 1.0364548 0.97142243 0.98357534 1.0299755 0.9895085
1.0013598 1.0243473 1.0333201 0.97845334 1.0060868 1.0341555 1.0079821 1.0358304
1.0699275 0.9903522 1.0225682 1.0166711 1.0307779 1.010468 1.0138043 0.9936087
0.96042866 1.0101668 0.99041176 1.0240846 0.9952586 1.0241123 1.0167859 0.9902911
0.96646214 0.9900419 1.0164523 0.9911858 0.97292525 1.0158828 1.0698485 0.9786695
1.0209798 1.0219756 0.99170077 0.9994486 0.9915347 1.0326158 1.0184124 0.9927829
0.979663 0.9893159 1.0170971 0.9914682 0.98058647 1.0024174 0.9764487 0.99073386
0.97794086 0.9945363 0.9925372 0.9812756 1.0162559 0.9840761 0.9755269 0.98597044
0.9557062 0.99334246 1.020412 0.98499334 1.0170215 0.9961399 1.0051601 1.0186754
1.0154468 0.96973026 0.98718506 1.0140175 1.0077255 0.9633237 1.0173097 0.9860545
0.9615966 0.99267375 0.9635993 0.9682199 0.96297485 1.0172462 1.0339361 1.0262179
0.96330726 0.98036206 0.97487897 1.0101535 0.97472215 1.0422239 1.0105671 1.0063031
1.0193408 0.97553575 1.0200231 1.014074 0.98664904 1.0354162 1.0327387 1.0081449

bn1.bias f4 [128]
00000000: 9fa1 1dbd 7696 0dbc e457 943c 0034 de3b
00000010: 3445 3c3d 48cc 833c f9ff a1bd c7c6 d2b9
00000020: 45b4 9cbc f346 f23b 39f9 433d 71be e8bc
00000030: 34d6 d93c c368 933c 2b27 093d 856a 863c
00000040: 8471 64bc 3daa 5dbc a82d a03b 9009 153c
00000050: 83a8 7b3c 453f 073d 7ff1 d1bb 208e 833c
00000060: 1091 013b 64c9 6bbb abe1 1dbc bf2e 393b
00000070: 196d 0dbc 5be8 0e3c 253f 8f3c 418a 48bd
00000080: 5c82 473c df16 2f3c fa0e 19bb 6559 973a
00000090: 9958 c43c 4e10 243c 4024 76bc c13b 3f3d
000000a0: 6066 d03c dc47 7dba 8cea 693c 2d16 c9bb
000000b0: 497e 633d 45b9 023b 24ad 37bd 8cee 803b
000000c0: 6138 9cbc b1d5 40bd 5933 11bc 8c32 913b
000000d0: d868 2a3d 8eaf 073c f598 bc3c 15c1 99bc
000000e0: fe14 053d 0840 e83c ddf2 e8bc e134 d9bc
000000f0: 8183 6c3c 66dd fd3b f66c 29bd ab27 7b3c
00000100: d2f0 93bc f1b4 d93c 8226 0cbd 5b75 e9bc
00000110: 3c10 2e3c aee5 c73b a3de 113c 8e97 71bb
00000120: 69c1 36bc 47c7 6ebc b2c2 20bd 6065 113c
00000130: 8480 7dba f348 62bd 1f4c a93b f4a4 28bd
00000140: cd8b 333c a1f6 5d3c a7fb 1cbd 5f76 7bba
00000150: b4cd 693c 0f4a bd3c 6564 8cbd 4ac0 893c
00000160: 5f00 8c3c e3aa 6dbc 5b9c c8ba 7604 c6bc
00000170: 3609 45bc 5c29 d73c ab65 1cbb fb3e 073d
00000180: 236d a83a 39b3 eebc ccea 4a3b a4d5 14bd
00000190: 9a1a 643c a1c6 843c 8b22 2ebd 4dd0 5f3c
000001a0: 20fc bb3c 43eb abbc 9de2 9dbb d8f5 0f3c
000001b0: 6d93 aabc dba7 98bc 2518 74bd 8670 4cbb
000001c0: 8aa2 db3b bfbf 8bbc 065d e1ba 46dc 84bc
000001d0: aea9 f43c e234 a83c e6d0 ab3b 81d5 663a
000001e0: 1f66 3abd 691f 00bd e036 4d3c b2b7 f83c
000001f0: de4b 173c 614e 783c cfe9 b5bc 2ea6 ca3b
-0.038484212 -0.00864183 0.018108316 0.006781101 0.045964435 0.01608862 -0.07910151 -0.00040202422
-0.019128928 0.0073937117 0.0478451 -0.028411122 0.026591398 0.01799429 0.03348462 0.016408214
-0.01394308 -0.0135293575 0.004888255 0.009096518 0.015360001 0.033019323 -0.0064069624 0.016058981
0.0019770302 -0.0035978192 -0.009636323 0.0028256623 -0.008631968 0.00872239 0.017486164 -0.048959974
0.012177076 0.010686605 -0.0023354874 0.0011547027 0.023968028 0.010013653 -0.015023291 0.046687845
0.025439441 -0.0009661892 0.014277112 -0.0061366768 0.055540357 0.0019946855 -0.044842854 0.003934687
-0.019069852 -0.047078792 -0.00886234 0.0044310745 0.041603893 0.008281602 0.023022154 -0.018768826
0.032490723 0.028350845 -0.028436119 -0.026514472 0.01443565 0.00774734 -0.04136368 0.015329282
-0.018059168 0.026575537 -0.03421641 -0.028498342 0.010623988 0.006100378 0.008903178 -0.0036864015
-0.011154511 -0.014573879 -0.039248176 0.008874267 -0.00096703344 -0.05524535 0.005166545 -0.041172937
0.010958624 0.01354757 -0.038325932 -0.0009592529 0.014270235 0.023106603 -0.06855086 0.016815323
0.01709002 -0.014506075 -0.0015305387 -0.024172049 -0.012026122 0.026264839 -0.002386431 0.033019047
0.0012849908 -0.029138194 0.0030962704 -0.036336556 0.013922358 0.016207995 -0.04251341 0.013660503
0.022947371 -0.020986205 -0.004818274 0.008786641 -0.020822251 -0.018634727 -0.05959334 -0.0031195
0.006702726 -0.017059205 -0.0017193861 -0.016218316 0.029866066 0.020533029 0.0052434085 0.0008805618
-0.045507547 -0.031279955 0.01252529 0.03036103 0.009234397 0.015155406 -0.022206215 0.006184361

bn1.running_mean f4 [128]
00000000: eccb 5c3e 6cec cf3e df4a a33e 8524 593e
00000010: 7362 853e 765a ad3e b484 553e e915 d03e
00000020: 0b2b 4d3e 1cd5 5a3e 1711 9c3e 81d0 c83d
00000030: c045 343e 1148 403e b411 f43d 947d f13d
00000040: ac29 783e 7b75 173e 10d8 883e a85d 273e
00000050: c067 093e 7336 263e 6b73 8b3e f05f 773e
00000060: 5f06 283e 3521 8b3e 36c6 173e 798c 803e
00000070: b17c 203e 17d5 f43d 2fe9 4d3e cdd8 843e
00000080: 6479 0f3e dee2 063e c478 e93d 3ea4 b33e
00000090: 613f 9a3e 318d 293e 7f09 923e ae5d 693e
000000a0: 5dc9 123e 52ca 943e ed20 873e 7760 983e
000000b0: 6c76 283e 78cd f23d e509 f13d 29d5 823e
000000c0: fb8e b23e 8134 823e b02c 993e 3602 0c3e
000000d0: 7fd3 9d3e bbe1 803e baa8 5f3e 0842 a93e
000000e0: 7854 983e 3c6b 6b3e 18c8 b23e 7800 c83e
000000f0: 9266 893e 7d94 373e 13e7 133e a7fc 913e
00000100: b52c 703e 0439 cb3e a9cd f43d 7ce7 b03e
00000110: 5e35 7a3e cc93 463e 7718 533e 604c 2b3e
00000120: 1793 6b3e 58fe 243e 05ae d93d 1087 993e
00000130: 43b8 0c3e b159 833e 7c1e 863e a308 c73e
00000140: 1521 523e e2d0 133e b500 933e b76b 2c3e
00000150: a50d 533e 5ceb 5d3e 14d3 2c3e 6461 763e
00000160: a19e dc3e 53d7 6f3e c905 4d3e 113d 863e
00000170: 1e27 cd3e d0f4 163e 559a 5c3e 1faa 153e
00000180: 6b8f 263e 40f1 a33e 002b 6e3e 1a18 c23d
00000190: 138f ed3d 7f6b a13e 9f3a 483e f17f 983e
000001a0: a360 d23e 4f76 a13e 7155 673e 27b6 493e
000001b0: 0ec9 3b3e 97ae ad3e f819 b43d b4cd 4f3e
000001c0: 9611 753e a991 db3e a144 1e3e e659 da3d
000001d0: bc8f 6e3e d0b5 673e a260 f23d 59b8 193e
000001e0: 8dd6 3a3e 1cfb c43e ef89 373e 96f2 2b3e
000001f0: efe2 7d3e 69d7 0b3e 3bae 743e 2acb 343e
0.21562165 0.40610063 0.3189306 0.21205337 0.26051673 0.3385808 0.20851403 0.40641716
0.20035951 0.21370357 0.3048179 0.09805394 0.17604733 0.18777491 0.11917439 0.1179153
0.24234647 0.14790909 0.26727343 0.16344321 0.13418484 0.16231708 0.27236494 0.24157691
0.1640868 0.27173772 0.14821705 0.25107172 0.15672566 0.11954706 0.20108484 0.25946656
0.1401115 0.1317248 0.11399987 0.35086244 0.3012648 0.16557766 0.2852287 0.22789642
0.14334626 0.29060608 0.26392308 0.29761097 0.16451424 0.11855596 0.11769465 0.25553253
0.3487471 0.25430682 0.29916906 0.13672718 0.3082542 0.2517222 0.21841708 0.3305819
0.29751945 0.22990125 0.34918284 0.39062858 0.26836067 0.17927738 0.14443617 0.2851307
0.23454554 0.39691937 0.11953289 0.3455161 0.2443442 0.19392318 0.20614801 0.16728354
0.23005329 0.1611265 0.10628895 0.29985857 0.13742165 0.25654367 0.26195133 0.38873777
0.20520432 0.14435151 0.28711477 0.16837965 0.20610674 0.21671814 0.16877395 0.24060589
0.43089774 0.23421983 0.20021738 0.26218465 0.40068907 0.14741826 0.21543248 0.14615677
0.16265647 0.32019997 0.2325859 0.09477253 0.11599555 0.31527326 0.19553612 0.29785112
0.41089353 0.31535575 0.22591187 0.19698392 0.18338415 0.33922264 0.08794016 0.20293313
0.2393249 0.42884567 0.15455867 0.10661678 0.23297018 0.2262795 0.118348375 0.1501173
0.18245907 0.3847283 0.17923711 0.16791758 0.247936 0.13656391 0.23894589 0.17655626

bn1.running_var f4 [128]
00000000: 17fa d63d 7c53 943e 152a 083e 34d2 c43d
00000010: 5555 b03d bf62 453e 9294 df3d 3f92 7f3e
00000020: 4936 c43d 7051 f43d 5f9c 193e 80ec 1c3d
00000030: ea38 af3d 51f6 bd3d f4fb 163d 5c98 683d
00000040: ea82 c23d c580 813d 90ff b53d c953 743d
00000050: 7118 5e3d 36e7 9d3d 8d0b 443e 885f 103e
00000060: 543e a53d 1f59 113e 978a 8f3d 55d9 a33d
00000070: 5f14 933d c519 db3d 91bb b33d 5498 173e
00000080: 4b1d 913d 51c8 413d b15c 763d a329 5e3e
00000090: 84b9 0d3e edcf 053e d2b3 e33d c8be ff3d
000000a0: 97f8 783d 5164 da3d d0c5 b73d 3187 383e
000000b0: 5c6f 4b3d ea24 883d 3a5e f43c 45b4 1e3e
000000c0: 4f7e 563e 6aba cc3d 357f 363e 05c6 5a3d
000000d0: 3a26 103e 4755 f43d adcf cc3d d67c 3d3e
000000e0: 1be8 043e 91a6 f63d 4b80 4c3e ebc3 773e
000000f0: a7a5 0e3e e592 bf3d 65ad 723d b718 d43d
00000100: 45b1 133e 3ec4 823e ee6d 2b3d 5885 353e
00000110: 91d4 183e 5eaa 8b3d 4110 ce3d e393 a23d
00000120: 0c48 f03d ef69 c33d d852 4e3d 181a 143e
00000130: b017 513d b649 323e f205 163e 1d71 8a3e
00000140: d802 c33d 39da 3c3d f7b1 263e 5c19 933d
00000150: e0fb b03d 7625 d63d 5f75 9c3d c5ef cf3d
00000160: 7b52 9a3e 8896 883d 0a9d d33d 1092 3b3e
00000170: 03cb 8d3e 7152 543d 691c 033e f930 b03d
00000180: d322 813d e000 3f3e 4604 aa3d f0c0 113d
00000190: bacf 5b3d 7c3a 133e 5418 a33d 40a8 203e
000001a0: fa43 a43e d272 2a3e 964c e33d 0c31 023e
000001b0: ebb4 b53d d5f2 653e d763 ef3c b5dd ec3d
000001c0: b735 1c3e 32fd c23e 6836 7a3d acb9 173d
000001d0: 06fa cc3d d8dd b13d 4251 133d e4c6 a43d
000001e0: 932a e33d 418a 6f3e 49e7 b93d 24e8 8b3d
000001f0: ffa4 cf3d a853 8b3d 5f83 e73d b0f7 bb3d
0.104969196 0.28969944 0.13297303 0.096104056 0.08610026 0.1927595 0.109170094 0.24958132
0.095806666 0.119295955 0.15001057 0.03831148 0.08555777 0.09275497 0.036861375 0.056785926
0.09497626 0.06323389 0.08886635 0.059650216 0.054222528 0.077101156 0.19145031 0.14098942
0.08068529 0.14194153 0.07008856 0.08000437 0.0718162 0.106982745 0.0877601 0.14804202
0.07085665 0.047310177 0.06014699 0.2169557 0.138403 0.13067599 0.111182824 0.124875605
0.06078395 0.10663665 0.089732766 0.18020321 0.049666747 0.06647666 0.029830087 0.15498455
0.2094662 0.09996493 0.17821963 0.053411502 0.14077082 0.11930328 0.100005485 0.18504652
0.12979166 0.12043489 0.19970815 0.2419583 0.13930379 0.0935419 0.059247393 0.103562765
0.14423092 0.25540346 0.041852884 0.17726648 0.14924838 0.06819604 0.10061694 0.079383634
0.11732492 0.095416896 0.050371975 0.14463079 0.05104798 0.17410931 0.14650705 0.27039424
0.09522027 0.04610655 0.16278826 0.07182571 0.08641791 0.10456364 0.07639574 0.10153154
0.30141053 0.066693366 0.10332687 0.18317437 0.27693948 0.051836435 0.12803806 0.08603091
0.0630547 0.18652678 0.08301596 0.03558439 0.0536649 0.14377779 0.079636246 0.15689182
0.32083112 0.16645363 0.11098592 0.12714022 0.08872398 0.22455914 0.029222412 0.11565725
0.15254866 0.38083798 0.061087042 0.037042305 0.10008626 0.086848915 0.035966165 0.08045748
0.11092105 0.23392583 0.09077317 0.06831387 0.101388924 0.068030655 0.11304354 0.09178102

fc2.weight f4 [64, 128]
00000000: c471 b13d 1bcd 1f3d 8e04 ccbd 5849 2c3b
00000010: 6c64 1d3b 1b40 14bd 1c44 cfbd 52d9 033d
00000020: 5273 9abd e8de 50bd 74de 9dbd 2459 a23d
00000030: dea3 8dbc 012b a93d 1046 60bc 1f38 5cbc
00000040: 21f7 683d 4376 3e3d 799e c63d e56f 88bd
00000050: 51fd 993c 2561 bc3b e18d 6a3d c73e 2dbd
00000060: 3438 7dbd 130f 7abc 8e81 1fbd fe1d 59bc
00000070: 2de5 f4bc 7a88 a73b ea02 3fbc fff4 1d3d
00000080: 19e6 3dbc 7144 31bd 1f6a 9a3d 4ec8 79bd
00000090: 3db6 1a3c e53f 93bd 83bc 663d bb4a 003d
000000a0: 73d0 80bd d527 a839 17f4 dcbc 685e 783d
000000b0: c7c7 bb3d be04 09bc b2c6 84bc 41d7 913d
000000c0: 41b5 8d3c e585 75bd 328f 55bb 3f3b c83d
000000d0: f7f9 64bd bc3d 5f3c 2c99 de3c 087c 7cbb
000000e0: ebc4 513d 00ea 17bd 3d0a 1abd 0805 bcbc
000000f0: 57a2 6fbd 89d5 47bd c44c cd3b e4de 513c
00000100: cd27 2ebd 8ace 4bbc 2312 ae3c 5004 03bd
00000110: 8413 f7bc 0473 40bd f2e4 f13d 963a 2e3d
00000120: b83c 753d caeb 3bbd 4be4 473c f695 44bd
00000130: 560b 5a3d ad3a 1dbc 59e7 a63d 2ac9 7bbd
00000140: e03c 38bd 5daf a03d 23b9 d2bb 7958 743d
00000150: fba9 053e 6082 e139 addd 243d b176 6cbc
00000160: 5993 523b ba7f f73d 44fe 6abd e49c 633c
00000170: 0e22 3abd c5ab 233d 8e21 e4bc 8015 4dbd
00000180: 3906 84bc 7994 eb3d 5af8 133d d315 a3bd
00000190: 927c d63b d0ab 2cbd 231f e53c dead 193d
000001a0: c92f 0f3a a695 883d 467d 1d3d 45f1 dd3c
000001b0: fb21 cb3c 4650 4a3d 9d36 263e e1f4 11bd
000001c0: 7f74 18bd 61d0 9a3c fd85 833d b622 f6bc
000001d0: a41e e2bc 85f7 933d 1306 94bd 1c02 5a3d
000001e0: 555d 563d fef8 8dbd 18d1 9dbd 00a1 a8bd
000001f0: 985d 893d 1c21 9ebd 4163 97bb 871c 5abd
00000200: 7bba 68bd cfb4 88bd cd1f 79bd 8e0e 823d
00000210: 6a64 803c bda5 c9bd 382d 853d bc19 d9bd
00000220: 36a6 f6bb e3b6 69bd 8fbc b9bd ddd3 51bc
00000230: 028c 79bd 6714 7c3d 3e3b 81bd 372d 7dbc
00000240: 145b 043d 36bb b03c 1b49 cc3b 5254 c7bc
00000250: 25ae f13d fb0a 8b3c 6caa 83bd 1548 eabc
00000260: a7ea 1d3c 723c 7f3c 78e1 29bd 0d3a 4dbd
00000270: f1c5 cebc 62fc af3d b027 66bd ddcc 00be
00000280: db6c d5bc c1f0 253d 0b7b 1a3c c9d2 ee3c
00000290: 1920 293d dc67 8fbc 9c30 ec3c 9bd4 adbc
000002a0: 7dcf 0fbd 377a 6d3a 1819 e23d d4ae 893b
000002b0: 7818 88bd be7c 0cbd f072 4ebd bc77 0c3d
000002c0: a475 31bd adb6 f93c bb3e 95bd 7211 873b
000002d0: 7d00 48bd 70b9 303d d8c7 c53b b3cb 7f3d
000002e0: 4740 443d 9ba5 2e3d 4a66 52bd a978 ab3d
000002f0: 43b2 b43d be5c 2abd c225 66bd 9f65 80bc
00000300: f021 d53c d444 253d 60b5 0a3d 3481 49bd
00000310: 1352 783c 2139 b7bd 1c3b e63b 68fa 51bd
00000320: 9a1f 1c3d 4628 70bb 6118 1abc dc61 38bd
00000330: 7015 223d 4de8 063c 9954 443d c017 58bd
00000340: 4191 1ebd 86e7 a73c af59 353c 4116 af3c
00000350: 0197 b9bd 40f0 c63c cca0 16bd 1970 8bbc
00000360: b18a 8e3d be28 823d 86e5 913d 53e2 503c
00000370: f24d aa3d 3130 a4bd 381a 9ebd 9568 353d
00000380: 729a 803d fb0c d03c 8abe 9abd 231f 9abd
00000390: 1cfc 933d 88e8 2ebc 494b 90bd e74f b83d
000003a0: 5930 18bd ca59 b1bd 3070 a33b 1238 33bd
000003b0: c387 a83d 7ec0 28bd 48e6 b0bd b684 50bd
000003c0: 5c37 803d 2844 df3b 6219 f03c 8004 99bd
000003d0: f716 4f3d 13e0 96bd fc86 c93d 9dbc 22bd
000003e0: d820 7c3d cda0 c93c 7caa 67bd 40f4 ab3c
000003f0: d458 cebc ac07 92bd d391 a23c 782e ae3d
0.08664277 0.039013963 -0.09961806 0.0026288833 0.0024016155 -0.03619395 -0.10120413 0.032189675
-0.07541527 -0.05099383 -0.07708445 0.079271585 -0.017290052 0.082601555 -0.013688579 -0.013441115
0.056876305 0.046499502 0.09698195 -0.06661967 0.018797548 0.005748885 0.057264213 -0.042296197
-0.061821178 -0.015262383 -0.038941912 -0.01325178 -0.029894436 0.005112705 -0.01165841 0.038563725
-0.011590504 -0.04327816 0.07539772 -0.06098204 0.009442863 -0.07189921 0.056332123 0.03132127
-0.062897585 0.00032073134 -0.02697186 0.060636908 0.09168964 -0.008362947 -0.016208027 0.071211345
0.017298343 -0.059942145 -0.0032586572 0.09776925 -0.055902448 0.0136255585 0.027172647 -0.0038526077
0.051213186 -0.037088394 -0.03760742 -0.022951618 -0.05850443 -0.048787627 0.0062652547 0.012809489
-0.042518426 -0.0124393795 0.021248883 -0.031986535 -0.030160673 -0.046984687 0.11811246 0.04253634
0.05987236 -0.045879163 0.012200425 -0.047994576 0.053233467 -0.009596509 0.08149595 -0.061471142
-0.04497993 0.07845948 -0.0064307614 0.059654687 0.13053124 0.0004301248 0.04025047 -0.014432595
0.0032131283 0.12084909 -0.057371393 0.013892386 -0.045442633 0.039958734 -0.027848031 -0.050069332
-0.016116248 0.11502928 0.03612552 -0.07963147 0.0065456117 -0.04215604 0.027968949 0.03751933
0.00054621376 0.06669168 0.03844955 0.027092585 0.024796477 0.04939296 0.16231771 -0.035633925
-0.037220474 0.01889819 0.064220406 -0.030045848 -0.027602501 0.07224945 -0.07227721 0.053224668
0.052335102 -0.06932257 -0.07705897 -0.08233833 0.06707305 -0.07721159 -0.0046199863 -0.053249862
-0.056818467 -0.066751115 -0.060821343 0.06350432 0.015672881 -0.09846065 0.065027654 -0.106006116
-0.007527138 -0.05705918 -0.09069168 -0.01280686 -0.060924537 0.061542895 -0.06310128 -0.015452675
0.03231342 0.021573644 0.006234301 -0.0243322 0.118007936 0.01697301 -0.0642899 -0.028598825
0.009638465 0.015578376 -0.04147479 -0.05010419 -0.02524087 0.0859306 -0.056190193 -0.12578149
-0.026052883 0.040512804 0.00942875 0.029153245 0.041290376 -0.017505579 0.028831773 -0.021219542
-0.035109986 0.0009059044 0.110399425 0.0042017493 -0.06645292 -0.03429865 -0.05040258 0.034293875
-0.04332508 0.030482614 -0.072873555 0.0041219527 -0.04882859 0.043145597 0.006035786 0.062450122
0.047912862 0.042638402 -0.05136708 0.083726235 0.08823063 -0.041592352 -0.056188352 -0.015673457
0.02601716 0.040348843 0.03386438 -0.049195483 0.015156287 -0.08946443 0.0070260894 -0.051264197
0.038116075 -0.0036645099 -0.009405226 -0.0450152 0.039571226 0.008234096 0.04793224 -0.052757025
-0.038712744 0.020496141 0.0110687455 0.021372916 -0.09062005 0.024284482 -0.03677444 -0.017021226
0.06960047 0.06355427 0.07123856 0.012749272 0.08315648 -0.08017004 -0.077198446 0.04428919
0.06279458 0.025396815 -0.07555874 -0.0752547 0.072258204 -0.010675557 -0.070456095 0.08999615
-0.037155483 -0.08659704 0.004987739 -0.043754645 0.082290195 -0.0411992 -0.08637673 -0.050907813
0.06260559 0.006813545 0.029308978 -0.074715614 0.05055901 -0.073669575 0.09840199 -0.039730657
0.06155476 0.024612809 -0.05655907 0.02099049 -0.02518884 -0.071303695 0.019844925 0.08504957

fc2.bias f4 [64]
00000000: efa3 fcbd 6ea0 c4bd 252c dfbc 1619 65bc
00000010: f656 40bc e5f2 b2bd 5e59 c4bd 22b4 933d
00000020: 2fa7 683d e3b6 d3bc 06e3 8a3b 258f f2bd
00000030: 18df b8bd 7163 8fbd 4757 663c 1230 6c3c
00000040: 68d7 9ebc 8253 a4bd 7a10 013d bcc1 133d
00000050: 9734 593d 20f3 3bbd f2b5 133d 26d5 363d
00000060: eb73 243d 6f65 853d a203 c7bd 3682 e63b
00000070: eadf a63c 8c08 83bd 7cc2 1fbc f714 60bb
00000080: a2cb a63d 0475 72bd 3d32 44bd 3c9c 8d3a
00000090: f98c 49bd 49ae c23c 31d7 b7bc 31d5 9f3c
000000a0: da3c 723b 51bd d0bd af74 1abd 21d2 453d
000000b0: 6fed edbd 1819 153d 5ca3 4ebd ea36 8e3d
000000c0: e89e 03bc a259 0dbb db80 7bbd 44e8 81bd
000000d0: 78b6 b43c 0197 f0bb 1f70 cebc 6198 923c
000000e0: d513 023d fdd5 9fbd 49c0 b33b 665a a2bb
000000f0: f921 b9bd 9f79 743d e703 4d3d b49b c93d
-0.12335955 -0.09600912 -0.02724273 -0.013983032 -0.011739483 -0.08737735 -0.09587358 0.07212092
0.056800064 -0.025844043 0.004238489 -0.11843709 -0.09026927 -0.07001389 0.0140588945 0.014415758
-0.019389823 -0.0802374 0.031509854 0.03607343 0.05302867 -0.04588616 0.03606219 0.044636868
0.04014961 0.065134875 -0.0971749 0.0070345653 0.020370442 -0.063981146 -0.0097509585 -0.0034192184
0.081443086 -0.059193626 -0.047899473 0.0010804008 -0.049206708 0.023764746 -0.022441478 0.019510837
0.003696254 -0.10192359 -0.037708934 0.048296098 -0.116175525 0.036400884 -0.05044876 0.06944068
-0.008033492 -0.0021568318 -0.061402183 -0.06343129 0.022059664 -0.00734222 -0.025199948 0.017894926
0.031757195 -0.07804487 0.0054855687 -0.004954624 -0.09039683 0.0596863 0.05005255 0.09844151

bn2.weight f4 [64]
00000000: 310f 7b3f bca3 783f 286f 7d3f 547d 783f
00000010: 92cd 863f 42e7 833f 1583 7d3f b3ce 7e3f
00000020: 1476 783f f064 813f 963d 823f 6e8d 803f
00000030: af4c 823f 3be6 813f 873f 803f 2e2e 7c3f
00000040: f234 833f 550e 7d3f 5727 793f aa65 843f
00000050: d12b 7b3f fa68 813f 04ae 7b3f fb63 7a3f
00000060: b275 7c3f 3e2a 7a3f 0502 813f 63d5 7d3f
00000070: a30d 803f 5716 823f e95f 823f 52e9 7c3f
00000080: b78c 7f3f 0863 773f 8a35 833f 24a0 803f
00000090: f031 833f 1124 823f a183 7a3f b96d 7f3f
000000a0: 37e8 793f 9c08 7b3f 028f 7d3f fc46 813f
000000b0: 316e 803f 7a64 803f 58e1 803f 288b 783f
000000c0: 08c3 7a3f acce 7a3f da98 743f c7a6 7e3f
000000d0: c546 803f 4b78 7d3f 99f8 813f a23d 7a3f
000000e0: 631c 813f 0489 773f 9694 7a3f 6c1a 783f
000000f0: 08db 7e3f 2845 773f f292 7b3f 613a 7c3f
0.98070055 0.9712484 0.98997736 0.97066236 1.0531485 1.0304949 0.9902814 0.9953415
0.9705517 1.0108929 1.0175045 1.0043161 1.0179652 1.0148386 1.0019387 0.98507965
1.0250533 0.98849994 0.9732565 1.0343525 0.98113734 1.0110161 0.983124 0.9780881
0.9861709 0.97720706 1.0078741 0.9915373 1.0004162 1.0163068 1.018552 0.9879352
0.9982409 0.96635485 1.0250714 1.0048871 1.0249615 1.0167257 0.978571 0.997768
0.97619957 0.9806001 0.9904634 1.0099788 1.0033628 1.0030663 1.006877 0.97087336
0.97953844 0.97971606 0.9554573 0.9947323 1.0021597 0.9901168 1.0153991 0.97750294
1.0086788 0.96693444 0.97882974 0.96915317 0.99552965 0.965899 0.98271096 0.9852658

bn2.bias f4 [64]
00000000: 14a0 b1bc 38c2 65bd 6885 4dbc 2ef9 19bc
00000010: c31e 22bb ee48 25bc cc6a e1bc c5be b93c
00000020: 0302 17bd 33d1 643c b45a d33c 5711 7b3a
00000030: 97fb 0fbd 3fbb a4bb a59a 8abb 2588 c83c
00000040: 6387 433c 3f67 86bb 91ed c43c 0753 5e3d
00000050: ac30 753a dfa8 c63c 160d 3d3c ef42 c63c
00000060: d07f 89bd ecfc 963c 3fdc 3abb 296c 503b
00000070: 1784 0cbc bd84 223c 0ebc 9eba cafb 933c
00000080: 40e9 00bd f972 c3bc 35fc 05bc 64d2 c7bb
00000090: 9037 02bd 3d4d ab3c 745b 4cbc 1584 013d
000000a0: fc60 60bc 4d2c 123c 940b 033d d7f7 453c
000000b0: 0731 5ebc f38d e3ba 2caf 153d 252f a23b
000000c0: d184 613b 5ab6 73bb 56ea 1d3d 67d7 533c
000000d0: e2b3 083c ddba 2dba 999c 003d 49f9 9a3c
000000e0: 45ff 49bc f755 823c 75b9 8fba fde3 a23c
000000f0: e4f4 1b3d 0e53 8fbc 3124 b6ba fd87 153d
-0.021682777 -0.056093425 -0.012544014 -0.009397788 -0.0024737574 -0.010088189 -0.027516745 0.022673974
-0.036867153 0.013965893 0.025800087 0.0009577474 -0.035152044 -0.0050272043 -0.004229861 0.024478981
0.011934134 -0.0041016634 0.024039062 0.0542784 0.0009353261 0.024250446 0.011538764 0.024201838
-0.067138314 0.01843115 -0.0028512625 0.003180275 -0.008576415 0.009919343 -0.0012110488 0.018064398
-0.031472445 -0.023858534 -0.008177807 -0.0060980786 -0.03179127 0.020910854 -0.012472976 0.031620104
-0.013694998 0.008921695 0.031993464 0.012083015 -0.013561494 -0.001736103 0.03654401 0.0049494677
0.003441144 -0.0037187547 0.03855356 0.012929774 0.008343669 -0.0006627271 0.031399343 0.018917697
-0.012328927 0.015910132 -0.0010965305 0.019884104 0.038075343 -0.017495658 -0.0013896284 0.03650664

bn2.running_mean f4 [64]
00000000: 1220 a13e 1a86 9f3e 2a8e f13e c23e 023f
00000010: ab40 af3e 8ea5 bc3e 3a77 bc3e 5e79 233f
00000020: d1ea fe3e ac2c 933e efe6 e13e 946c aa3e
00000030: 4815 d33e e094 d43e 38c3 093f bb26 0a3f
00000040: 3dbf ae3e d006 e93e 5d30 003f 5e3e 0b3f
00000050: b6e6 1e3f 1083 ad3e 89ba c53e d440 fe3e
00000060: 01eb 123f 5a1f cb3e 8c2e d13e 5e06 f73e
00000070: c00f 073f 2d23 053f 5a56 8b3e e40e ed3e
00000080: 1e05 093f fb4f 993e 4569 953e 7c32 8b3e
00000090: deac ca3e 0725 c33e e642 b33e 0fde cb3e
000000a0: 6f33 ef3e aff7 803e 0000 e13e b078 263f
000000b0: 5361 983e 78af ab3e b2a6 bf3e 73fc 0f3f
000000c0: 535d fa3e b592 bc3e ef48 893e fd63 c73e
000000d0: bd84 d73e 7b1c 9d3e 6876 9b3e ca03 ed3e
000000e0: 4e5b cd3e 37c2 d13e 52f0 bf3e f78a 183f
000000f0: a43c b43e 38c6 e03e 550d be3e de50 1d3f
0.3146978 0.31157 0.47178775 0.5087701 0.34229025 0.36845058 0.36809713 0.63857067
0.49788526 0.2874502 0.441215 0.33285964 0.41227174 0.41519833 0.53813505 0.5396535
0.34130278 0.4551301 0.50073797 0.5439204 0.62070787 0.33889055 0.38618878 0.49658835
0.5738984 0.39672357 0.40855825 0.48247045 0.5275841 0.520068 0.2721432 0.46300423
0.53523433 0.29943833 0.29181877 0.27186954 0.39585012 0.38114187 0.35011977 0.39817855
0.46718928 0.25188968 0.43945312 0.65027905 0.29761752 0.3353231 0.37431866 0.5624458
0.48899326 0.3683068 0.26813456 0.38943473 0.4209346 0.3068579 0.30363774 0.46291953
0.40108722 0.40968487 0.37488037 0.59587044 0.35202515 0.4390123 0.37119547 0.6145152

bn2.running_var f4 [64]
00000000: 83cf a33e e184 823e 2008 143f 41db f33e
00000010: 96dd af3e 6f60 cf3e 58e5 c53e f173 583f
00000020: 2788 113f 4b9b 8a3e f31f d13e 1d64 ae3e
00000030: 2039 a73e 3133 ca3e f838 1c3f 8035 ff3e
00000040: 0450 9a3e 2cd3 0c3f 8b3c e63e 7b74 063f
00000050: 129a 323f 540d 933e 873f e03e 36ec c93e
00000060: a78a 1c3f b351 9c3e 0c35 dc3e b2b7 1f3f
00000070: d69b e43e 215a 123f ba02 623e ce83 ee3e
00000080: ea42 063f c2a3 9d3e a2c4 883e 99b0 873e
00000090: 5de4 8a3e 1d32 a43e fc69 d53e d47c e13e
000000a0: 3cc6 b73e 2a5c 473e 8b97 da3e a3c5 263f
000000b0: 6ccd 7f3e ef3e 943e 6c50 ec3e 2843 053f
000000c0: 9f11 de3e 71af ba3e d1b2 573e 36dc c63e
000000d0: 8127 dc3e cc56 ae3e 8521 8b3e 6623 d83e
000000e0: d22e ad3e f7b5 033f 1bc3 e43e 44dc 523f
000000f0: ac78 813e a61e aa3e fe4f b63e be68 013f
0.31994256 0.25492004 0.578249 0.47628215 0.34348744 0.4050326 0.38651538 0.8455191
0.56848377 0.27071604 0.40844688 0.34060755 0.3266077 0.3949218 0.6102443 0.49845505
0.30139172 0.5500972 0.44968066 0.52521485 0.6976634 0.28721106 0.43798468 0.39438027
0.61149067 0.30531082 0.43009222 0.6238967 0.44650143 0.57168776 0.22071353 0.46584934
0.5244585 0.30789 0.2671252 0.2650192 0.27127352 0.32069483 0.41682422 0.4404055
0.35893428 0.19468752 0.42693743 0.6514532 0.24980706 0.28954265 0.46155107 0.520556
0.4337282 0.36461976 0.21064307 0.38839883 0.4299889 0.34050596 0.2717401 0.42214507
0.33824784 0.5144953 0.44680104 0.8236735 0.25287378 0.33226508 0.35607904 0.5055045

fc3.weight f4 [32, 64]
00000000: a3e7 8d3d bfc6 f6bd 7710 193d b77e 963d
00000010: a0ec a6bd bb01 df3d 8c38 dc3d 9b2a 033e
00000020: 22a1 21bd baf2 54bd aced 2f3d 47fc 43bd
00000030: fd95 8ebd 5edc 24bb c1f8 8dbd dbba c33c
00000040: 1625 933d 6294 903c e960 f5bd e376 febd
00000050: bc4a 943d 8bb5 f6bd 59ce 8e3c c0a5 f2bc
00000060: 3d86 713d 454d 883d 477c ed3d 795e efbd
00000070: 0116 18bd dcb7 be3b aafb 7dbd 1490 cdbd
00000080: 4c2b 42bd 77f0 143d 18b4 ec3d de5b c53d
00000090: 88d3 bc3c 5e06 5abc 2b03 73bd 114c c1bc
000000a0: 5382 073d 2b32 c73c 4c77 dabd e06a ccbd
000000b0: 3419 a43d 2319 6ebd ddf9 9e3d 3c9a 8dbc
000000c0: 24a5 803d b077 cb3d dfcc f5bc 2dce 0c3d
000000d0: c0c6 02be 45cf b1bc f670 a13d a26a 153d
000000e0: 07f2 163e e134 4dbd 86b3 183d 94e4 cbbd
000000f0: 4d5a 86bb fc3e a53d adba db3d 34f4 8e3d
00000100: 5c63 66bd 057b 26bd b763 be3d bc83 c63d
00000110: 44e9 5e3d eb1b b43d 4cd8 9f3d 3aa4 723d
00000120: feb0 87bd c408 d3bc 1058 f6bd d74d c6bc
00000130: 445c 333d b175 1ebd f670 69bc fe3d 2e3d
00000140: e39c 333d 1431 9a3d a16f 6c3d b396 babd
00000150: b244 8f3d 0721 863c 90b1 bb3d 2b17 163d
00000160: ccba 263d 5899 3abc c1ba 8a3d 574b ccbd
00000170: 2862 633d 3eac 043e 6d82 b53d 5c63 60bd
00000180: 307b 9c3c 15fd 583d 5930 8a3d aaa6 0cbb
00000190: 647b 293c d3b9 013e 7ec7 1b3e 922c 07bc
000001a0: 2575 fb3c a2f7 a6bc 9b53 bfbd ae69 953d
000001b0: 28bc bfbd 2d47 69bc b415 f6bd eeca 43bd
000001c0: d877 29bd 6466 0fbd 9ffb 0abd cf6c aabc
000001d0: 1c80 f03d 1b5d 743d 6341 b2bd fa11 b9bc
000001e0: af11 4dbd 4208 e7bd 91cc 97bd c607 56bd
000001f0: f969 dfbb 01c4 ebbd 8927 c63d 0709 6cbd
00000200: b88b dbbd 2f19 1e3d bf9f ce3d aad0 383b
00000210: a1e6 1f3e 954f d23d 6c28 a93d 97b3 cb3d
00000220: 251c c23c c230 243d 1442 083d c37c 0e3c
00000230: 474f 6cbd c62a b2bd d381 143c 0798 72bd
00000240: 8cb8 133e c50b c0bd df27 a3bc e27a a9bd
00000250: a2a4 85bc 53c9 9fbc 9afa 85bd 934c 82bd
00000260: cfd5 3fbd d792 bb3d 1a8f 3cbc 12c6 8cbc
00000270: 2b02 f9bc 5183 f7bd 6d62 a8bd 0c35 32bc
00000280: 7212 ca3d 4d40 e7bc af32 e53b 970c 023e
00000290: 4c53 f53d 6be5 d63b 2ecb 64bd 83f7 a6bd
000002a0: ba7c babd bbd2 053d 2207 c8bd be73 e7bc
000002b0: d754 e43d 5938 57bd 6b8a cfbc f1db e53b
000002c0: 3402 8fbd 6e82 dc3d 322d a3bd 24bc 7a3d
000002d0: 0f2e efbd abc2 80bd 0a82 1bbd 3342 d1bd
000002e0: da9c 6e3d 30a2 9e3d 6f3e 2d3d 1119 3a3d
000002f0: e490 be3d bab8 ed3d 401f 24bd 0ee7 95bd
00000300: 7e33 b53c 5982 0c3d e998 64bd 99e7 6f3d
00000310: fb42 3abd 1cf1 84bb 84f7 11bd a7a0 1dbd
00000320: b17b 26bd 3caf 1a3d 20dc 30bd de5b 83bd
00000330: c6c8 223d 3fe4 593d db47 213e fda9 983c
00000340: 4c40 243d ace4 bf3d 0f19 f23c e9a4 033c
00000350: e8a6 e0bd ab7d 9bbd 6483 04be c1d9 15be
00000360: 9e2d f73d 083e 46bd 98cf 08be 9d70 43bd
00000370: d71c 083e 0b96 8c3c 910c 4c3d a1fe e3bc
00000380: f924 af3d f7b7 a9bd 3018 4ebd 231b d5bb
00000390: 3452 cf3d fd97 803d 9ca4 8dbb 2766 dbbd
000003a0: 58a5 1cbc b854 2d3b d78d b23b 1ab1 093d
000003b0: 466f ecbc 0e29 503c ceb5 c4bd 126d 5b3d
000003c0: f623 aabd 2baa 6f3d 64b8 d0bd 6be1 ac3d
000003d0: 63b0 183c 5521 893d 5c24 293e 33ed 01be
000003e0: ef52 7b3d f7b8 273d 6676 df3d ab2a 5a3d
000003f0: 4a2d cb3d 3c6e a3bc 89b2 353d 3dec dbba
0.06928947 -0.120496266 0.037369218 0.07348388 -0.081506014 0.10889002 0.10752973 0.12809221
-0.03946031 -0.051989295 0.04295127 -0.047848012 -0.06962202 -0.0025155763 -0.06932212 0.02389281
0.07184808 0.01764888 -0.11981375 -0.124250196 0.07240817 -0.12046345 0.017432379 -0.029620051
0.05896591 0.06655363 0.1159597 -0.11687941 -0.03713036 0.0058202576 -0.062007584 -0.10037246
-0.047404572 0.036362138 0.11557788 0.09636663 0.023050085 -0.013307182 -0.059329193 -0.023595842
0.03308327 0.024315914 -0.10667285 -0.09981322 0.080126196 -0.05812944 0.077625014 -0.017285459
0.06281498 0.09934938 -0.030004917 0.034376312 -0.1277113 -0.02170528 0.07882874 0.036478646
0.14740764 -0.050099257 0.037280582 -0.09955707 -0.00410012 0.08068654 0.10728965 0.06980172
-0.0562471 -0.040644664 0.09296363 0.09693095 0.05442168 0.087943874 0.07804927 0.05923865
-0.066255555 -0.025761016 -0.12028515 -0.024207039 0.043789163 -0.038686458 -0.014248123 0.04253959
0.04385079 0.07528892 0.057723645 -0.09110775 0.069955245 0.01637317 0.09164727 0.03664319
0.040705487 -0.011389099 0.06773902 -0.099753074 0.05551353 0.1295633 0.08862767 -0.054782256
0.01910171 0.052975733 0.06747503 -0.0021461644 0.01034436 0.12668543 0.15212819 -0.0082503725
0.030695507 -0.020381752 -0.09342118 0.072955474 -0.0936206 -0.014238161 -0.12015858 -0.04780095
-0.041374058 -0.035009757 -0.03393137 -0.020803837 0.11743185 0.059659105 -0.08703878 -0.02259158
-0.050065693 -0.11280872 -0.07412065 -0.052253507 -0.006818053 -0.11511994 0.096755095 -0.057625797
-0.107200086 0.038598236 0.10089063 0.0028200545 0.15615322 0.10269085 0.08259663 0.099463634
0.023695061 0.04008556 0.033266142 0.008696738 -0.057692792 -0.08699565 0.009064156 -0.059227016
0.14425868 -0.09377245 -0.019916473 -0.08275391 -0.016313855 -0.019505179 -0.06541939 -0.063622616
-0.046834763 0.09158867 -0.011508727 -0.017184291 -0.030396542 -0.120855935 -0.08221898 -0.010876905
0.098667994 -0.028228903 0.0069945673 0.12700115 0.11978778 0.0065581105 -0.05585783 -0.08152678
-0.09105821 0.03267167 -0.097669855 -0.028253432 0.111489944 -0.05254397 -0.025334558 0.0070147444
-0.06982842 0.10767065 -0.07967605 0.06121458 -0.11678707 -0.0628713 -0.03796581 -0.102177046
0.058255054 0.077457786 0.04229587 0.04543406 0.093049794 0.116074994 -0.040068865 -0.07319461
0.02211928 0.034303997 -0.05580989 0.058570478 -0.045474034 -0.004057063 -0.03563644 -0.03848329
-0.040645305 0.037764773 -0.043178678 -0.06414007 0.039742254 0.053196188 0.15750067 0.018635744
0.04010038 0.093697876 0.029552964 0.008034923 -0.10969335 -0.07592329 -0.12940747 -0.14633848
0.12069248 -0.048399 -0.1336044 -0.04771482 0.13292252 0.01716139 0.04981667 -0.027831377
0.08551974 -0.08287042 -0.050316036 -0.006503479 0.10123101 0.062789895 -0.0043226015 -0.107128434
-0.009560905 0.0026448201 0.0054490375 0.033616163 -0.028861653 0.012705101 -0.09604989 0.053570814
-0.0830764 0.058511894 -0.1019142 0.084414326 0.009319398 0.06695811 0.16517776 -0.1268814
0.06135839 0.04094788 0.109112546 0.053263348 0.099207476 -0.019950025 0.044359718 -0.0016778779

fc3.bias f4 [32]
00000000: ca16 00be 4bda 523d 7364 11be 9360 9ebd
00000010: 6754 eb3c bd3c 0e3e d2cb 9fbc 7a11 ccbd
00000020: e8cc f8bb 4e4e a23d 2f1b 133e 5c2c fdbd
00000030: 8bde 9e3d 6dad 1a3c 6ae4 91bd b1dd 193d
00000040: 9ab0 e6bb 5098 08bd a27a 0fbe 8830 3b3d
00000050: 505c 7e3d 2c73 bd3d e624 c7bd b52e 6bbd
00000060: 765e 9c3b 81cf c03b 3b8e bfbd eec3 2d3d
00000070: 8089 e63d d25a c83d 6eb5 d73c 38f8 8a3d
-0.12508693 0.05147771 -0.14198475 -0.07733264 0.02872677 0.13890357 -0.019506369 -0.09964271
-0.007592786 0.07925092 0.14365838 -0.123619765 0.077572905 0.009440762 -0.07123645 0.037564937
-0.0070400955 -0.03334838 -0.14011624 0.04570058 0.062099755 0.09250483 -0.09723835 -0.05741759
0.004772003 0.0058841114 -0.093533 0.04242318 0.11256695 0.097829476 0.02633163 0.06785625

bn3.weight f4 [32]
00000000: 40d7 733f 1155 753f 9b3c 7b3f 82cf 763f
00000010: 2f5f 883f 3b89 7a3f adc7 753f f70e 813f
00000020: 9aed 7b3f 4070 803f 0ed2 6f3f d404 7c3f
00000030: 2ad1 733f a737 7a3f 6d7f 7b3f b6ff 7b3f
00000040: 3160 743f b28a 823f ef45 763f 9eaf 793f
00000050: 4f6c 783f 4e10 743f 5d26 783f ad06 803f
00000060: 0dcc 803f 6333 703f c3a3 7e3f 39fc 7b3f
00000070: 11f5 7c3f e241 803f e050 6d3f c916 743f
0.9525032 0.95832926 0.9813935 0.9641038 1.0654048 0.9786565 0.96007806 1.0082692
0.98409426 1.0034256 0.93679893 0.9844487 0.95241034 0.9774117 0.9824131 0.9843706
0.95459276 1.0198576 0.9620046 0.97533596 0.97040266 0.9533738 0.9693354 1.0002037
1.0062271 0.9382841 0.9946863 0.98431736 0.9881144 1.0020106 0.9270153 0.9534727

bn3.bias f4 [32]
00000000: 03c5 ce3d d806 b2bd 8676 84bd 798a 923d
00000010: dd52 063e 4050 a03d fbe4 c3bd 6ef0 d2bd
00000020: 94b4 eebc 2346 6fbd ff5a cd3d abc3 6ebd
00000030: 09f7 2fbd 68d0 963d 0a31 923c bbce b0bd
00000040: a8a4 ab3d 05c2 013e 1155 9e3d 2d85 d6bd
00000050: 3a58 6e3d f310 acbd 2fa3 283d 1037 9ebc
00000060: 4395 4bbc 5fcb 9abd 3905 0dbd 9a9e 67bd
00000070: 2cde ffbc cc5f f23c c0f9 99bd 6781 57bd
0.10096171 -0.086927116 -0.06467919 0.07155318 0.13117547 0.078278065 -0.09565159 -0.102997646
-0.02913884 -0.058416497 0.10027122 -0.058292072 -0.0429602 0.07363969 0.01784565 -0.08633181
0.08381015 0.12671669 0.07731069 -0.1047462 0.05818961 -0.0840167 0.04117125 -0.019313365
-0.0124257235 -0.07558321 -0.03442881 -0.05654774 -0.03123387 0.029586695 -0.07518339 -0.052613642

bn3.running_mean f4 [32]
00000000: ba61 fe3e cc79 e83e d5a3 be3e edeb 143f
00000010: ab8c eb3e 6cc0 1f3f 7a69 e63e a334 cc3e
00000020: e17e f03e cff9 f53e 91e5 263f 946f ee3e
00000030: a6c4 203f 9933 fd3e c72c 043f ff86 143f
00000040: c9ed ee3e ac80 023f 8c46 cb3e 322a 193f
00000050: d2ab 1e3f 1f27 003f f148 0d3f 1fe2 fb3e
00000060: 1c8b 0c3f ac89 0d3f 9aac fa3e 8c61 073f
00000070: 82d4 023f 1578 183f 8b0e c73e 4898 2b3f
0.49683934 0.45405424 0.3723437 0.58172494 0.4600576 0.6240299 0.45002347 0.3988391
0.469718 0.4804215 0.6519404 0.46569502 0.6280006 0.49453428 0.51630825 0.5801849
0.4666579 0.5097759 0.3970226 0.5983001 0.61980927 0.50059694 0.55189425 0.49195954
0.54899764 0.55288196 0.4895981 0.5288322 0.5110551 0.5955823 0.38878283 0.6702924

bn3.running_var f4 [32]
00000000: b556 4b3f b358 093f 00e2 ef3e af28 813f
00000010: 60b3 113f 99ed 283f c4fd e83e bc61 093f
00000020: 14a7 053f 6bcb 0d3f e67d 2a3f 1856 ef3e
00000030: 2f99 623f 19e2 ce3e 76fe 2b3f f007 fc3e
00000040: 5448 f93e 590e 233f 8ef4 203f a95c 3f3f
00000050: f18c 243f 64ae d53e 28a9 333f 171f f33e
00000060: 3d87 393f fa41 2f3f 1356 193f 2dee 0b3f
00000070: cfd1 de3e 031a 753f 4ad5 d13e 7e2e 6d3f
0.7942918 0.5365097 0.46852112 1.0090541 0.5691433 0.65987545 0.45506108 0.53664756
0.52208066 0.55388516 0.66598356 0.46745372 0.8851499 0.40406874 0.6718515 0.49224806
0.48687994 0.6369377 0.6287316 0.74750763 0.6427756 0.41734612 0.70179987 0.47484657
0.7247198 0.6846005 0.59896964 0.546603 0.43519446 0.95742816 0.4098304 0.92649066

fc4.weight f4 [3, 32]
00000000: e38e 823d eb68 f1bd 9146 1fbd 8a33 d8bc
00000010: e5b0 70bd c90f 063e 7805 a8bc 2aae 333d
00000020: 1c03 d33d 67e7 dfbd c9e2 103e 4975 b43d
00000030: 4362 c83d 513f ff3c d221 91bd 7af5 9b3d
00000040: a46f e53d f51f 1c3e 0782 063e 1cfb fdbb
00000050: 353f b8bc e50d e9bd 5457 933c 0c2d b13d
00000060: 11fc d5bc 791a ecbd 5f74 4d3d 61d8 82bd
00000070: 34e2 e63c 45f1 cb3c edf5 75bd 1833 03be
00000080: b759 d4bd 2fab b83c 49cf 7b3c 84ae 1bbd
00000090: 40e5 35be c4a0 a83c 23c2 f03d bd0f 0d3e
000000a0: 39f2 f03c db4c a539 1c32 5bbd c518 ca3d
000000b0: fd01 0f3e 8e33 ebbd d6e4 9fbc 7275 063e
000000c0: 076f 70bd a11b a23c 500a 08bd e8b5 e13d
000000d0: 2e54 663c 0a32 e43c 540b 8dbd cd2b 213d
000000e0: 29e4 f4bb 4cba fa3d 80de 2d3d ff33 8b3d
000000f0: 6191 813d 891e 453d 8dc4 d33b f8c8 793d
00000100: 7627 ac3d 3fce 97bd 85c9 1ebe c2b4 943d
00000110: 6310 1bbe 4ca4 2d3e f0bf 00bd d8ba b13d
00000120: a16d cdbd b4b0 8cbc 2509 083e aeb0 14bd
00000130: ff23 d2bd 296e adbd 3947 dc3d 19e8 c13c
00000140: e9cf e53d 402e c93d 179c 0f3d 54e0 5fbc
00000150: 4166 023e 10bc d5bd 736d c2bd aff4 15be
00000160: 9056 f4bd c9d7 12bc f046 10be d9b9 8e3d
00000170: 7d94 03be 1824 0d3e 26a1 c2bd 1a09 853d
0.0637491 -0.1178759 -0.038885657 -0.026391763 -0.05876245 0.13091959 -0.02051042 0.043867268
0.103033274 -0.10932808 0.14149012 0.08811433 0.09784367 0.031158121 -0.07086529 0.0761518
0.112029344 0.15246566 0.13135539 -0.007750882 -0.022491077 -0.11379603 0.017985977 0.0865117
-0.026121171 -0.11528487 0.05015981 -0.06388927 0.028184034 0.02489532 -0.060048986 -0.1281246
-0.10368674 0.022542564 0.015369245 -0.038008228 -0.17763233 0.020584472 0.11755779 0.13775535
0.029412376 0.00031528514 -0.053514585 0.09868006 0.13965602 -0.11484443 -0.019518297 0.1313074
-0.058699634 0.019788565 -0.03321296 0.11021024 0.014058156 0.027855892 -0.06886926 0.039348412
-0.007473488 0.122425646 0.04244852 0.06797027 0.06326557 0.048124824 0.0064626397 0.060982674
0.08405964 -0.07412385 -0.15506561 0.07261039 -0.1514297 0.16957206 -0.031433046 0.08678216
-0.10030676 -0.017174102 0.13284738 -0.036301307 -0.10260772 -0.08468277 0.10755772 0.023670243
0.11221296 0.098232746 0.03506097 -0.013664324 0.1273432 -0.10436261 -0.09493532 -0.1464412
-0.11930573 -0.00896258 -0.1408956 0.069690414 -0.12849613 0.137833 -0.09503393 0.064958766

fc4.bias f4 [3]
00000000: 9c10 0f3e 79fb 64be d771 033e
0.1397118 -0.22361554 0.12836395
