model/saved_model/premier_league_model.pth (torch, 359764 bytes, 48 tensors)

fc1.weight f4 [128, 18]
0	0xbe079d56	-0.13243613
1	0x3e7cf865	0.2470413
2	0x3e8d5b9a	0.2760895
3	0xbe5ddd29	-0.21666397
4	0xbdf04a51	-0.11732925
5	0xbed214d6	-0.41031522
6	0xbdc83c61	-0.09777141
7	0xbbb954cb	-0.00565586
8	0x3e4e68dd	0.2015719
9	0xbe38cc9e	-0.18046805
10	0x3e2cc364	0.1687141
11	0x3d928bd6	0.07155578
12	0x3ea3db62	0.32003313
13	0x3da6e695	0.08149449
14	0xbdc55dee	-0.09637056
15	0xbcfb00f6	-0.030640107
16	0x3eb662c6	0.35622233
17	0xbd59bc7e	-0.053158276
18	0x3e13a63a	0.14418879
19	0xbe3171c7	-0.17328559
20	0xbd95f633	-0.073223494
21	0xbee1fabc	-0.44136608
22	0xbd450ce1	-0.048107985
23	0xbbe8612a	-0.007091661
24	0x3e57a031	0.21057202
25	0x3e74004d	0.2382824
26	0x3d83d550	0.064371705
27	0xbdb26347	-0.08710342
28	0xbe1ff116	-0.1561931
29	0x3e06e172	0.13171938
30	0xbe07daf5	-0.13267119
31	0x3e0bfea8	0.13671362
32	0xbe037c74	-0.12840444
33	0x3e3dcc9a	0.1853508
34	0xbede154c	-0.43375623
35	0x3d3f29b6	0.046670638
36	0x3e5374e5	0.2065006
37	0x3ce79e17	0.028273625
38	0xbdfc767d	-0.12327287
39	0xbe90f1cd	-0.2830948
40	0xbd679d5f	-0.056546565
41	0x3e04d6ec	0.12972611
42	0x3cdd5f1b	0.027022889
43	0x3e2ffe4e	0.17186853
44	0xbdf955fb	-0.121746026
45	0x3e109d5b	0.14122526
46	0xbdecd766	-0.115645215
47	0x3c9e106e	0.019294944
48	0xbe37c34b	-0.17945592
49	0x3ceaa377	0.0286424
50	0xbe1b3202	-0.15155795
51	0x3e157c67	0.14598237
52	0xbf04377c	-0.5164716
53	0x3ee39afb	0.44454178
54	0xbde13d28	-0.10997993
55	0x3df28735	0.11842195
56	0x3e975ea0	0.2956438
57	0x38bed67c	9.099857e-05
58	0xbdce33ee	-0.100684986
59	0x3d973a1c	0.0738413
60	0x3cd10034	0.025512792
61	0xbe6b4279	-0.22974576
62	0xbe65bf24	-0.22436196
63	0xbd6a6354	-0.057223633
64	0x3c969bb0	0.018384784
65	0xbe471aff	-0.19443892
66	0xbd34e7a8	-0.044166237
67	0xbcdade52	-0.026717339
68	0xbd9daa9c	-0.07698557
69	0xbf26ca25	-0.651522
70	0xbea946ce	-0.33061832
71	0xbedd74dc	-0.4325322
72	0x3ea1ed9f	0.31626603
73	0xbe9aaa2c	-0.30207956
74	0xbe15b225	-0.14618738
75	0xbe1d1e2a	-0.15343538
76	0xbc22f6b0	-0.00994651
77	0x3e009666	0.12557372
78	0xbddf8871	-0.10914696
79	0x3d336cf9	0.043805096
80	0xbc66a5af	-0.014077588
81	0xbdd0465c	-0.1016967
82	0xbd92eec7	-0.071744494
83	0x3e25592c	0.16147298
84	0x3e7b0c52	0.24516419
85	0x3e380118	0.17969167
86	0x3e730ce8	0.23735392
87	0xbe3e57d7	-0.18588196
88	0xbe6198fa	-0.22031012
89	0xbeb4e986	-0.35334414
90	0x3e14e809	0.1454164
91	0xbe05e53d	-0.13075729
92	0xbe347303	-0.17621998
93	0x3e42d235	0.190255
94	0x3cc7bdff	0.02438259
95	0xbe12a923	-0.14322333
96	0x3d3bf7de	0.04589068
97	0xbdaf8877	-0.085709505
98	0x3e0527da	0.13003483
99	0xbd49106d	-0.04908793
100	0xbe48f62f	-0.19625162
101	0x3e42034b	0.18946569
102	0xbe940270	-0.2890811
103	0x3e482627	0.19545804
104	0xbebfd210	-0.37464952
105	0xbe3b5d6f	-0.18297361
106	0x3e360fab	0.17779414
107	0xbb040cff	-0.0020149348
108	0xbe02049f	-0.12697075
109	0x3d0af923	0.033929
110	0xbd7a8a6c	-0.061167166
111	0xbe0cd882	-0.13754466
112	0x3e2dbce4	0.16966587
113	0x3dec0409	0.11524207
114	0x3d825ccd	0.063653566
115	0x3e9f8c16	0.31161565
116	0xbe850fa6	-0.259885
117	0xbe3f8005	-0.1870118
118	0x3e9a3fbf	0.3012676
119	0xbd2135c2	-0.039357908
120	0xbe00ed50	-0.12590528
121	0xbe6935f1	-0.22774483
122	0xbe847c65	-0.25876155
123	0x3de53732	0.11192168
124	0xbe8cac2d	-0.2747511
125	0x3e545a65	0.20737608
126	0x3c9e3b23	0.019315308
127	0xbd89bc0a	-0.06725319
128	0x3d787d98	0.06066665
129	0x3ec0c2b3	0.37648544
130	0xbd859486	-0.06522469
131	0x3e67ce71	0.22637345
132	0xbd5dc397	-0.054141607
133	0xbe0891fb	-0.13336937
134	0x3ba04c2a	0.004891892
135	0xbe321fb0	-0.173949
136	0x3eef8c94	0.4678694
137	0xbe136672	-0.14394549
138	0x3e01ff2f	0.12695001
139	0xbd124886	-0.035713695
140	0xbd24a716	-0.040198408
141	0x3e905850	0.28192377
142	0x3e9fb4fb	0.31192765
143	0x3c195866	0.009359455
144	0xbdc86665	-0.09785155
145	0x3e20eb54	0.1571477
146	0xbbbf9cb6	-0.005847539
147	0x3e96955f	0.29410836
148	0x3d747605	0.059682865
149	0x3c0beb46	0.00853998
150	0xbe4c2197	-0.19934689
151	0xbd852404	-0.0650101
152	0xbb6757e4	-0.003530019
153	0xbdbd7411	-0.092506535
154	0xbecc5831	-0.39911035
155	0xbe0bb3a7	-0.1364275
156	0x3d7b5937	0.06136438
157	0x3e301173	0.17194156
158	0xbd1b680f	-0.037941035
159	0x3cb11d94	0.02162055
160	0x3e4afd7e	0.19823262
161	0xbeda0d23	-0.42588148
162	0xbe6e558f	-0.23274826
163	0x3e327ba1	0.17429973
164	0x3e0275f3	0.12740307
165	0xbe1ca49f	-0.15297173
166	0x3cbd586e	0.023113456
167	0xbca76dc4	-0.020438083
168	0xbe4aa1fb	-0.19788353
169	0xbd5a498d	-0.0532928
170	0xbdc56b5a	-0.09639616
171	0x3e7dbc4b	0.2477886
172	0x3e904291	0.28175786
173	0xbf05bdac	-0.5224254
174	0xbe405e23	-0.1878591
175	0xbe360ced	-0.17778368
176	0xbe3db7f3	-0.18527202
177	0xbdbace7d	-0.09121416
178	0xbd8ff73b	-0.07029577
179	0x3d84564c	0.06461772
180	0x3e811829	0.25213745
181	0x3e455654	0.19271213
182	0x3dfec3c2	0.124396816
183	0xbdb3e07b	-0.087830506
184	0xbd20d4c7	-0.03926542
185	0x3e16b23d	0.1471643
186	0x3cbdec83	0.023184067
187	0xbe1eca01	-0.15506746
188	0xbe3df0d9	-0.18548907
189	0x3eca6130	0.39527273
190	0xbe8d8002	-0.27636725
191	0x3c1153e9	0.008870103
192	0xbd9d342d	-0.07675967
193	0xbe95be2e	-0.29246658
194	0x3e1f3dac	0.1555087
195	0xbe1f4ade	-0.15555903
196	0xbcd01752	-0.025401745
197	0x3e5fc62a	0.21852937
198	0x3e1602ab	0.14649455
199	0xbe2faefb	-0.17156594
200	0xbe3da1f8	-0.18518817
201	0xbee30249	-0.4433768
202	0xbe315d96	-0.17320856
203	0xbe0a000a	-0.13476577
204	0xbe69268a	-0.22768608
205	0x3e467ef8	0.19384372
206	0x3dfa750b	0.122293554
207	0x3d16fb09	0.0368605
208	0x3ead3d38	0.3383577
209	0x3dd0c641	0.10194064
210	0x3e16dfe2	0.14733842
211	0x3e0b3af0	0.13596702
212	0x3d129184	0.035783306
213	0x3e5a10a4	0.2129541
214	0xbde2386f	-0.1104592
215	0x3eb7a76e	0.35869926
216	0x3ce2a265	0.027665326
217	0xbdb41138	-0.08792347
218	0x3ec42519	0.38309553
219	0xbdae1cf6	-0.085016176
220	0xbd4be586	-0.049779437
221	0x3e09120d	0.13385792
222	0xbcf4c35d	-0.029878313
223	0xbe51c299	-0.2048439
224	0xbe37a68d	-0.17934628
225	0x3e94a2d2	0.29030472
226	0x3d9ed689	0.07755763
227	0x3db5a690	0.0886966
228	0x3e822409	0.25418118
229	0x3dc1738d	0.09445868
230	0xbe42f255	-0.19037755
231	0x3e6dadd6	0.23210844
232	0xbdff0611	-0.12452329
233	0x3ea8ce26	0.3296978
234	0x3d51e4ba	0.05124352
235	0xbe52ee1a	-0.20598641
236	0x3b7fdd15	0.0039041687
237	0xbe94e33b	-0.29079613
238	0xbdb65fc0	-0.089049816
239	0xbded56fc	-0.115888566
240	0x3e4c2bbb	0.19938557
241	0x3e263821	0.16232349
242	0xbbd9aa9a	-0.0066426517
243	0xba8f27ec	-0.0010921932
244	0xbb4f030c	-0.003158751
245	0x3c304e10	0.010760799
246	0xbe5d2df7	-0.21599565
247	0x3d843c9a	0.06456871
248	0xbdef0f64	-0.116728574
249	0xbe07a116	-0.13245043
250	0xbf572b22	-0.8405019
251	0x3ec74371	0.3891864
252	0x3e5708ff	0.20999525
253	0x3e1d3df9	0.15355672
254	0xbd7ecacd	-0.062205125
255	0x3e8919b7	0.2677743

fc1.bias f4 [128]
0	0x390fc0cd	0.00013709367
1	0x384c66ca	4.873312e-05
2	0x3762d308	1.3519784e-05
3	0x36b1aeac	5.2953455e-06
4	0xb854f7a2	-5.0775365e-05
5	0xb8b1a4ac	-8.47069e-05
6	0xb79145bb	-1.7317818e-05
7	0x380f3bb2	3.4149452e-05
8	0x38e34f00	0.000108389184
9	0x383ff371	4.576467e-05
10	0x38402b09	4.5816447e-05
11	0x3854b312	5.071151e-05
12	0xb7c9a3c2	-2.4037323e-05
13	0xb7fa75bd	-2.9857149e-05
14	0xb7874c2a	-1.612872e-05
15	0x38c02614	9.162366e-05
16	0x3863a84e	5.4277763e-05
17	0x36f6b1c0	7.352064e-06
18	0xb8e21296	-0.00010779982
19	0x3706f6d4	8.044492e-06
20	0xb843f8dc	-4.672339e-05
21	0xb85dfb9a	-5.292483e-05
22	0x38eff2b4	0.00011441615
23	0xb4b69c00	-3.4013647e-07
24	0xb8de3303	-0.000105952866
25	0x3955d2d7	0.00020391807
26	0x38fcaafe	0.00012048146
27	0x37167a82	8.96922e-06
28	0x38ca4fda	9.646984e-05
29	0xb7d78c50	-2.5695335e-05
30	0xb97b29c4	-0.00023952784
31	0xb7078ebb	-8.079859e-06
32	0xb7870bc9	-1.6098742e-05
33	0x383f7853	4.565001e-05
34	0xb7379505	-1.0942346e-05
35	0x37b860a4	2.1979511e-05
36	0xb52ab9c0	-6.3600237e-07
37	0x3998b4e7	0.00029126482
38	0x3770d349	1.4354308e-05
39	0xb8a87100	-8.031912e-05
40	0x38818f0f	6.177846e-05
41	0x37f696db	2.9395733e-05
42	0x388225af	6.205902e-05
43	0x37c0995e	2.29596e-05
44	0x388dae34	6.755852e-05
45	0xb8964fa8	-7.1673945e-05
46	0x3672f783	3.620488e-06
47	0x394ada2c	0.00019345497
48	0x38e05dc9	0.00010698621
49	0x38902f94	6.875317e-05
50	0x38238d68	3.8993923e-05
51	0xb8953105	-7.114004e-05
52	0x388a6629	6.5993816e-05
53	0xb8aa90b2	-8.133183e-05
54	0x390e2961	0.0001355759
55	0xb8683276	-5.5360106e-05
56	0xb80429a1	-3.1510022e-05
57	0xb8005b2e	-3.0602496e-05
58	0xb798c70a	-1.8212497e-05
59	0xb7a76fa7	-1.9959944e-05
60	0x38dfd7a6	0.00010673636
61	0xb7b0527a	-2.1019241e-05
62	0x390225c8	0.0001241184
63	0x37eb534f	2.8052977e-05
64	0x392d9f8e	0.00016558004
65	0xb86812be	-5.5330565e-05
66	0x38f4ee8f	0.00011679262
67	0xb8a2502c	-7.739695e-05
68	0x38063dbc	3.2005584e-05
69	0xb8c07b16	-9.1782e-05
70	0xb8852b40	-6.34999e-05
71	0x376dfa36	1.4184558e-05
72	0x38db0dd4	0.000104453095
73	0xb72f95b2	-1.04656665e-05
74	0x38caac64	9.664221e-05
75	0xb9b12e2e	-0.00033794477
76	0xb7e5ce54	-2.7395006e-05
77	0x37bbf85d	2.240779e-05
78	0xb7a44791	-1.958365e-05
79	0xb6a91244	-5.038719e-06
80	0xb8056d48	-3.1811447e-05
81	0x381f6c6d	3.8009533e-05
82	0xb6b09b60	-5.2632968e-06
83	0xb8ba1c84	-8.8744826e-05
84	0x383cb557	4.499158e-05
85	0x385609e8	5.1030802e-05
86	0x36f8ca32	7.4145146e-06
87	0xb88ccb93	-6.713639e-05
88	0xb8e6caa0	-0.000110049965
89	0xb8e714ff	-0.00011018849
90	0x38981d5a	7.253392e-05
91	0x3935f370	0.00017352193
92	0xb813b135	-3.5212568e-05
93	0xb836f1e5	-4.3617463e-05
94	0x390c12e8	0.00013358484
95	0x38889854	6.513359e-05
96	0xb8a4ad00	-7.852353e-05
97	0xb97b075f	-0.00023939971
98	0xb837ef0b	-4.3853226e-05
99	0xb88ba3ee	-6.658571e-05
100	0xb89d90dc	-7.5133255e-05
101	0xb6f603c5	-7.33181e-06
102	0x3826f91e	3.9809493e-05
103	0xb91fd9d8	-0.00015244575
104	0x3845e2a2	4.717953e-05
105	0x387caa88	6.02403e-05
106	0xb88b1f78	-6.633898e-05
107	0xb6a20378	-4.82838e-06
108	0x38d4e700	0.00010151975
109	0xb7fa344c	-2.9826675e-05
110	0x37760886	1.4664727e-05
111	0x3830d4da	4.2159903e-05
112	0x3775ba23	1.4646476e-05
113	0xb7b323a4	-2.135506e-05
114	0x37c7100f	2.3730126e-05
115	0xb88233ed	-6.208555e-05
116	0x38dcc69a	0.0001052741
117	0x378d7223	1.6861659e-05
118	0x38ae2a08	8.3047955e-05
119	0x37c7095c	2.3727007e-05
120	0xb91cd0f8	-0.00014955166
121	0xb7b5f8f0	-2.1692802e-05
122	0x3873ff03	5.8173213e-05
123	0xb6204fa0	-2.3888206e-06
124	0x3961a2d6	0.00021518333
125	0xb6056718	-1.9878553e-06
126	0xb87aa510	-5.975837e-05
127	0xb8504c25	-4.966198e-05

fc2.weight f4 [128, 128]
0	0xbea73465	-0.3265716
1	0x3e3ee948	0.18643677
2	0x3e917888	0.2841227
3	0x3d22744d	0.039661694
4	0x3b905716	0.0044049127
5	0x3b7bb533	0.0038407564
6	0xbdaec11e	-0.08532928
7	0x3d82a0c7	0.06378322
8	0x3da94423	0.08264949
9	0x3d30776b	0.043082636
10	0x3d851752	0.064985886
11	0x3e057004	0.13031012
12	0xbc90236e	-0.01759502
13	0x3e11d48b	0.14241235
14	0x3d9a1636	0.07523768
15	0x3df7fad1	0.12108386
16	0xbda32818	-0.07966632
17	0x3e27d1bf	0.16388606
18	0x3dacc86f	0.08436667
19	0x3d9208d1	0.07130588
20	0x3cc5137b	0.02405714
21	0xbe914b07	-0.28377554
22	0xbe5f8733	-0.21828918
23	0xbb0080be	-0.0019607986
24	0xbca5c301	-0.020234587
25	0x3e4c4dc3	0.19951539
26	0xbea49bd0	-0.32150126
27	0x3b82d2ec	0.003992429
28	0x3e24beee	0.16088459
29	0x3e9bf2d7	0.3045871
30	0xbea6c422	-0.32571512
31	0x3d3e7e51	0.046507183
32	0x3d6591c8	0.05604723
33	0xbe1ef5c8	-0.15523446
34	0x3cef09c1	0.029179456
35	0xbe2dcb86	-0.1697217
36	0x3c70e935	0.014704038
37	0x3cf9a53d	0.0304743
38	0xbdf2e9e3	-0.118610166
39	0x3d86ba10	0.06578457
40	0xbc7f62f2	-0.015587555
41	0xbcc75857	-0.024334116
42	0x3dce16e1	0.100629576
43	0xbe088882	-0.13333324
44	0xbcd8548b	-0.0264075
45	0xbe59a99d	-0.21256109
46	0xbe132f56	-0.14373526
47	0x3d4300e0	0.047608256
48	0xbd13b512	-0.036061354
49	0x3c13f848	0.009031363
50	0xbeab1a28	-0.33418393
51	0xbcc8d104	-0.024513729
52	0xbd03a264	-0.03213729
53	0xbc0b1585	-0.008489017
54	0xbe217cad	-0.15770216
55	0x3dd20c86	0.10256295
56	0xbd9bece7	-0.07613545
57	0x3ce61865	0.028087804
58	0xbd28bbdc	-0.04119478
59	0xbe367cbf	-0.17821024
60	0x3d01f7fa	0.03173063
61	0xbeaec304	-0.3413316
62	0x3dab5710	0.08366215
63	0xbd10833f	-0.035281416
64	0x3ca1d709	0.019755857
65	0xbd683db5	-0.056699473
66	0x3d8485d5	0.06470839
67	0x3e8e082c	0.2774061
68	0xbedd20ad	-0.43188992
69	0xbe2428ca	-0.16031185
70	0x3e3ad518	0.18245351
71	0xbd98f2e6	-0.07468204
72	0xbdfc9fab	-0.12335142
73	0xbdfc2fa4	-0.12313774
74	0x3ded5dbf	0.11590146
75	0x3eb5592b	0.35419592
76	0xbd32d710	-0.04366213
77	0x3e42d63a	0.19027033
78	0xbe8be474	-0.27322733
79	0xbe6b0e24	-0.22954613
80	0x3de2fa93	0.110829495
81	0xbd8dcef5	-0.069242395
82	0x3e584675	0.21120627
83	0x3e7c9904	0.24667746
84	0xbe6425e7	-0.22280084
85	0x3cac301d	0.021019036
86	0x3de75fbb	0.11297556
87	0xbe2b7a1d	-0.16745801
88	0xbdd8c397	-0.10584181
89	0xbc9ed364	-0.019387908
90	0x3e19a3d0	0.15003896
91	0x3db10561	0.08643604
92	0x3df423b1	0.1192087
93	0xbe468351	-0.1938603
94	0xbe876bc9	-0.2644942
95	0x3dbc1276	0.09183209
96	0xbe362acc	-0.17789763
97	0x3d260f1c	0.040541753
98	0xbe20bea0	-0.15697718
99	0x3db9b1ef	0.09067141
100	0x3dbbb6e9	0.09165747
101	0xbd8e9b9b	-0.06963273
102	0xbeae4245	-0.34034935
103	0xbe350418	-0.17677343
104	0x3c3b1a7f	0.011419891
105	0x3d069acb	0.032862466
106	0xbe0dfac2	-0.13865188
107	0xbe614a4b	-0.22000997
108	0x3ce71321	0.028207364
109	0x3d920e4c	0.07131633
110	0xbe203114	-0.15643722
111	0xbd704a0c	-0.058664367
112	0xbd4dcd7a	-0.050244786
113	0xbde4bd78	-0.11168951
114	0xbe8374f8	-0.25675178
115	0xbeb3547c	-0.35025394
116	0x3d9bdfe2	0.07611062
117	0x3d843e6c	0.064572185
118	0xbd4833a6	-0.04887738
119	0xbdcf152a	-0.101114586
120	0xbc143d0c	-0.009047758
121	0x3d270ffa	0.04078672
122	0xbd947903	-0.07249644
123	0x3d7c47ca	0.0615919
124	0x3e8ca78e	0.27471584
125	0xbe212887	-0.15738116
126	0x3e0755fb	0.13216393
127	0xbd9b5b9f	-0.07585835
128	0x3c8c6a20	0.017140448
129	0xbe3720fe	-0.1788368
130	0x3d4e95f5	0.05043598
131	0x3ea9d888	0.33173013
132	0xbe0beba4	-0.13664109
133	0x3dee9934	0.11650315
134	0xbec7d950	-0.39032984
135	0x3deddcc0	0.1161437
136	0x3e3f3aba	0.18674746
137	0xbd492603	-0.049108516
138	0xbe7cdbe9	-0.24693264
139	0xbde8ee1a	-0.11373539
140	0xbea7d872	-0.32782322
141	0xbd917cc0	-0.07103872
142	0xbd048050	-0.03234893
143	0x3d3eb078	0.046555012
144	0x3c93b7db	0.018032005
145	0xbdb85489	-0.09000499
146	0xbe929ff7	-0.28637668
147	0xbe2843e0	-0.16432142
148	0x3dc24794	0.09486309
149	0xbe832589	-0.25614575
150	0x3d9b352c	0.07578501
151	0x3e07e289	0.1327001
152	0xbd8abdbe	-0.06774472
153	0xbd8405eb	-0.06446441
154	0xbda5972d	-0.08085475
155	0xbe22304c	-0.15838736
156	0x3daa6a39	0.083210416
157	0xbdc6791b	-0.09691068
158	0xbb01bb31	-0.0019795413
159	0x3da7e517	0.08197992
160	0x3e0d52d9	0.13801135
161	0xbe9b7ec0	-0.3037014
162	0xbd72e91b	-0.059304338
163	0xbdff8ebe	-0.12478398
164	0xbe392935	-0.18082125
165	0xbd09ad40	-0.03361249
166	0xbdab9d3e	-0.08379601
167	0x3e10954f	0.14119457
168	0xbe1d3a58	-0.15354288
169	0x3d833bc7	0.06407886
170	0x3c574c45	0.013140743
171	0xbd231c42	-0.03982187
172	0xbe857e05	-0.26072708
173	0x3dc703b7	0.097175054
174	0xbe58a0a9	-0.21155037
175	0x3dc7596a	0.09733851
176	0xbe28bf6e	-0.16479275
177	0x3cf9aac3	0.030476933
178	0xbca82b2c	-0.020528398
179	0x3cffa33d	0.031205768
180	0x3e23991f	0.1597638
181	0x3cff8e39	0.031195747
182	0xbe80ff7f	-0.25194928
183	0x3cfbaba5	0.030721495
184	0x3ddf1e80	0.10894489
185	0x3cc12daa	0.023581345
186	0xbe81ac80	-0.2532692
187	0x3e10ae71	0.14129044
188	0xbd3b42cd	-0.045718003
189	0xbd8be06b	-0.06829914
190	0xbacfa067	-0.001584065
191	0x3b692cf3	0.003557977
192	0x3d27fe47	0.041013982
193	0xbc0eae2f	-0.008708521
194	0xbce6c672	-0.028170798
195	0x3e2b0139	0.16699685
196	0xbde0e82a	-0.10981782
197	0xbd3c5693	-0.045981
198	0xbe1464ee	-0.14491627
199	0x3c51fd42	0.012816729
200	0x3d294f81	0.041335586
201	0xbf2746c5	-0.6534236
202	0xbc77960a	-0.015111456
203	0x3d90e40a	0.07074745
204	0xbe5957c2	-0.21224883
205	0x3e31cee4	0.17364079
206	0xbe2f5381	-0.17121698
207	0xbe4d1d92	-0.20030811
208	0xbc32bc1a	-0.010909105
209	0x3d83e55e	0.06440233
210	0x3e3d4acd	0.18485565
211	0x3bf15aee	0.007365576
212	0x3dd4e070	0.103943706
213	0x3d4bc754	0.04975064
214	0x3dada19c	0.0847809
215	0xbcb89e47	-0.02253641
216	0xbdc271fa	-0.094943956
217	0x3d93fff3	0.07226553
218	0xbeab819b	-0.3349732
219	0x3d89248a	0.066964224
220	0x3dec0689	0.11524684
221	0x3dea8a35	0.11452142
222	0x3c75f4d5	0.015011986
223	0xbe8351b1	-0.25648263
224	0xbc5a56cd	-0.013326359
225	0xbe714c81	-0.2356434
226	0x3c346328	0.011009969
227	0x3dd623df	0.104560606
228	0xbbc8f596	-0.0061327918
229	0x3e29b457	0.165727
230	0x3ded01b9	0.11572594
231	0x3dd4eeb8	0.103970945
232	0xbd1b50c0	-0.037918806
233	0xbdd8c240	-0.10583925
234	0xbe5ca69b	-0.2154793
235	0x3dd00d5a	0.101587966
236	0x3c5a8bf1	0.013339029
237	0x3e2648ae	0.16238663
238	0xbc7562e6	-0.0149771925
239	0x3dddbd83	0.10827162
240	0xbe08643e	-0.1331949
241	0xbd3c6066	-0.04599037
242	0x3d41e445	0.047336835
243	0xbe02f50f	-0.12788795
244	0x3e35c3c5	0.17750461
245	0xbe24a3a5	-0.1607805
246	0xbdcb06ef	-0.09913432
247	0x3c6a698c	0.014307391
248	0x3da04efd	0.07827566
249	0xbe88ff5c	-0.26757324
250	0x3e0c413c	0.1369676
251	0xbebe87f0	-0.37213087
252	0xbecb2442	-0.396761
253	0xbd8a3e47	-0.0675016
254	0x3d8a80ee	0.06762873
255	0x3d05db0c	0.032679603

fc2.bias f4 [128]
0	0xb5a3cc28	-1.2203864e-06
1	0xb76a416c	-1.3962719e-05
2	0xb82d060c	-4.1252046e-05
3	0x36ebb39a	7.024454e-06
4	0x38cc7928	9.750045e-05
5	0xb6c72698	-5.935155e-06
6	0x36f28c4c	7.2284947e-06
7	0x37860065	1.5974229e-05
8	0x3801bace	3.0929972e-05
9	0x381ebc4f	3.784551e-05
10	0x372da2ec	1.0349537e-05
11	0x382e9368	4.1622116e-05
12	0xb820bacd	-3.8320944e-05
13	0xb6c00e30	-5.7236975e-06
14	0xb74765fd	-1.188507e-05
15	0x38500d13	4.960324e-05
16	0xb81ab7a1	-3.688748e-05
17	0xb841b76c	-4.618561e-05
18	0x37912b06	1.7305381e-05
19	0xb8b9802f	-8.8453635e-05
20	0xb890ba3c	-6.901144e-05
21	0x37f57107	2.9258908e-05
22	0xb696e7a0	-4.497313e-06
23	0x3876e64d	5.8865455e-05
24	0xb7c63657	-2.3628743e-05
25	0xb84073e7	-4.588431e-05
26	0xb879d1de	-5.956168e-05
27	0x37f3d03c	2.9064824e-05
28	0x378f54f0	1.708648e-05
29	0xb808c448	-3.2607728e-05
30	0x376300aa	1.3530409e-05
31	0xb85f41f3	-5.3228763e-05
32	0xb71b2c7b	-9.249076e-06
33	0x36452830	2.937868e-06
34	0x37d026bc	2.481357e-05
35	0xb870f22c	-5.7446e-05
36	0x371986bc	9.150881e-06
37	0x331e6760	3.688126e-08
38	0xb7a871c2	-2.0080133e-05
39	0xb8bac097	-8.905044e-05
40	0xb637a718	-2.7366386e-06
41	0xb74f558e	-1.2358081e-05
42	0xb851dd5c	-5.003564e-05
43	0x38063b69	3.200342e-05
44	0xb9134e70	-0.00014048233
45	0x3803625a	3.132443e-05
46	0x384aee3f	4.8382437e-05
47	0xb8131890	-3.5070407e-05
48	0x37dfcebd	2.6679942e-05
49	0xb756cb13	-1.2802676e-05
50	0xb7a3e29f	-1.9536643e-05
51	0x37c5aa3b	2.35635e-05
52	0xb6bdcc66	-5.656434e-06
53	0x38c6b302	9.4747185e-05
54	0xb725654b	-9.8583505e-06
55	0x377a44f6	1.4917217e-05
56	0x37f57855	2.926231e-05
57	0x388b1bb6	6.633198e-05
58	0x381a8ad6	3.6845762e-05
59	0xb867e3a5	-5.5286702e-05
60	0x38a59d25	7.8970836e-05
61	0xb93198b8	-0.00016936928
62	0xb70d7abf	-8.432834e-06
63	0x36a26870	4.8401344e-06
64	0xb74fb39a	-1.2379978e-05
65	0x38a6a1ba	7.945621e-05
66	0xb8e41da8	-0.00010877411
67	0x37562758	1.2764554e-05
68	0x3752cd7c	1.25648185e-05
69	0xb7dfc636	-2.667597e-05
70	0xb8caa028	-9.661942e-05
71	0xb6ca3022	-6.0256725e-06
72	0xb7925140	-1.7442391e-05
73	0x38f4caee	0.00011672625
74	0x3701e292	7.741752e-06
75	0x3768b442	1.3870247e-05
76	0x387e90e7	6.069327e-05
77	0x38b2d2d8	8.526974e-05
78	0x3849a739	4.8077873e-05
79	0xb7850a2f	-1.5859578e-05
80	0xb89971ca	-7.3168034e-05
81	0xb64fb340	-3.094974e-06
82	0x387abc6c	5.9780126e-05
83	0x38a3d890	7.8127836e-05
84	0x36cde4ea	6.136125e-06
85	0xb5fe7c2c	-1.8960613e-06
86	0xb6bd9b27	-5.650701e-06
87	0xb85a7a8f	-5.2089392e-05
88	0x3815e6b9	3.5739246e-05
89	0xb85df651	-5.2919906e-05
90	0x386481e3	5.4480402e-05
91	0xb88abf81	-6.616023e-05
92	0xb7bb6ae6	-2.2341916e-05
93	0xb6c239a0	-5.788359e-06
94	0x363b8cd4	2.7947144e-06
95	0x37a39f1a	1.9505202e-05
96	0xb70e2663	-8.472797e-06
97	0xb860905b	-5.3540203e-05
98	0x385e13f0	5.2947493e-05
99	0xb793a0a4	-1.759857e-05
100	0xb811b5f7	-3.4740162e-05
101	0xb70233ba	-7.760647e-06
102	0xb75b1305	-1.30578455e-05
103	0x38892e4a	6.541291e-05
104	0x376e64ed	1.4209404e-05
105	0xb7334c6e	-1.0687027e-05
106	0xb8a1e5e0	-7.719896e-05
107	0xb64fbc90	-3.0955161e-06
108	0x387514b1	5.8431822e-05
109	0xb7db9f32	-2.6180966e-05
110	0xb81ab645	-3.6886213e-05
111	0x38e6295c	0.000109749584
112	0xb876df06	-5.8858677e-05
113	0xb8468b22	-4.7336456e-05
114	0x37083194	8.117775e-06
115	0x380c8c7a	3.350943e-05
116	0x375bc0d0	1.309831e-05
117	0x36e29a16	6.753263e-06
118	0xb83d2240	-4.509301e-05
119	0xb82fc2bc	-4.1904612e-05
120	0x37c2b145	2.320915e-05
121	0xb7ebd4b3	-2.8113229e-05
122	0x37d424fb	2.528959e-05
123	0xb87c78a5	-6.019384e-05
124	0x3908da98	0.00013051403
125	0xb87946da	-5.9432212e-05
126	0xb8dbcb72	-0.000104806284
127	0xb74a5efc	-1.20622535e-05

fc3.weight f4 [64, 128]
0	0xbdc0e655	-0.09418932
1	0x3d837896	0.06419484
2	0xbea4e988	-0.3220942
3	0x3d1e346d	0.038624216
4	0x3dc45755	0.0958697
5	0xbe619592	-0.22029713
6	0xbdb35db4	-0.08758107
7	0xbc0249ac	-0.007952135
8	0xbcf07d16	-0.02935652
9	0xbe48486d	-0.19558878
10	0xbdb43c54	-0.08800569
11	0xbe0b692c	-0.13614339
12	0xbe2f657e	-0.1712856
13	0x3e1eaca8	0.1549555
14	0x3da28626	0.07935743
15	0x3dce3548	0.10068756
16	0xbeabd080	-0.3355751
17	0xbe594ded	-0.21221133
18	0xbde80c5d	-0.11330483
19	0xbdc8b75d	-0.09800599
20	0xbdd97a2e	-0.10619007
21	0x3d33cfba	0.043899275
22	0x3cb6ceb6	0.022315364
23	0xbdb11eaf	-0.086484306
24	0x3e9d2e59	0.30699423
25	0xbea181cb	-0.31544337
26	0x3e0c783e	0.13717744
27	0xbd6fa4c9	-0.05850676
28	0xbdfe99a8	-0.12431651
29	0xbdf0a3d4	-0.11749998
30	0x3d08de35	0.03341504
31	0x3db3b8d3	0.08775487
32	0xbe39d091	-0.18145968
33	0xbd738562	-0.059453376
34	0xbe3e4a25	-0.18582971
35	0xbdf0716e	-0.11740385
36	0x3d7315cc	0.05934696
37	0xbc7b1994	-0.0153259225
38	0xbdaa7338	-0.083227575
39	0x3bc5b0af	0.006033025
40	0xbea18aa9	-0.31551102
41	0xbd12cd6d	-0.03584044
42	0xbe6f1dea	-0.23351255
43	0x3a415672	0.0007375247
44	0xbe03d291	-0.12873293
45	0xbca6fe01	-0.02038479
46	0xbc5e1cc3	-0.013556662
47	0x3e12ac0e	0.14323446
48	0x3ce86d13	0.028372323
49	0x3cd53793	0.026027476
50	0x3d3ad65a	0.045614578
51	0xbe1f5759	-0.15560664
52	0xbe4d7605	-0.20064552
53	0xbe7756ae	-0.2415416
54	0x3dcae0a0	0.09906125
55	0xbe3771ac	-0.17914456
56	0xbbdd5af6	-0.006755228
57	0xbba3f964	-0.005004095
58	0x3d8e1c9b	0.0693905
59	0xbea928db	-0.33038983
60	0x3ea1df87	0.3161585
61	0xbd6aae34	-0.05729504
62	0xbddfd225	-0.10928754
63	0x3dc17157	0.09445446
64	0xbe9b4ce0	-0.30332088
65	0xbdd7dd42	-0.105402485
66	0xbe617c23	-0.2202001
67	0x3d155879	0.036461327
68	0x3d74b98e	0.05974727
69	0x3e31fb15	0.17380936
70	0x3e5d1a7c	0.21592134
71	0xbb66a734	-0.0035194876
72	0xbdd64b8d	-0.10463629
73	0xbe636336	-0.22205815
74	0x3e713af6	0.23557648
75	0x3dd2340a	0.10263832
76	0x3da5c5dc	0.08094379
77	0xbe2fc5e2	-0.1716533
78	0xbeaeafa6	-0.34118384
79	0x3db16964	0.0866268
80	0x3e4b33f3	0.19844036
81	0x3dfa7a85	0.122304
82	0xbe9ed02a	-0.31018192
83	0xbde85235	-0.11343805
84	0xbe2d1724	-0.16903359
85	0xbbeea646	-0.007283005
86	0x3d5703f0	0.05249399
87	0x3c46b72e	0.012128634
88	0x3c200313	0.009766358
89	0xbca87b34	-0.02056656
90	0x3dccda51	0.10002578
91	0x3bfa59e4	0.0076401103
92	0x3db4946b	0.08817371
93	0xbd142212	-0.036165304
94	0xbc9ea5de	-0.019366201
95	0x3d6704c3	0.056401026
96	0xbd7e785e	-0.06212651
97	0xbd9bebcf	-0.07613336
98	0xbebc8b69	-0.36825112
99	0x3ddbc1dc	0.10730335
100	0xbe5f52a3	-0.21808867
101	0xbb705d86	-0.0036676838
102	0xbcc94496	-0.024568837
103	0x3dd2a35d	0.10285065
104	0xbe8f08c4	-0.27936375
105	0x3d344d32	0.04401893
106	0xbe74f338	-0.23920906
107	0xbca97d80	-0.020689726
108	0x3c8e5dae	0.017378654
109	0x3d9ca1ac	0.07648024
110	0xbe66862d	-0.22512121
111	0x3d9ad35e	0.07559846
112	0x3d4056aa	0.04695765
113	0xbd7ab92f	-0.06121176
114	0xbd0e7bf7	-0.03478619
115	0x3cb32595	0.021868506
116	0x3bf61a7a	0.0075104805
117	0xbe23c6c3	-0.1599379
118	0x3da72ae7	0.0816248
119	0x3e667a18	0.22507513
120	0xbcfa53ea	-0.030557591
121	0xbe553c80	-0.2082386
122	0x3da6dfc5	0.081481494
123	0xbe95e439	-0.29275683
124	0xbe9390a6	-0.28821295
125	0x3df815b0	0.121135116
126	0xbdd35632	-0.10319175
127	0x3cde6dfa	0.02715205
128	0xbe02474a	-0.12722507
129	0x3b4b7a62	0.0031048288
130	0xbd956dac	-0.07296309
131	0xbe1f3f71	-0.15551545
132	0x3e48114c	0.19537848
133	0xbe26cfb7	-0.16290174
134	0xbe1935c9	-0.14961924
135	0xbea01f97	-0.312741
136	0x3c6d8949	0.014498063
137	0xbddee038	-0.1088261
138	0xbde8770f	-0.113508336
139	0x3d6c95a6	0.057759903
140	0xbe8192f1	-0.2530742
141	0x3da6706b	0.08126911
142	0xbcc6cbf8	-0.024267182
143	0xbda3f49a	-0.080056384
144	0xbebc42c6	-0.36769694
145	0xbe7bb498	-0.2458061
146	0xbea505d3	-0.32231006
147	0xbe2f5d5c	-0.17125458
148	0xbd9d3f9c	-0.07678148
149	0x3db17d19	0.086664386
150	0xbe00c0b0	-0.12573504
151	0xbedde037	-0.43335125
152	0x3d705f7f	0.058684822
153	0xbe755e7c	-0.23961824
154	0x3d9caabd	0.07649753
155	0xbe895dd4	-0.26829398
156	0xbdfd2306	-0.12360196
157	0xbe4ae218	-0.1981281
158	0xbdeef09a	-0.11666985
159	0xbc1c31da	-0.00953337
160	0xbe2b7ce6	-0.16746864
161	0xbe27a07a	-0.1636981
162	0xbded424f	-0.11584913
163	0x3d959434	0.07303658
164	0x3d3c5108	0.045975715
165	0xbe2cf4c1	-0.16890241
166	0xbd6fa1fd	-0.058504093
167	0xbb864ab4	-0.004098261
168	0xbeb31aad	-0.3498129
169	0xbe4fc02c	-0.20288152
170	0xbdc873e0	-0.097877264
171	0x3de6c37d	0.11267755
172	0xbd9b06ce	-0.07569657
173	0xbd932b7c	-0.07186028
174	0x3ca6cad3	0.020360386
175	0x3e26095c	0.16214508
176	0xbda16f3f	-0.07882547
177	0x3dd82218	0.10553378
178	0xbc6a6f1f	-0.01430872
179	0xbe8859e2	-0.26631075
180	0xbc217435	-0.009854366
181	0xbe51e32b	-0.20496814
182	0x3dad47e6	0.08460979
183	0xbe345bad	-0.17613097
184	0x3e02e2b5	0.12781794
185	0x3ddb82e1	0.107183225
186	0xbcff4c7a	-0.031164397
187	0xbe9025de	-0.2815389
188	0x3dd3ead5	0.10347525
189	0xbe02cf63	-0.12774424
190	0x3e2e659e	0.17030951
191	0x3e2129fb	0.1573867
192	0xbe62be9f	-0.22143029
193	0xbe1d32f1	-0.15351464
194	0xbcea4c75	-0.02860091
195	0x3d82cb9f	0.06386494
196	0xbe0b03ae	-0.13575622
197	0xbd3d2709	-0.046179805
198	0xbbe58460	-0.0070043057
199	0x3d2dfd7b	0.042478066
200	0xbe9bea90	-0.30452394
201	0xbe0dbcdb	-0.13841574
202	0xbcc2f012	-0.023796115
203	0x3e18123c	0.14850706
204	0x3c9e27ae	0.01930603
205	0xbdc65c06	-0.09685521
206	0xbe17df4b	-0.14831273
207	0x3e05c24d	0.13062401
208	0x3a9f6f9b	0.0012163998
209	0xbd2635e7	-0.04057875
210	0xbeb5dad9	-0.3551853
211	0xbe416910	-0.18887734
212	0xbdf6092c	-0.12013468
213	0x3dee7c13	0.11644759
214	0xbd7ae682	-0.061254986
215	0x3d1a5142	0.03767515
216	0x3d93f06c	0.07223591
217	0xbc15214c	-0.009102177
218	0xbd662618	-0.056188673
219	0x3c8ac2c7	0.01693858
220	0xbe0545e1	-0.13014938
221	0xbc15c140	-0.009140313
222	0xbe3eb643	-0.18624215
223	0x3d74072a	0.059577145
224	0xbea72559	-0.32645682
225	0x3d83b935	0.0643181
226	0xbe840cac	-0.25790918
227	0x3c8edf7d	0.017440552
228	0xbe69e12e	-0.22839805
229	0xbd7212db	-0.059100013
230	0xbe0e437f	-0.13892935
231	0x3e321cf5	0.17393859
232	0xbd8566ef	-0.06513774
233	0x3deb917a	0.11502357
234	0x3d93b552	0.072123185
235	0x3d8f2560	0.069895506
236	0xbc97e18a	-0.018540163
237	0x3cba23d4	0.022722162
238	0xbdce9429	-0.10086853
239	0x3c068443	0.008210245
240	0x3d881111	0.0664388
241	0x3d0c773c	0.0342934
242	0x3e03aabf	0.12858103
243	0xbd1be9e4	-0.038064852
244	0xbda4c782	-0.080458656
245	0xbe125dfb	-0.14293663
246	0xbcd71ec3	-0.026259786
247	0x3c8acd52	0.016943607
248	0xbe11a7fb	-0.14224236
249	0xbd0802b5	-0.033205707
250	0xbcd26c94	-0.02568654
251	0xbeb06527	-0.34452173
252	0xbe9444c5	-0.28958717
253	0xbe83de0a	-0.2575534
254	0xbdd3b7d2	-0.10337795
255	0x3c8d987c	0.017284624

fc3.bias f4 [64]
0	0xb79ac952	-1.8451978e-05
1	0xb81d15d0	-3.745203e-05
2	0x36880b32	4.054419e-06
3	0xb7369e30	-1.0884876e-05
4	0xb7c1e26c	-2.3112829e-05
5	0xb8b1380f	-8.4504594e-05
6	0x38ab09e3	8.155757e-05
7	0x35ffdab7	1.9062635e-06
8	0x36cb762c	6.0636285e-06
9	0x3907069a	0.00012877063
10	0x37e9e92f	2.7884349e-05
11	0xb7a35692	-1.9471427e-05
12	0x36e7e939	6.911487e-06
13	0xb899fb80	-7.342454e-05
14	0x3898fb26	7.294705e-05
15	0xb8d6a700	-0.00010235421
16	0xb70fb740	-8.56613e-06
17	0xb6b294f0	-5.322152e-06
18	0x390f7554	0.00013681251
19	0xb8d3cd28	-0.000100994774
20	0xb80318e8	-3.125603e-05
21	0x3832d48c	4.2636457e-05
22	0xb72575f4	-9.8622295e-06
23	0xb80abf77	-3.308008e-05
24	0x37b69174	2.1763823e-05
25	0xb775b9b6	-1.4646377e-05
26	0xb67ce028	-3.7681402e-06
27	0x35d82da0	1.6106533e-06
28	0x37aa62ee	2.0311647e-05
29	0xb7cec7db	-2.4650179e-05
30	0xb794da46	-1.7744616e-05
31	0xb73c299a	-1.1215359e-05
32	0x37d9416a	2.5898877e-05
33	0x37f501c0	2.920709e-05
34	0x36892056	4.0866826e-06
35	0xb801188f	-3.077887e-05
36	0x3789710c	1.6384314e-05
37	0x3860ae1d	5.3567917e-05
38	0xb8707c5f	-5.733629e-05
39	0xb86a9e82	-5.593757e-05
40	0xb815f044	-3.5748133e-05
41	0x3829b62e	4.0462408e-05
42	0x37a9021f	2.0147358e-05
43	0xb7893c0c	-1.6359634e-05
44	0x373e5624	1.1344939e-05
45	0xb79547b3	-1.7795572e-05
46	0x3707c8bc	8.093364e-06
47	0x389d4b8e	7.5004165e-05
48	0x37976776	1.804878e-05
49	0x37abcad4	2.0479238e-05
50	0x38920412	6.962581e-05
51	0x38346362	4.30079e-05
52	0x36bb0b1d	5.574328e-06
53	0xb72da2cc	-1.0349508e-05
54	0xb8ac6884	-8.221067e-05
55	0x37992579	1.825647e-05
56	0xb6bb8a9e	-5.5891715e-06
57	0x380cc73c	3.3564153e-05
58	0xb892d460	-7.0013804e-05
59	0xb84bfa11	-4.8631864e-05
60	0x381e14b6	3.7689424e-05
61	0x37f8226a	2.957993e-05
62	0x384aa5b3	4.8314872e-05
63	0x370b09e6	8.28735e-06

fc4.weight f4 [3, 64]
0	0x3d913aaf	0.07091271
1	0x3d940542	0.07227565
2	0x3dbd850d	0.09253893
3	0xbe3de359	-0.18543757
4	0xbe2ad4fc	-0.1668281
5	0xbe20256b	-0.15639274
6	0xbc9f6406	-0.019456875
7	0x3e12e627	0.14345609
8	0x3d06952e	0.032857113
9	0xbca6d927	-0.020367218
10	0x3dd1512d	0.10220561
11	0xbdcabaee	-0.09898935
12	0xbc37731c	-0.011196878
13	0xbdce304b	-0.10067805
14	0x3ba7dbb2	0.0051226253
15	0x3cb8c7f8	0.02255629
16	0xbe0086f5	-0.12551482
17	0xbda13b3f	-0.078726284
18	0xbd031208	-0.031999618
19	0x3dc01fa8	0.09381038
20	0xbe1186b8	-0.14211547
21	0xbe2d78e1	-0.16940643
22	0xbaad870c	-0.00132391
23	0x3dab9730	0.08378446
24	0x3d789997	0.06069335
25	0xbcb42da2	-0.021994416
26	0xbca10896	-0.019657414
27	0x3dda30e4	0.106538564
28	0xbb0523fc	-0.0020315638
29	0xbe1692c6	-0.14704427
30	0xbd950886	-0.07277016
31	0x3e0e148b	0.13875024
32	0x3d54de1c	0.051969633
33	0xbdf67be8	-0.12035352
34	0x3dab8ee4	0.083768636
35	0x3de4b9c2	0.11168243
36	0xbdbca866	-0.09211807
37	0x3dff0e2b	0.12453874
38	0xbd0df024	-0.034652844
39	0xbd0a728c	-0.033800647
40	0x3e004fe6	0.12530479
41	0xbdfd0d79	-0.12356085
42	0xbd0bd5d6	-0.034139477
43	0xbd88dcaa	-0.06682713
44	0x3d60fed7	0.054930534
45	0x3de7c652	0.113171235
46	0xbdd24920	-0.10267854
47	0xbdb4419e	-0.08801578
48	0x3d52fc6e	0.051510267
49	0x3ce82e62	0.02834243
50	0x3d4e54be	0.050373785
51	0xbdeb5448	-0.11490685
52	0xbe13e631	-0.1444328
53	0x3d87a916	0.066240475
54	0x3d7c7de1	0.061643485
55	0xbd3731cf	-0.044725236
56	0xbe62406b	-0.22094886
57	0x3a7710b0	0.0009424789
58	0x3d054d40	0.032544374
59	0xbde9c345	-0.11414198
60	0x3d9d157e	0.07670115
61	0xbb89eb66	-0.00420897
62	0x3cc86133	0.02446041
63	0xbd97e3b3	-0.07416477
64	0xbded755f	-0.115946524
65	0xbcedfdd0	-0.029051691
66	0x3bbc884f	0.005753554
67	0xbd6e8026	-0.05822768
68	0xbcc5c5e5	-0.024142215
69	0x3dd7516c	0.10513577
70	0xbe375f54	-0.17907459
71	0x3d4d4fbf	0.05012488
72	0x3d881c22	0.06645991
73	0xbe5c5001	-0.21514894
74	0x3de749af	0.11293351
75	0xbd64714a	-0.055772103
76	0x3cfb276c	0.030658446
77	0x3d8a6759	0.06757993
78	0x3e053588	0.13008702
79	0x3d242e60	0.04008329
80	0x3c243d47	0.010024375
81	0x3dcdbcd0	0.10045779
82	0xbd9a034b	-0.07520159
83	0xbdde864f	-0.10865461
84	0x3d079e45	0.033109922
85	0x3d9afed6	0.07568137
86	0xbb7af6b4	-0.003829402
87	0xbcfa6e72	-0.030570243
88	0x3b8641eb	0.0040972135
89	0xbc64aed4	-0.013957698
90	0xbe00ad63	-0.12566142
91	0xbddfb226	-0.10922651
92	0xbe3bd082	-0.18341258
93	0x3cd142c4	0.025544532
94	0x3df8a311	0.121404774
95	0x3d6313c2	0.055438764
96	0x3dc63e9c	0.096799105
97	0xbc688e56	-0.014194092
98	0xbd24e61f	-0.040258523
99	0x3d0dff6c	0.034667417
100	0xbdae3822	-0.085068
101	0xbcfb312b	-0.030663094
102	0xbe1e25cf	-0.1544411
103	0x3d89689f	0.06709408
104	0xbd4e62ec	-0.050387308
105	0x3bfb1591	0.007662483
106	0xbe19fbe3	-0.15037493
107	0x3dd0295e	0.1016414
108	0x3c9b087c	0.018924944
109	0x3cb9570d	0.022624517
110	0xbb95dee0	-0.004573688
111	0x3d98e33d	0.07465217
112	0xbd35b1a3	-0.04435886
113	0x3dd91672	0.10599984
114	0x3d4031c2	0.046922453
115	0x3ddcbc4b	0.107781015
116	0x3d82ee93	0.06393161
117	0xbe2361a9	-0.15955223
118	0x3cbd76fa	0.023128022
119	0x3d815407	0.06314855
120	0xbbf089c1	-0.0073406403
121	0xbcfd38b4	-0.030910827
122	0x3e4be345	0.19910915
123	0x3e124106	0.14282617
124	0x3d9710f2	0.07376279
125	0x3d0bd9a4	0.034143105
126	0xbc1e2831	-0.009653137
127	0x3d2f3900	0.04277897
128	0xbca6ef49	-0.020377772
129	0xbe126386	-0.14295778
130	0xbe0d607b	-0.13806336
131	0x3c7511cf	0.014957859
132	0x3d15ebec	0.036601946
133	0xbd4e8e17	-0.050428476
134	0x3bbbb865	0.0057287687
135	0xbcf12efb	-0.029441347
136	0xbe32d27b	-0.17463104
137	0xbd953738	-0.07285923
138	0xbded8cb5	-0.11599103
139	0x3da5ea49	0.08101327
140	0x3e06150e	0.13093969
141	0x3e13b647	0.14425002
142	0xbe29d872	-0.16586474
143	0xbe5eab06	-0.21744928
144	0x3d3a08bd	0.04541849
145	0x3dab8802	0.08375551
146	0x3d981b7b	0.074271165
147	0x3d87d035	0.06631509
148	0x3d4a8adc	0.049448833
149	0xbe014f98	-0.12628019
150	0xbe55fda6	-0.2089754
151	0xbd312b50	-0.043254197
152	0xbe3f9c94	-0.18712074
153	0xbe5c25ba	-0.21498767
154	0x3d59f55b	0.053212505
155	0x3e123db9	0.14281358
156	0x3cee9230	0.029122442
157	0x3d32cd4f	0.04365283
158	0x3de0e34e	0.10980855
159	0xbdb5da44	-0.088795215
160	0xbe1d5c05	-0.15367134
161	0x3d7ab3d6	0.06120666
162	0x3d5727d1	0.052528206
163	0xbe11baa2	-0.14231351
164	0x3d644c8d	0.055737067
165	0xbdbcfd9c	-0.0922806
166	0x3c894c03	0.016759878
167	0xbe385dfc	-0.18004602
168	0x3dd1cf45	0.10244612
169	0x3dcdffaa	0.1005853
170	0xbb91c287	-0.0044482383
171	0x3ddf06e4	0.10889986
172	0xbe1a65b3	-0.15077858
173	0xbd4f0c62	-0.05054892
174	0x3d370d98	0.0446907
175	0x3dc1145b	0.094277106
176	0xbe37ed6d	-0.17961664
177	0xbe16036f	-0.14649747
178	0xbe61eca7	-0.22062932
179	0x3d0335fd	0.03203391
180	0x3ce567d4	0.02800361
181	0xbda0efa5	-0.078582086
182	0xbe1e5d55	-0.15465291
183	0x3e0916ce	0.13387606
184	0xbb7c2e78	-0.0038479846
185	0x3d9d0a70	0.076680064
186	0xbdfa5dfc	-0.12224957
187	0xbcf390f0	-0.029732198
188	0xbe1493f9	-0.14509572
189	0xbe57648e	-0.21034452
190	0xbe71b65f	-0.23604725
191	0x3d8452bd	0.064610936

fc4.bias f4 [3]
0	0xbd2ffa2e	-0.0429632
1	0xbdcab313	-0.09897437
2	0x3c7f2ccf	0.015574648

bn1.weight f4 [128]
0	0x3f75f65c	0.9607904
1	0x3f4056b2	0.75132287
2	0x3f44b718	0.7684188
3	0x3f68c7eb	0.9093005
4	0x3f5eee44	0.87082314
5	0x3f4e7a43	0.80655307
6	0x3f50a21f	0.8149738
7	0x3f29e83e	0.6637
8	0x3f4889cc	0.7833526
9	0x3f6e6585	0.93123657
10	0x3f51aa74	0.81900716
11	0x3f43962a	0.7640101
12	0x3f4c5f59	0.7983299
13	0x3f5c144c	0.8596847
14	0x3f651fa8	0.8950143
15	0x3f5a644c	0.8530929
16	0x3f500df2	0.8127128
17	0x3f438651	0.76376826
18	0x3f592b05	0.8483127
19	0x3f674cbb	0.90351456
20	0x3f47a29d	0.77982503
21	0x3f5d0306	0.8633274
22	0x3f4be432	0.79645073
23	0x3f69472f	0.9112424
24	0x3f697d4b	0.91206807
25	0x3f771c99	0.9652801
26	0x3f710c8e	0.9415978
27	0x3f5b93d8	0.85772467
28	0x3f254e78	0.6457286
29	0x3f6f5d61	0.9350186
30	0x3f6a555a	0.91536486
31	0x3f3cf38d	0.7380913
32	0x3f517263	0.81815165
33	0x3f611730	0.87926006
34	0x3f57eef2	0.84348977
35	0x3f6603e0	0.8984966
36	0x3f4d9d6e	0.80318344
37	0x3f740876	0.9532541
38	0x3f493787	0.78600353
39	0x3f4f19bb	0.80898637
40	0x3f46d648	0.7767072
41	0x3f52c356	0.8232931
42	0x3f4ef5d4	0.80843854
43	0x3f58a1cd	0.8462189
44	0x3f51a7df	0.81896776
45	0x3f4638f1	0.77430636
46	0x3f50dc03	0.8158571
47	0x3f505afc	0.8138883
48	0x3f65ded5	0.8979314
49	0x3f6e75ce	0.93148506
50	0x3f100bf7	0.56268257
51	0x3f5dc5a9	0.8662973
52	0x3f51eaf5	0.8199914
53	0x3f50d057	0.815679
54	0x3f53ed24	0.8278372
55	0x3f48fb6c	0.7850864
56	0x3f413a67	0.7547974
57	0x3f54379e	0.82897365
58	0x3f6c1b58	0.92229223
59	0x3f4ccbfd	0.7999876
60	0x3f673b0f	0.9032449
61	0x3f7d097f	0.98842615
62	0x3f5c85be	0.86141574
63	0x3f785adc	0.9701364
64	0x3f40533d	0.7512701
65	0x3f645c81	0.8920365
66	0x3f4e1244	0.8049662
67	0x3f459b3d	0.7719
68	0x3f70308a	0.93824065
69	0x3f58b423	0.84649867
70	0x3f5da7fc	0.8658445
71	0x3f49bbca	0.7880217
72	0x3f61ef9a	0.8825623
73	0x3f73ebf6	0.9528192
74	0x3f59a32a	0.85014594
75	0x3f6feadf	0.9371776
76	0x3f71a837	0.943973
77	0x3f61f49d	0.88263875
78	0x3f5049c7	0.81362575
79	0x3f5c604b	0.8608443
80	0x3f2c264c	0.67245936
81	0x3f5e3ec6	0.86814535
82	0x3f6b977b	0.92028016
83	0x3f40383f	0.75085825
84	0x3f6f7046	0.9353069
85	0x3f71b695	0.94419223
86	0x3f491174	0.78542256
87	0x3f6ddcdc	0.9291513
88	0x3f75f766	0.96080625
89	0x3f36f462	0.7146665
90	0x3f7795b6	0.96712816
91	0x3f6ae518	0.9175582
92	0x3f4a78e8	0.7909074
93	0x3f4d5ca1	0.80219465
94	0x3f586e3a	0.8454319
95	0x3f304ea0	0.6886997
96	0x3f4fcaf7	0.81169075
97	0x3f68a319	0.9087387
98	0x3f2b6d43	0.66963595
99	0x3f5aeec5	0.85520583
100	0x3f60a64e	0.8775376
101	0x3f49e477	0.78864235
102	0x3f58428d	0.8447655
103	0x3f3a8836	0.7286409
104	0x3f5172f1	0.8181601
105	0x3f5b5d37	0.8568911
106	0x3f446fd1	0.7673312
107	0x3f436921	0.7633229
108	0x3f4fd112	0.8117839
109	0x3f43dffc	0.7651365
110	0x3f5b4bd6	0.8566259
111	0x3f45c362	0.77251256
112	0x3f491476	0.78546846
113	0x3f749d1a	0.9555222
114	0x3f828cbd	1.01992
115	0x3f73dc24	0.9525778
116	0x3f5d7d85	0.8651965
117	0x3f43ffb0	0.76562023
118	0x3f454b15	0.7706769
119	0x3f453f0f	0.77049345
120	0x3f5fc60c	0.8741157
121	0x3f4eb161	0.8073941
122	0x3f6f8f98	0.9357848
123	0x3f4d1c30	0.80121136
124	0x3f801977	1.0007771
125	0x3f6494c3	0.8928949
126	0x3f61a955	0.88149005
127	0x3f515ea6	0.8178505

bn1.bias f4 [128]
0	0xbf15502c	-0.5832546
1	0xbe7ea04f	-0.2486584
2	0xbf10f6c4	-0.56626534
3	0xbf0a84e7	-0.5410904
4	0xbebd4ddd	-0.36973467
5	0xbedea442	-0.43484694
6	0xbf0140cb	-0.5048949
7	0xbee721a0	-0.4514284
8	0xbe06f7d1	-0.13180472
9	0xbf004f75	-0.5012124
10	0xbee1d926	-0.44110984
11	0xbe661904	-0.2247048
12	0xbeb03e85	-0.344227
13	0xbf2d9fc2	-0.67821896
14	0xbf1614cb	-0.5862548
15	0xbf1204e8	-0.57038736
16	0xbeebdbb1	-0.4606605
17	0xbebd13f8	-0.36929297
18	0xbec23e8d	-0.37938347
19	0xbef43e37	-0.47703716
20	0xbede25e7	-0.43388292
21	0xbebc0e90	-0.3672986
22	0xbeb853e7	-0.36001512
23	0xbf2701bb	-0.65237015
24	0xbeec3224	-0.46132004
25	0xbea47324	-0.32119095
26	0xbef0ff84	-0.47069943
27	0xbefe4f52	-0.49669892
28	0xbe119c6f	-0.14219831
29	0xbf1ebc9a	-0.62006533
30	0xbe8c8a93	-0.27449474
31	0xbeda467c	-0.426319
32	0xbf1b08db	-0.6056039
33	0xbed3d133	-0.41370544
34	0xbeaba443	-0.3352376
35	0xbf0b7d13	-0.54487723
36	0xbece277f	-0.40264508
37	0xbea0e50e	-0.31424755
38	0xbf17873f	-0.59190744
39	0xbea86ccf	-0.32895514
40	0xbebf6c2b	-0.37387213
41	0xbf26f540	-0.6521797
42	0xbf08d40c	-0.5344856
43	0xbe98b8ab	-0.2982839
44	0xbf0be8d7	-0.5465216
45	0xbf07ca1e	-0.5304278
46	0xbec1d486	-0.37857455
47	0xbeb22440	-0.34793282
48	0xbe893736	-0.26799935
49	0xbf16dd74	-0.5893166
50	0x3d240169	0.040040407
51	0xbf0cf647	-0.5506329
52	0xbef4fe3d	-0.47850218
53	0xbecea455	-0.4035975
54	0xbf1dd18b	-0.6164786
55	0xbe7af719	-0.24508323
56	0xbee97bab	-0.45602164
57	0xbe60edba	-0.21965685
58	0xbf165f24	-0.58738923
59	0xbebf8ca0	-0.37411976
60	0xbf192f4c	-0.59837794
61	0xbf1301ac	-0.57424426
62	0xbec61538	-0.38688064
63	0xbf08f961	-0.5350552
64	0xbe887995	-0.2665526
65	0xbf0849ee	-0.5323781
66	0xbed5449c	-0.41653907
67	0xbd71ed15	-0.05906399
68	0xbf05dac3	-0.5228693
69	0xbf0bff25	-0.54686195
70	0xbeaf774f	-0.34270713
71	0xbf201a97	-0.6254057
72	0xbed6c15f	-0.41944405
73	0xbe9603bf	-0.29299733
74	0xbe3af92b	-0.18259113
75	0xbf01c01f	-0.5068378
76	0xbef91f5e	-0.48656744
77	0xbf32d19f	-0.69851106
78	0xbf09b391	-0.5378962
79	0xbe877d41	-0.2646275
80	0xbee37e4c	-0.44432294
81	0xbf27bada	-0.6551949
82	0xbecc20c4	-0.39868748
83	0xbf0daf90	-0.5534601
84	0xbef2903f	-0.47375676
85	0xbf2b3eec	-0.66892886
86	0xbee2b49b	-0.44278416
87	0xbf269365	-0.65068656
88	0xbf006b70	-0.50163937
89	0xbe6df245	-0.2323695
90	0xbf18492a	-0.5948664
91	0xbea7911b	-0.32727894
92	0xbeb1514c	-0.34632337
93	0xbe77c44f	-0.2419598
94	0xbec06956	-0.37580365
95	0xbe7d43af	-0.2473285
96	0xbf1e12b3	-0.6174728
97	0xbed5d335	-0.417627
98	0xbee346d7	-0.44389984
99	0xbef48d81	-0.4776421
100	0xbefcba53	-0.49360904
101	0xbe9d9461	-0.30777267
102	0xbec31c0e	-0.38107342
103	0xbe99faea	-0.30074245
104	0xbf1aac17	-0.6041884
105	0xbf0a49ef	-0.54019064
106	0xbeaa8e2a	-0.33311588
107	0xbe804cf6	-0.25058717
108	0xbed2941a	-0.41128618
109	0xbeb2c86b	-0.34918532
110	0xbec49487	-0.38394567
111	0xbedab9f1	-0.42719987
112	0xbef9c871	-0.48785737
113	0xbed8feac	-0.423818
114	0xbf184049	-0.5947309
115	0xbeaaf681	-0.33391193
116	0xbf1eaae5	-0.61979514
117	0xbe47be52	-0.19506195
118	0xbe0dec3f	-0.13859652
119	0xbee9dcc4	-0.45676243
120	0xbeaefdb5	-0.34177938
121	0xbe367dac	-0.17821378
122	0xbf1d7e54	-0.61520886
123	0xbea961a6	-0.33082312
124	0xbf165ee2	-0.5873853
125	0xbe5b3cd0	-0.21409917
126	0xbe63db21	-0.2225156
127	0xbec5d6c5	-0.3864042

bn1.running_mean f4 [128]
0	0xbcf1ed55	-0.029532114
1	0x3c8d8e51	0.017279776
2	0x3b63fe56	0.0034789047
3	0xbc3b6313	-0.011437195
4	0x3cf0d818	0.029399917
5	0x3c0690ce	0.008213235
6	0xbd223de8	-0.03960982
7	0xbc88e550	-0.016710907
8	0x3c4f65bd	0.012658534
9	0xbd0df42c	-0.03465669
10	0x3cbd28fd	0.023090834
11	0xbc2b3c87	-0.010451443
12	0xbd10c74b	-0.03534631
13	0xbc09449b	-0.008378173
14	0x3cb7e547	0.022448195
15	0x3c4d7bb2	0.012541698
16	0x3c6a975b	0.0143183125
17	0x3c2a77d0	0.010404542
18	0xbc070929	-0.00824193
19	0xbcbf192b	-0.02332743
20	0xbca5da09	-0.020245569
21	0xbbb648f5	-0.0055628964
22	0x3be6a5c9	0.007038806
23	0xbb3fc94d	-0.0029264272
24	0xbc8136e1	-0.015773239
25	0xbd0a4990	-0.03376156
26	0xbbc67a64	-0.0060570706
27	0xbb60a49f	-0.003427781
28	0x3be0701f	0.0068493034
29	0xbb7e2c62	-0.0038783778
30	0xba147373	-0.0005662955
31	0x3d0a1e1d	0.033720125
32	0xbc8b1996	-0.016979974
33	0xbb30786b	-0.0026927243
34	0x3c18b051	0.009319381
35	0xbcfc71e0	-0.030816019
36	0x3ca39ac2	0.019971255
37	0x3b0e9a2e	0.0021759379
38	0x3b8b8381	0.00425762
39	0x3c894ab4	0.016759254
40	0x3ca57dc3	0.02020157
41	0xbce103de	-0.027467664
42	0xbbe7d582	-0.0070750127
43	0x3b0108bf	0.001968905
44	0x3b3b02ed	0.002853568
45	0xbba602a0	-0.005066231
46	0xbc4387e3	-0.011934253
47	0x3bb1678b	0.0054139546
48	0xbd1eee07	-0.03880122
49	0xbca351e2	-0.019936506
50	0xbcc19dc6	-0.023634803
51	0x3c8b2a17	0.016987843
52	0x3cd9a5fb	0.026568403
53	0x3c5e5770	0.013570651
54	0xbc17dd43	-0.0092690615
55	0x3c8e87e1	0.017398776
56	0xbbab6d1e	-0.0052315136
57	0x3cd5cfd4	0.026100077
58	0xbbd8c9de	-0.0066158613
59	0x3cef534a	0.02921452
60	0x3ad13e36	0.0015963975
61	0xbd2868b6	-0.041115485
62	0x3c83ffe1	0.016113224
63	0x3b5b668c	0.003347787
64	0xbc4b75fa	-0.0124182645
65	0xbc865f18	-0.016402766
66	0xbb1763d1	-0.0023100267
67	0x3c261c4f	0.010138585
68	0xbd290bf2	-0.041271158
69	0xbc459dc6	-0.012061542
70	0xbc25b6c2	-0.010114374
71	0xbc80b212	-0.01570991
72	0xbc8f7930	-0.017513841
73	0xbcb6ad55	-0.022299448
74	0x3c31756d	0.010831219
75	0xbb43934a	-0.002984243
76	0xbbd4aa63	-0.0064900382
77	0xbb8da6ad	-0.004322848
78	0xbd3a7362	-0.045520194
79	0x3bef6b28	0.007306475
80	0xbc8b03d7	-0.016969604
81	0xbb31628f	-0.0027066802
82	0x3cb2047a	0.02173065
83	0xb9801201	-0.00024427476
84	0x3bdeca51	0.0067990203
85	0x3c56d206	0.013111597
86	0x3ccf3d1b	0.025297692
87	0xb9aa6f60	-0.00032507908
88	0x3c88d1d8	0.016701624
89	0x3c8515a2	0.016245667
90	0xbbc0988e	-0.005877561
91	0x392150a2	0.00015384195
92	0x3d3d6971	0.046243135
93	0x3ccbcbe8	0.024877504
94	0x3c832c08	0.016012207
95	0xbcea09fd	-0.028569216
96	0x3d1da2c5	0.038485307
97	0xba8b3910	-0.0010621864
98	0x3c9febf0	0.019521683
99	0xbb2cf798	-0.0026392695
100	0x3ca4ae5a	0.020102669
101	0x3cb49723	0.022044724
102	0x3c923f05	0.017852316
103	0xb8f4a4a5	-0.00011665494
104	0xba05e676	-0.0005107889
105	0xbab9672b	-0.0014145126
106	0xbc67685e	-0.014124004
107	0xbc233e43	-0.009963575
108	0x3c7ede73	0.015555966
109	0xbd24402d	-0.040100265
110	0xbc1d2a35	-0.0095925825
111	0x3c85f84c	0.016353749
112	0xbd1216f2	-0.035666414
113	0x3b857567	0.0040728333
114	0xbbfeceb8	-0.0077761076
115	0xbc30cbd3	-0.010790783
116	0xbccb39c5	-0.02480782
117	0x3c025150	0.007953957
118	0x3c564554	0.013078053
119	0xbc6964b0	-0.014245197
120	0xbbbbdd21	-0.0057331477
121	0x3c806fb2	0.01567826
122	0xbc511c11	-0.012763039
123	0x3c6add15	0.014334937
124	0xbc4a1b97	-0.0123356795
125	0xbd0db163	-0.034592997
126	0x3c7d9030	0.0154762715
127	0xbc8b46a0	-0.01700145

bn1.running_var f4 [128]
0	0x3f0183a4	0.5059149
1	0x3eabed30	0.33579397
2	0x3f3333bc	0.70000815
3	0x3f343afe	0.70402515
4	0x3eaaa5b8	0.33329558
5	0x3e6dc8ad	0.23221083
6	0x3f3aa37b	0.729057
7	0x3e4f493e	0.20242783
8	0x3e9c57dd	0.30535784
9	0x3f157565	0.58382255
10	0x3ecec486	0.4038431
11	0x3ebe1434	0.3712479
12	0x3f5eb292	0.86991227
13	0x3f8c16c6	1.094445
14	0x3f2f02ad	0.6836346
15	0x3eb803ed	0.35940495
16	0x3f3da69f	0.7408237
17	0x3f4fb515	0.81135684
18	0x3ea1e766	0.31621855
19	0x3ef9bf99	0.4877899
20	0x3f265b37	0.6498293
21	0x3ee26697	0.44218895
22	0x3ec094d1	0.37613538
23	0x3f1ccf2f	0.6125364
24	0x3f0c30ee	0.5476216
25	0x3eaf08a0	0.34186268
26	0x3f274858	0.6534476
27	0x3f1b797e	0.6073226
28	0x3ed82809	0.42218044
29	0x3eafc97d	0.3433341
30	0x3e4a71e7	0.19770013
31	0x3f80f4e5	1.0074736
32	0x3f6d484e	0.92688453
33	0x3f0f7344	0.56035256
34	0x3f11f0c1	0.57007986
35	0x3f21b69b	0.6316926
36	0x3eecb90e	0.46234936
37	0x3e916e33	0.28404388
38	0x3edeecf3	0.43540153
39	0x3efb9060	0.49133587
40	0x3e237474	0.15962392
41	0x3ed7c0d9	0.4213932
42	0x3ed15d51	0.40891507
43	0x3efd3549	0.49454716
44	0x3f51ee96	0.8200468
45	0x3f5af295	0.855264
46	0x3f27ff30	0.6562376
47	0x3e51a7e9	0.20474209
48	0x3ed7f895	0.4218184
49	0x3ee53978	0.44770408
50	0x3ec9f129	0.39441803
51	0x3f34858f	0.70516294
52	0x3ec8b120	0.39197636
53	0x3e6f6cd9	0.23381366
54	0x3f1ebd7d	0.62007886
55	0x3f15b584	0.58480096
56	0x3eef8149	0.46778324
57	0x3f1012b7	0.56278557
58	0x3f262a5c	0.64908385
59	0x3f529eec	0.82273746
60	0x3f571bd0	0.84026814
61	0x3f178d83	0.59200305
62	0x3e229464	0.15876919
63	0x3f0dd5ba	0.55404246
64	0x3f133379	0.57500416
65	0x3ec24321	0.3794184
66	0x3ebb7cda	0.36618692
67	0x3edff42d	0.4374098
68	0x3ee2c5f5	0.44291654
69	0x3ee07dad	0.43845883
70	0x3eaecaf1	0.34139207
71	0x3f9ec9ad	1.2405297
72	0x3ea682a7	0.32521555
73	0x3ecbf92f	0.3983855
74	0x3eca76df	0.39543816
75	0x3e1a9086	0.15094194
76	0x3f1fdda9	0.624476
77	0x3f6c670a	0.92344725
78	0x3fcbda07	1.5925912
79	0x3ebec9f0	0.3726344
80	0x3f93612f	1.1514033
81	0x3f3b4e66	0.731665
82	0x3ecba8b9	0.39777163
83	0x3ec6ea21	0.388505
84	0x3ee2a90f	0.44269606
85	0x3e460992	0.19339588
86	0x3f959a76	1.1687763
87	0x3f428f70	0.7600012
88	0x3e2ca39a	0.16859284
89	0x3f14f906	0.5819248
90	0x3ee39769	0.44451454
91	0x3e370870	0.17874312
92	0x3fd039d0	1.6267643
93	0x3e911b77	0.28341267
94	0x3ee4853c	0.446329
95	0x3f2fef2a	0.6872431
96	0x3eeb65e3	0.4597617
97	0x3e942596	0.28934926
98	0x3e8ff0ca	0.28113395
99	0x3e89f68d	0.26945916
100	0x3ed2293a	0.41047078
101	0x3f0b29f9	0.5436092
102	0x3ea9f56d	0.33195058
103	0x3f16c631	0.58896166
104	0x3f801e63	1.0009273
105	0x3f562e05	0.8366397
106	0x3eea0faf	0.4571509
107	0x3e808a10	0.25105333
108	0x3f202e3f	0.62570566
109	0x3f9a6e53	1.2064918
110	0x3f041ef3	0.51609725
111	0x3f0058d2	0.5013553
112	0x3faf5001	1.369629
113	0x3e8737f9	0.2640989
114	0x3f357af5	0.7089074
115	0x3eeed9f6	0.46650666
116	0x3f07d0b8	0.53052855
117	0x3e9a9c3c	0.30197322
118	0x3f37c32e	0.71782196
119	0x3f181dba	0.5942036
120	0x3e7c1d92	0.24620655
121	0x3ee2b23b	0.44276604
122	0x3f29b7f7	0.66296333
123	0x3ef287ce	0.47369236
124	0x3e57150e	0.21004125
125	0x3ef806dc	0.48442733
126	0x3ec55ac0	0.385458
127	0x3e86fbef	0.26364085
