model/saved_model/premier_league_model.pth (torch, 359764 bytes, 48 tensors)

fc1.weight f4 [128, 18]
0.25525463 -0.030786669 -0.0802831 0.19545418 -0.34224018 0.1508921 -0.32478002 0.06661497
-0.14449458 0.18557237 -0.002505887 -0.31690514 -0.1608826 0.13932091 -0.38835576 -0.22463499
-0.015058129 -0.27273864 0.45877263 0.08119209 0.22892009 -0.12880494 -0.4159252 -0.1396808
0.008357635 0.05083474 -0.1365725 -0.2244883 -0.01582723 0.19905527 0.1094122 -0.09815079
0.19438858 0.17140266 -0.26059797 -0.012171977 -0.1702254 0.3073189 -0.14534445 0.19139875
-0.010693183 -0.02853091 0.07051126 -0.13800669 0.08609416 0.09059655 -0.06971231 -0.34807092
-0.40883473 -0.0035266015 -0.33198702 0.17325453 0.19981508 0.26417333 0.3187938 -0.27424932
0.14308448 -0.40396076 0.030211214 -0.2382789 0.0095384745 0.2850126 -0.0928537 -0.101491526
-0.28370664 -0.10058164 -0.12303266 -0.12288365 -0.19588006 0.016976926 -0.14274938 0.24098702
0.05688656 -0.07226657 -0.25958702 -0.3601458 0.026066346 -0.17088251 0.028834492 0.28396705
-0.08428659 0.2389867 0.03555912 0.19407634 -0.09990357 -0.5182252 -0.19836205 0.04929032
0.14388889 -0.031295646 0.4032228 -0.16789493 -0.1474623 -0.25676584 0.017905775 -0.16932125
-0.0955666 0.20926225 0.06075322 0.27719608 -0.3463702 0.22991447 -0.24043861 0.1451043
0.10915051 -0.12163156 0.14766794 -0.23247816 -0.24826363 0.18224284 0.038773358 -0.19796178
0.018785886 0.04129046 0.0019690508 -0.090456784 -0.1196336 -0.32853732 -0.3553881 -0.25625426
0.02838543 0.03821066 -0.00576271 -0.52245826 -0.11237657 -0.15958565 -0.5015152 0.058089793
0.047762692 -0.009363938 -0.12064382 -0.05873893 0.09380301 -0.0128910085 0.17289996 -0.35767162
0.09485332 -0.3685312 0.15333523 -0.019634573 0.12063638 -0.43379694 -0.06698206 -0.104522295
-0.006985449 0.4172918 0.26141986 -0.056458727 -0.38726267 -0.31907684 -0.11368588 0.10558342
0.2041591 0.09948491 0.13274139 0.28925955 0.41485107 -0.054634362 0.061053507 0.061707314
0.15581907 0.069513604 0.0732426 -0.12435095 0.2931114 0.283657 -0.018669806 0.04944037
-0.1415178 -0.13460198 0.21285899 0.15177074 0.17540766 -0.0032656896 0.016685342 -0.08538514
-0.07101861 -0.85244 -0.11288877 -0.27977946 0.065060094 -0.21896806 -0.11067489 -0.3475467
-0.02125889 -0.45770872 0.21706788 -0.07945122 0.0016948527 0.20951708 -0.08970241 0.062670685
0.29140767 -0.061013766 0.23707294 0.29500872 -0.06616694 -0.102273986 -0.04508124 0.2748561
0.14165185 -0.035394102 -0.022348676 0.2120846 -0.044962417 -0.32775855 0.2731161 0.25730428
-0.09361907 -0.19333085 -0.06667081 -0.20880471 0.00670288 0.32731274 0.01880332 0.48989683
0.0013955891 -0.23488842 0.052206635 -0.42256075 0.26733267 0.1374554 0.028685594 0.19062065
0.019680638 0.1803882 0.07740619 -0.1364728 -0.4157 -0.04985582 -0.2037032 0.00044417375
-0.18664408 0.3465493 0.23184761 -0.22695492 0.17128415 -0.13931508 -0.021658631 0.20828785
-0.2576502 -0.055909634 -0.051925186 0.11624023 0.028666077 0.441588 0.18269913 -0.06980101
0.33668408 -0.13447797 0.21394482 -0.10503739 0.26914042 0.18595368 -0.00055888423 0.29446957
00000000: bcb0 823e 5334 fcbc 776b a4bd 2425 483e
00000010: 1b3a afbe 7583 1a3e 9149 a6be 6e6d 883d
00000020: 63f6 13be af06 3e3e cf39 24bb 6441 a2be
00000030: 69be 24be 24aa 0e3e 91d6 c6be b706 66be
00000040: 5fb6 76bc 66a4 8bbe 3fe4 ea3e 0a48 a63d
00000050: 076a 6a3e 71e5 03be 26f4 d4be 7c08 0fbe
00000060: 76ee 083c 1738 503d a9d9 0bbe 43e0 65be
00000070: 1ba8 81bc 25d5 4b3e 8113 e03d 4803 c9bd
00000080: cd0d 473e 2e84 2f3e 196d 85be f96c 47bc
00000090: 914f 2ebe e758 9d3e 2dd5 14be 09fe 433e
000000a0: 7632 2fbc a8b9 e9bc 3568 903d a051 0dbe
000000b0: 2352 b03d af8a b93d 54c5 8ebd 5a36 b2be
000000c0: c952 d1be 8e1e 67bb 34fa a9be a369 313e
000000d0: 539c 4c3e ba41 873e f138 a33e 686a 8cbe
000000e0: bd84 123e f2d3 cebe 827d f73c 62ff 73be
000000f0: 4347 1c3c 2ced 913e 152a bebd cada cfbd
00000100: ff41 91be bffd cdbd 8cf8 fbbd 6caa fbbd
00000110: c894 48be 3213 8b3c e52c 12be 4dc5 763e
00000120: e201 693d 7f00 94bd 97e8 84be 0865 b8be
00000130: 1789 d53c d3fb 2ebe 5036 ec3c 2164 913e
00000140: 739e acbd eeb8 743e 71a6 113d f3bb 463e
00000150: 3e9a ccbd 68aa 04bf 6c1f 4bbe a6e4 493d
00000160: 9c57 133e dd2f 00bd 3873 ce3e a6ec 2bbe
00000170: 5b00 17be d076 83be 22af 923c 8d62 2dbe
00000180: 6cb8 c3bd d848 563e 5ed8 783d a5ec 8d3e
00000190: 6f57 b1be b36e 6b3e 8a35 76be 3996 143e
000001a0: 4d8a df3d f819 f9bd 4436 173e c10e 6ebe
000001b0: d238 7ebe de9d 3a3e d0d0 1e3d 7eb6 4abe
000001c0: dce4 993c 2f20 293d 310b 013b 6841 b9bd
000001d0: 7602 f5bd 0b36 a8be 6ef5 b5be c233 83be
000001e0: 9088 e83c c882 1c3d 1dd5 bcbb d3bf 05bf
000001f0: b025 e6bd 6c6a 23be 4d63 00bf 90ef 6d3d
00000200: d0a2 433d 346b 19bc 1b14 f7bd 3b98 70bd
00000210: cb1b c03d cf34 53bc b00c 313e bc20 b7be
00000220: 7542 c23d 1fb0 bcbe e903 1d3e afd8 a0bc
00000230: 3510 f73d a21a debe e42d 89bd c90f d6bd
00000240: 32e6 e4bb 45a7 d53e d3d8 853e 4441 67bd
00000250: 4b47 c6be 0a5e a3be 25d4 e8bd 1f3c d83d
00000260: 150f 513e bfbe cb3d 5ced 073e d419 943e
00000270: 5c67 d43e 48c8 5fbd 3e13 7a3d cfc0 7c3d
00000280: 098f 1f3e 265d 8e3d 3700 963d b6ab febd
00000290: b312 963e 7e3b 913e 6cf1 98bc fc81 4a3d
000002a0: 0bea 10be 1ad5 09be b5f7 593e ca69 1b3e
000002b0: 119e 333e 2e05 56bb b3af 883c 67de aebd
000002c0: 3472 91bd 8239 5abf 3a32 e7bd 413f 8fbe
000002d0: 3a3e 853d 2a39 60be 84a9 e2bd a4f1 b1be
000002e0: 2027 aebc cc58 eabe 0b47 5e3e 52b7 a2bd
000002f0: d225 de3a a58b 563e e6b5 b7bd 7d59 803d
00000300: 6333 953e 92e9 79bd 40c3 723e 620b 973e
00000310: 8882 87bd 0675 d1bd 1ba7 38bd f0b9 8c3e
00000320: 2f0d 113e 68f9 10bd 9214 b7bc b52c 593e
00000330: 832a 38bd f8cf a7be e0d5 8b3e 63bd 833e
00000340: 5bbb bfbd 86f8 45be b58a 88bd e7d0 55be
00000350: d5a3 db3b 8995 a73e 6c09 9a3c c2d3 fa3e
00000360: 33ec b63a 9786 70be a0d6 553d e259 d8be
00000370: d4df 883e 1cc1 0c3e 0dfe ea3c 0f32 433e
00000380: 4a39 a13c afb7 383e 2387 9e3d 87bf 0bbe
00000390: a1d6 d4be 9e35 4cbd 9297 50be fedf e839
000003a0: a01f 3fbe e96e b13e 7669 6d3e df66 68be
000003b0: 1d65 2f3e 9da8 0ebe 716d b1bc 6949 553e
000003c0: baea 83be 8001 65bd 81af 54bd 5c0f ee3d
000003d0: 1fd5 ea3c d317 e23e 7b15 3b3e d5f3 8ebd
000003e0: db61 ac3e 98b4 09be 5a14 5b3e d81d d7bd
000003f0: c6cc 893e a46a 3e3e 1682 12ba b7c4 963e

fc1.bias f4 [128]
-3.4592857e-05 -1.08923605e-05 -0.00017029679 -1.22335805e-05 -1.1797725e-05 1.6538099e-05 0.000121846024 2.4442721e-05
0.00019284157 2.6495612e-05 0.00017255452 9.133272e-06 8.29927e-05 -7.234295e-05 3.302238e-05 0.00013583757
1.7118258e-05 0.0001236792 6.706118e-05 6.576803e-05 0.00014645312 3.6655234e-05 1.9068895e-05 -3.326773e-05
4.3794164e-05 4.9246064e-05 0.00020056921 1.9159095e-05 -0.00011262446 8.0312864e-05 8.7702225e-05 -5.0967195e-05
3.7924347e-05 -2.3291159e-05 0.000120419034 7.0442125e-05 -0.00019973374 -5.358526e-05 -1.4109535e-05 2.0869382e-05
-2.0348933e-05 -0.00012268743 0.0002449651 -0.000113672024 -1.8962603e-05 0.000110201 -5.4757336e-05 8.617768e-06
-3.3408593e-05 -6.39598e-05 -7.43603e-05 1.3850768e-06 1.252664e-05 -0.00011793125 -0.00015621919 -2.2265081e-05
6.9930764e-05 0.0001268513 8.718042e-05 9.956505e-05 6.0350136e-05 -4.3697455e-05 -0.00024847215 -4.5886296e-05
-0.00013225935 0.0001381629 -9.49848e-05 0.00014486581 5.1499148e-05 0.00012390889 3.8658687e-05 4.1866442e-05
-1.40533675e-05 3.6419624e-07 2.0731664e-05 -9.493058e-05 4.256115e-05 -9.097095e-05 0.00010613068 -7.010035e-05
7.189059e-05 0.000100960475 -8.29069e-06 0.00014071277 0.00010066336 8.180877e-05 8.9822686e-05 3.0473519e-05
0.000116890915 -0.00016968767 8.157397e-05 -0.0002149703 -0.000120818215 -6.990856e-05 0.00018251831 -2.485328e-06
-1.7533064e-05 -3.8367572e-05 -6.3210915e-05 -4.9348517e-05 -0.00010082433 -0.00010522585 -5.828777e-06 -5.286155e-05
-5.1785813e-05 -3.684424e-05 -9.7165444e-05 -3.1647367e-05 -1.4587544e-05 5.9699425e-05 -2.305383e-05 -0.00013381822
1.4274779e-05 -2.337587e-06 0.00022612089 0.00017619593 1.924429e-06 7.464529e-05 -7.705476e-05 -9.21571e-05
1.2658844e-05 -1.9520467e-05 -2.892394e-05 -6.4537875e-05 -3.40693e-05 -0.00010067764 5.1165516e-05 3.930151e-05
00000000: cc17 11b8 55be 36b7 b291 32b9 d43e 4db7
00000010: d8ee 45b7 4cbb 8a37 9687 ff38 580a cd37
00000020: 8435 4a39 e542 de37 c0ef 3439 1b3b 1937
00000030: 5e0c ae38 d3b6 97b8 8381 0a38 9f6f 0e39
00000040: 2e99 8f37 e2af 0139 32a3 8c38 f1ec 8938
00000050: 3691 1939 42be 1938 24f6 9f37 f488 0bb8
00000060: a0af 3738 8f8d 4e38 e34f 5239 d8b7 a037
00000070: cc30 ecb8 a46d a838 c6ec b738 9cc5 55b8
00000080: f510 1f38 6261 c3b7 7a89 fc38 54ba 9338
00000090: 9e6f 51b9 bcc0 60b8 feb7 6cb7 a810 af37
000000a0: 00b3 aab7 a8a5 00b9 a96e 8039 3463 eeb8
000000b0: e111 9fb7 b61b e738 3eab 65b8 0895 1037
000000c0: 3420 0cb8 2822 86b8 e2f1 9bb8 e0e6 b935
000000d0: 8229 5237 dc51 f7b8 c5ce 23b9 e6c5 bab7
000000e0: cba7 9238 6303 0539 a2d4 b638 94cd d038
000000f0: 7720 7d38 c947 37b8 5e45 82b9 0976 40b8
00000100: 19af 0ab9 d2df 1039 9432 c7b8 1fe7 1739
00000110: ca00 5838 8aed 0139 7325 2238 c099 2f38
00000120: c1c6 6bb7 c086 c334 e9e8 ad37 7815 c7b8
00000130: b083 3238 a8c7 beb8 7a92 de38 d702 93b8
00000140: f7c3 9638 beba d338 3e18 0bb7 4c8c 1339
00000150: 3b1b d338 c090 ab38 305f bc38 62a1 ff37
00000160: 5523 f538 30ee 31b9 b112 ab38 a769 61b9
00000170: c95f fdb8 df9b 92b8 6362 3f39 9cc9 26b6
00000180: f813 93b7 deec 20b8 1a90 84b8 91fb 4eb8
00000190: a671 d3b8 b3ac dcb8 d094 c3b6 a8b7 5db8
000001a0: 9834 59b8 3489 1ab8 4dc5 cbb8 1abd 04b8
000001b0: 06bd 74b7 c565 7a38 b963 c1b7 8e51 0cb9
000001c0: b57d 6f37 70df 1cb6 dd1a 6d39 3cc1 3839
000001d0: 7025 0136 e38a 9c38 7698 a1b8 7744 c1b8
000001e0: 5261 5437 e2bf a3b7 b0a1 f2b7 8258 87b8
000001f0: a2e5 0eb8 e522 d3b8 8e9a 5638 add7 2438

fc2.weight f4 [128, 128]
0.18338461 -0.17146887 -0.0124796545 -0.0043941555 0.003039093 0.21415332 -0.09124568 -0.20186573
-0.42286736 0.25739333 -0.16197537 0.11897727 -0.058200106 0.19454987 0.23962177 0.023939762
-0.40905726 0.0280496 -0.093003914 0.045144297 -0.058008496 0.0947106 0.1736382 -0.06263788
-0.5820304 -0.66132766 -0.16901724 0.02205607 0.018302845 0.06726492 -0.12512262 -0.09202608
-0.00043177017 0.11416676 0.13737139 0.025065845 -0.37223303 0.23000756 -0.31103972 0.21705095
-0.00966955 -0.39337042 0.028890114 -0.16111256 0.06621322 0.14882186 -0.17769934 0.12800582
0.010540929 0.15778579 0.13459781 -0.054974373 0.16580205 -0.31631973 0.22988749 0.19617677
0.016467327 0.04612476 -0.15777594 0.082612924 0.2107492 0.106626324 -0.0010398515 0.21937554
0.10602184 0.0289262 0.05757931 0.08225045 -0.046675257 -0.023486188 0.028888412 -0.0065556588
-0.011134168 0.226503 0.13959812 0.0886176 0.09217585 0.12966287 -0.1771471 0.0555887
-0.07317331 -0.07698665 -0.029036757 0.104260445 -0.094870895 -0.016812643 -0.16461313 0.024704376
-0.0049622674 -0.16344213 -0.0325608 0.1664065 -0.08839177 -0.07337023 -0.03236663 0.03586314
0.12576523 0.16523744 0.08218603 -0.043019015 0.09958566 -0.29809353 0.020027088 -0.15292956
0.011591389 0.124383464 -0.19556673 -0.12718892 0.11708949 -0.13430904 0.19972703 -0.19775817
-0.7052139 0.14620645 -0.09823143 -0.10907388 -0.34239003 0.063262545 -0.16970684 -0.3194901
-0.07766846 -0.36748606 0.1243615 -0.053942375 0.110891074 -0.18975525 -0.07790917 0.049122907
0.08527782 -0.10058675 0.15689026 -0.17429867 -0.048100457 -0.24730535 0.026235312 -0.103764825
0.00798649 0.029558877 -0.32178205 -0.23120014 -0.027351575 -0.057661694 -0.2523038 0.11484206
-0.10334024 0.13188365 -0.45785645 -0.26775482 -0.11667977 0.013963036 -0.08468882 0.069987476
-0.09061131 -0.0410412 0.030087871 -0.43721774 0.023967829 -0.05245843 -0.091390684 -0.26338422
0.063880816 -0.06744973 -0.26070264 -0.40844792 -0.17014809 0.0657513 -0.036193084 0.06380896
-0.09575347 0.038572177 0.12513009 0.1678406 -0.11316817 -0.2711153 0.14104514 -0.045200624
0.14283973 -0.06086406 -0.23903774 0.014744926 0.05534743 0.24953716 -0.09952997 -0.23153844
0.20921512 0.06813783 -0.19867934 -0.4292352 -0.02133122 0.14274316 -0.14597562 -0.20520815
-0.10890645 -0.1152053 0.22248355 -0.020337045 -0.16470507 -0.054554585 0.30456153 -0.001794851
0.08662527 0.23146555 -0.05993388 -0.048881557 0.0072676814 -0.17925142 -0.05023172 0.084876426
-0.0745486 -0.13831666 0.018790452 0.096788876 -0.43482187 0.029905925 0.11502818 -0.3823085
-0.15904246 -0.23292603 -0.39603448 0.01821701 -0.039989304 -0.030959966 -0.044777773 0.13751562
0.16542268 -0.10958636 0.07684604 0.037384648 -0.027562242 -0.11772448 0.012719121 0.22807387
-0.13137168 -0.28237194 -0.22184798 0.016462216 -0.19682248 0.124089554 0.064986475 -0.044877905
-0.07112068 0.08749795 -0.12899828 -0.13059558 -0.093058966 0.024432844 -0.22617346 0.33184475
0.10526717 -0.49980894 -0.06283125 0.0817496 -0.0040191053 -0.05417476 -0.0680262 0.2409169
00000000: 2dc9 3b3e 8995 2fbe 7777 4cbc d9fc 8fbb
00000010: 852b 473b 024b 5b3e 04df babd e4b5 4ebe
00000020: 1282 d8be 0fc9 833e dfdc 25be 5baa f33d
00000030: 3c63 6ebd 1538 473e 695f 753e 521d c43c
00000040: f46f d1be 46c8 e53c d678 bebd 3ae9 383d
00000050: 519a 6dbd a2f7 c13d 36ce 313e 4a48 80bd
00000060: f2ff 14bf c54c 29bf db12 2dbe eeae b43c
00000070: d9ef 953c 31c2 893d 2520 00be 2b78 bcbd
00000080: 365f e2b9 43d0 e93d 16ab 0c3e e356 cd3c
00000090: 5495 bebe 1a87 6b3e 9940 9fbe 9b42 5e3e
000000a0: 086d 1ebc d967 c9be f6aa ec3c b1fa 24be
000000b0: cc9a 873d c264 183e d1f6 35be f513 033e
000000c0: dcb3 2c3c 9992 213e 02d4 093e cf2c 61bd
000000d0: 03c8 293e a9f4 a1be a067 6b3e 90e2 483e
000000e0: 7de6 863c 51ed 3c3d 0490 21be f730 a93d
000000f0: a3ce 573e e75e da3d a04b 88ba fba3 603e
00000100: fa21 d93d a3f6 ec3c 48d8 6b3d ed72 a83d
00000110: 8e2e 3fbd 1b66 c0bc 64a7 ec3c dad0 d6bb
00000120: 166c 36bc 67f0 673e cff2 0e3e 257d b53d
00000130: b1c6 bc3d 58c6 043e 0d66 35be fab0 633d
00000140: e3db 95bd 2dab 9dbd 7ede edbc 8086 d53d
00000150: ac4b c2bd abba 89bc 5890 28be d560 ca3c
00000160: 849a a2bb 605d 27be 795e 05bd 7766 2a3e
00000170: bf06 b5bd 2243 96bd df92 04bd 3ae5 123d
00000180: 9ac8 003e 0134 293e 2651 a83d b534 30bd
00000190: 91f3 cb3d b79f 98be d90f a43c 9199 1cbe
000001a0: cfe9 3d3c c2bc fe3d a542 48be d03d 02be
000001b0: 9dcc ef3d 4f88 09be 3e85 4c3e 1e81 4abe
000001c0: e688 34bf 25b7 153e 8f2d c9bd 2062 dfbd
000001d0: bf4d afbe cb8f 813d a1c7 2dbe 3594 a3be
000001e0: a410 9fbd 2227 bcbe 3eb1 fe3d aef2 5cbd
000001f0: dc1a e33d 334f 42be d88e 9fbd 1a35 493d
00000200: 23a6 ae3d 6d00 cebd d7a7 203e 5a7b 32be
00000210: fc04 45bd 9d3d 7dbe 70eb d63c a782 d4bd
00000220: c4d9 023c 7525 f23c 9ec0 a4be bbbf 6cbe
00000230: 6910 e0bc ab2e 6cbd f72d 81be 5032 eb3d
00000240: 0ca4 d3bd 820c 073e 296c eabe 2917 89be
00000250: cef5 eebd 38c5 643c 5571 adbd 9855 8f3d
00000260: 6c92 b9bd d11a 28bd d77a f63c 01db dfbe
00000270: 2e58 c43c a7de 56bd 0a2b bbbd 4cda 86be
00000280: f2d3 823d 1623 8abd d17a 85be 1620 d1be
00000290: 4d3b 2ebe 9ea8 863d 333f 14bd 46ae 823d
000002a0: 651a c4bd dcfd 1d3d 1a22 003e 68de 2b3e
000002b0: b7c4 e7bd a0cf 8abe 236e 103e 4a24 39bd
000002c0: 9444 123e 984c 79bd 4fc6 74be b494 713c
000002d0: fdb3 623d ab86 7f3e 5ed6 cbbd 6a18 6dbe
000002e0: 7d3c 563e d98b 8b3d 9972 4bbe b7c4 dbbe
000002f0: d0be aebc 432b 123e a27a 15be 1622 52be
00000300: 580a dfbd c2f0 ebbd bad2 633e e099 a6bc
00000310: 72a8 28be a174 5fbd 7def 9b3e 3541 ebba
00000320: 9768 b13d 4e05 6d3e 3a7d 75bd 0738 48bd
00000330: bb25 ee3b af8d 37be c7bf 4dbd b1d3 ad3d
00000340: f0ac 98bd e2a2 0dbe 6fee 993c 3f39 c63d
00000350: f9a0 debe 45fd f43c e593 eb3d f1bd c3be
00000360: 07dc 22be 2984 6ebe 08c5 cabe d73b 953c
00000370: d3cb 23bd c19f fdbc e668 37bd e5d0 0c3e
00000380: 9064 293e d06e e0bd 7561 9d3d a520 193d
00000390: 36ca e1bc 8819 f1bd dc63 503c 328c 693e
000003a0: 4c86 06be 0e93 90be 1e2c 63be c5db 863c
000003b0: d58b 49be aa22 fe3d a117 853d e5d1 37bd
000003c0: b8a7 91bd 2032 b33d 2018 04be d9ba 05be
000003d0: b395 bebd 6327 c83c 049a 67be 8ee7 a93e
000003e0: 5096 d73d f5e6 ffbe acad 80bd 566c a73d
000003f0: b3b2 83bb 5ae6 5dbd 5251 8bbd ebb2 763e

fc2.bias f4 [128]
-4.1976476e-05 4.1317006e-05 -6.9988455e-05 -4.4186098e-05 -7.4534706e-05 -4.7453752e-05 3.17693e-05 4.8112008e-05
2.020262e-05 7.5620286e-05 -1.8378401e-05 -7.0668815e-05 3.012815e-05 -5.8802198e-06 1.5540389e-05 -3.9236584e-05
-6.2400504e-05 3.1517684e-05 1.1004961e-05 -3.243112e-05 -1.0462603e-05 -7.588742e-05 -4.613786e-05 -2.479546e-05
-6.012329e-05 1.0069189e-06 -6.0110164e-05 -2.1245436e-05 -2.7306614e-05 4.6187208e-05 3.1885906e-05 -2.5100348e-06
3.0745105e-05 3.6456666e-05 8.5073174e-05 1.366825e-05 -3.8779457e-05 4.6178604e-05 2.8415325e-05 5.3601943e-06
1.7439208e-05 -7.772022e-05 7.884699e-05 -3.2791573e-05 -0.00012617979 3.4666507e-05 -1.6952803e-05 1.8899314e-05
-3.4855202e-07 -9.631884e-06 0.00010898383 -2.3971807e-06 -4.6251447e-05 4.8116577e-05 8.282165e-05 4.2069034e-05
5.0021554e-05 8.3994655e-06 -8.047591e-07 1.085893e-06 -5.530448e-05 -4.9067043e-05 -7.718695e-05 2.7490712e-05
-5.9364684e-05 3.504188e-05 4.0162715e-05 -5.1321367e-05 -2.5933594e-05 -5.47684e-05 -8.278211e-05 -3.971208e-05
2.2106092e-06 -4.5638546e-05 5.6123245e-05 5.9375692e-05 9.3158715e-06 -6.0586895e-05 -3.167805e-05 4.295035e-05
5.084248e-05 3.6331403e-05 1.0534439e-05 -6.682306e-05 1.7014021e-05 1.4349171e-06 -5.5437267e-05 -3.7542264e-05
2.5576292e-05 -3.820834e-05 6.356515e-06 8.757329e-05 -1.8692672e-05 2.1386313e-06 1.2174591e-05 7.6066826e-05
2.004083e-05 -1.8430728e-05 1.5188047e-05 -3.3080596e-05 1.993356e-05 1.7524912e-06 -7.053849e-05 7.50496e-05
4.2321448e-05 -3.526211e-06 -2.0303522e-05 7.588438e-05 -2.8848379e-05 3.9622842e-05 3.959909e-05 -3.3151922e-05
-1.5381032e-05 3.8248254e-05 4.474083e-05 0.00010025584 4.565917e-05 -5.2314226e-07 3.3614042e-06 -2.1203086e-05
6.4190746e-05 4.546349e-05 2.1631446e-05 1.1122488e-05 4.6522582e-05 5.374789e-05 5.391971e-05 -5.381753e-05
00000000: e60f 30b8 cc4b 2d38 c4c6 92b8 7654 39b8
00000010: 844f 9cb8 1409 47b8 0740 0538 e0cb 4938
00000020: cc78 a937 5596 9e38 512b 9ab7 0834 94b8
00000030: b6bb fc37 b44e c5b6 bb5c 8237 f691 24b8
00000040: 04dd 82b8 db31 0438 f3a1 3837 a606 08b8
00000050: 8a88 2fb7 c025 9fb8 2684 41b8 d8ff cfb7
00000060: e42c 7cb8 7825 8735 cc1e 7cb8 3a38 b2b7
00000070: 8210 e5b7 23b9 4138 3bbd 0538 1272 28b6
00000080: 4ef4 0038 0ce9 1838 5069 b238 b050 6537
00000090: 20a7 22b8 e6af 4138 725d ee37 b8db b336
000000a0: 6a4a 9237 bafd a2b8 a85a a538 af89 09b8
000000b0: 214f 04b9 e166 1138 de35 8eb7 f889 9e37
000000c0: a020 bbb4 a098 21b7 408e e438 40df 20b6
000000d0: 1dfe 41b8 c8d0 4938 89b0 ad38 4873 3038
000000e0: 3cce 5138 6eeb 0c37 a006 58b5 00bf 9135
000000f0: bcf6 67b8 56cd 4db8 6edf a1b8 db9b e637
00000100: 58fe 78b8 eff9 1238 6374 2838 e641 57b8
00000110: f88b d9b7 1fb7 65b8 4f9b adb8 8590 26b8
00000120: fa59 1436 046c 3fb8 e065 6b38 2a0a 7938
00000130: 5d4b 1c37 af1e 7eb8 0cde 04b8 9625 3438
00000140: b23f 5538 8c62 1838 12bd 3037 5b23 8cb8
00000150: 55b9 8e37 6097 c035 5085 68b8 b376 1db8
00000160: ab8c d637 e541 20b8 0c4a d536 8da7 b738
00000170: 35ce 9cb7 6885 0f36 7841 4c37 1186 9f38
00000180: 5b1d a837 b09b 9ab7 2ad0 7e37 05c0 0ab8
00000190: ff36 a737 2437 eb35 10ee 93b8 f263 9d38
000001a0: 4f82 3138 d8a3 6cb6 7b51 aab7 1e24 9f38
000001b0: 6cff f1b7 b430 2638 3317 2638 9b0c 0bb8
000001c0: 8406 81b7 c06c 2038 1aa8 3b38 7240 d238
000001d0: 2982 3f38 106e 0cb5 7c94 6136 48dd b1b7
000001e0: 259e 8638 0db0 3e38 2d75 b537 b99a 3a37
000001f0: 3e21 4338 5c6f 6138 d927 6238 22ba 61b8

fc3.weight f4 [64, 128]
-0.092020206 0.028838208 0.034148347 -0.3020576 -0.055755977 -0.32083654 -0.10384502 -0.41416606
-0.15085603 -0.29765305 -0.20593035 0.052348424 -0.29855722 0.10120475 0.034052346 -0.3459562
-0.08412872 0.007940521 -0.14532782 0.11542108 0.0031021258 -0.18247001 -0.018341843 0.1022854
-0.048831906 -0.11844786 -0.24850981 0.16961041 -0.050161794 -0.00038402577 0.014665416 -0.29562476
0.12532984 -0.19142482 0.04384368 -0.06385939 0.11064179 -0.20094614 -0.10362664 0.03208222
0.039490838 0.0037201177 0.11748533 0.020922424 0.13077547 -0.1483101 -0.021228192 -0.017007418
0.022137778 0.14207774 -0.1459403 -0.18871698 0.025076006 -0.100774236 -0.260554 -0.35208222
-0.29731414 0.012605637 -0.073051445 -0.18164785 -0.01190727 -0.19765773 0.15471534 0.04691293
-0.35835683 -0.05419411 -0.126403 0.13939792 0.056562323 0.016896784 0.042193405 -0.2184045
0.19416945 -0.011782826 0.041445207 0.033404518 -0.06604884 -0.27444786 0.10253835 -0.11629519
-0.17760275 -0.32805616 -0.0053845015 0.22310998 -0.11774242 0.12583438 0.058009952 0.1010985
-0.048620276 -0.20375071 -0.010093932 -0.09668274 -0.19321826 -0.03924348 -0.046155754 0.019875593
-0.07735071 -0.3628271 -0.041054424 0.112279214 -0.052458685 -0.37401503 0.051536757 -0.017174777
0.014833462 0.04595065 0.08757286 -0.30156454 -0.16871658 0.20461766 -0.33224338 0.108857915
0.03946583 -0.25242195 -0.33329824 -0.3392887 0.060529478 -0.045617167 -0.12769946 -0.28044295
0.19084126 -0.06400752 -0.0444783 -0.026570762 -0.059712857 0.057007164 -0.039041556 0.015690222
-0.078254074 0.11018012 -0.0045862263 0.023489345 -0.049532898 -0.0063014715 -0.21767502 0.07762393
0.10710406 0.22786902 0.06401607 -0.19743888 0.05662117 -0.03129335 -0.064832956 -0.0373151
0.06807491 0.0255031 -0.09943383 0.015536207 -0.10976161 0.037319433 0.012230775 0.20553719
-0.19254589 -0.02018267 0.11944254 -0.17002831 0.16195579 -0.20059904 -0.3359225 -0.03323849
0.14528489 0.04318693 0.18071608 0.08447826 0.14955336 -0.17613778 -0.3044665 -0.0835465
-0.27808324 -0.3248177 0.09336927 -0.051569745 -0.12121877 -0.46820378 -0.012606394 -0.07755831
-0.03520813 0.1801593 0.011018786 -0.12237083 -0.10345464 0.12211991 -0.05401845 0.043455694
0.035045948 -0.24108222 0.17496029 0.19423611 0.114419855 0.030045232 -0.13534473 -0.05059238
0.042164758 0.1424964 -0.07912247 0.20507962 0.06341194 0.084974326 0.109714665 -0.017650735
-0.18950008 -0.3585782 -0.07254144 -0.047178213 -0.14120312 0.02340836 -0.08230565 -0.05837882
-0.0727173 -0.028131975 0.11112884 -0.050351795 -0.027052624 0.09795667 -0.06905313 0.06703934
-0.33203128 -0.04348382 -0.5270939 -0.023251548 -0.08887379 -0.16953586 0.048338626 -0.09058249
0.004225419 0.17265913 -0.17452495 -0.15908886 -0.27836242 0.02054598 0.041151363 -0.1345178
-0.090570234 -0.10965268 -0.20791863 0.07511099 -0.063083455 0.008216059 -0.3364285 -0.10877254
-0.25072354 0.0038011724 -0.086629204 0.009315294 0.0046318993 -0.32719922 -0.13928446 -0.05563362
-0.30750954 0.05032355 -0.26693928 0.22011128 0.200174 0.1036599 0.025400443 -0.11093364
00000000: 1775 bcbd 1b3e ec3c 23df 0b3d 4ba7 9abe
00000010: 6160 64bd b044 a4be b3ac d4bd 930d d4be
00000020: 017a 1abe fb65 98be 68df 52be 4d6b 563d
00000030: 7edc 98be 7044 cf3d 797a 0b3d 2c21 b1be
00000040: ae4b acbd f618 023c d1d0 14be e361 ec3d
00000050: 094d 4b3b 6bd9 3abe a241 96bc 027b d13d
00000060: f703 48bd cb94 f2bd 5b79 7ebe 5aae 2d3e
00000070: 7476 4dbd 1157 c9b9 3747 703c 215c 97be
00000080: 7756 003e de04 44be 6e95 333d b6c8 82bd
00000090: 2a98 e23d d3c4 4dbe 343a d4bd a568 033d
000000a0: 25c1 213d 38cd 733b 269c f03d 8165 ab3c
000000b0: 01ea 053e 9ade 17be bfe6 adbc 2453 8bbc
000000c0: 495a b53c d47c 113e 6071 15be 063f 41be
000000d0: 326c cd3c b962 cebd 5567 85be 1f44 b4be
000000e0: 8f39 98be e087 4e3c ff9b 95bd e501 3abe
000000f0: b616 43bc ca66 4abe b36d 1e3e c627 403d
00000100: 8c7a b7be a5fa 5dbd ca6f 01be 54be 0e3e
00000110: e5ad 673d 206b 8a3c fed2 2c3d 6ea5 5fbe
00000120: 5bd4 463e c10c 41bc 73c2 293d 2dd3 083d
00000130: 9d44 87bd 6e84 8cbe a0ff d13d 2c2c eebd
00000140: 7fdd 35be faf6 a7be 7970 b0bb f176 643e
00000150: f022 f1bd bada 003e d89b 6d3d bb0c cf3d
00000160: 0e26 47bd 07a4 50be 0561 25bc 9a01 c6bd
00000170: 02db 45be c5bd 20bd d10d 3dbd 24d2 a23c
00000180: 0d6a 9ebd 79c4 b9be af28 28bd a5f2 e53d
00000190: ebde 56bd e67e bfbe 3518 533d 1eb2 8cbc
000001a0: 0d08 733c c036 3c3d 6659 b33d ab66 9abe
000001b0: 0ac4 2cbe 4b87 513e ce1b aabe e6f0 de3d
000001c0: eca6 213d 733d 81be 11a6 aabe 40b7 adbe
000001d0: c2ed 773d 11d9 3abd a6c3 02be 3896 8fbe
000001e0: e46b 433e 6016 83bd e12e 36bd edaa d9bc
000001f0: 7895 74bd 5880 693d 0aea 1fbd c888 803c
00000200: ac43 a0bd 1da6 e13d 0e48 96bb ba6c c03c
00000210: 02e3 4abd 937c cebb 33e6 5ebe 4cf9 9e3d
00000220: 6059 db3d 7f56 693e db1a 833d 6b2d 4abe
00000230: 9aeb 673d 752d 00bd 24c7 84bd b8d7 18bd
00000240: dc6a 8b3d e1eb d03c f7a3 cbbd 938b 7e3c
00000250: b2ca e0bd 43dc 183d 9763 483c 5778 523e
00000260: c02a 45be 2056 a5bc 4a9e f43d e71b 2ebe
00000270: bdd7 253e d669 4dbe 09fe abbe 1525 08bd
00000280: 90c5 143e c7e4 303d a30d 393e f002 ad3d
00000290: 8424 193e 765d 34be 08e3 9bbe 6d1a abbd
000002a0: ed60 8ebe 814e a6be 6338 bf3d cc3a 53bd
000002b0: 8c41 f8bd 68b8 efbe 0c8b 4ebc e4d6 9ebd
000002c0: 6636 10bd ae7b 383e 2388 343c 8f9d fabd
000002d0: 07e0 d3bd 011a fa3d 7342 5dbd 99fe 313d
000002e0: 578c 0f3d 42de 76be ca28 333e d5e5 463e
000002f0: f554 ea3d 6b21 f63c cf97 0abe f539 4fbd
00000300: f4b4 2c3d 94ea 113e f60a a2bd 6400 523e
00000310: 1fde 813d 0507 ae3d 15b2 e03d 4698 90bc
00000320: 4f0c 42be 9097 b7be 9b90 94bd f13d 41bd
00000330: 8d97 10be e4c2 bf3c dd8f a8bd a11e 6fbd
00000340: cfec 94bd 0775 e6bc 8497 e33d af3d 4ebd
00000350: 779d ddbc 829d c83d ba6b 8dbd ec4b 893d
00000360: 0100 aabe 171c 32bd a0ef 06bf 087a bebc
00000370: 7603 b6bd cf9a 2dbe b9fe 453d 5083 b9bd
00000380: 6275 8a3b 8ecd 303e abb6 32be 31e8 22be
00000390: 8585 8ebe 0b50 a83c 558e 283d 09bf 09be
000003a0: e37c b9bd 9691 e0bd 9fe8 54be cad3 993d
000003b0: e631 81bd a69c 063c 5b40 acbe 23c4 debd
000003c0: d65e 80be 171d 793b a76a b1bd 2d9f 183c
000003d0: 30c7 973b a886 a7be 96a0 0ebe 14e0 63bd
000003e0: e471 9dbe 1120 4e3d 44ac 88be da64 613e
000003f0: 6afa 4c3e a44b d43d 9714 d03c 2d31 e3bd

fc3.bias f4 [64]
-5.011524e-05 6.1740448e-06 -5.103427e-05 -2.4794852e-05 -1.9540585e-05 7.375819e-05 -1.6697342e-05 1.51684135e-05
1.9509846e-05 2.6084694e-05 4.3350636e-05 3.7826092e-05 1.548888e-05 -5.5328812e-05 -4.1279494e-05 -1.2922871e-05
7.860329e-05 0.000120658835 7.300362e-05 -6.368656e-05 -6.349428e-06 -1.2097872e-05 -7.470764e-05 1.606897e-05
-1.1625972e-05 5.802451e-05 2.7022154e-05 -4.7102432e-05 4.9153077e-05 4.685658e-06 3.8279282e-05 5.5615426e-05
0.00011859881 -4.922741e-05 3.873684e-05 -8.411543e-05 -5.8110596e-05 -5.3239728e-05 6.0123955e-05 -4.4172586e-05
0.00011416897 -6.823834e-05 0.000118976604 -6.6698385e-06 9.0081245e-05 -1.840273e-05 -1.5046644e-05 -1.2779186e-05
6.472028e-05 0.00012510554 -1.3154489e-05 2.2693082e-05 1.2772449e-05 3.918314e-05 2.2511982e-05 -2.0318186e-05
1.4386782e-05 1.9851886e-06 7.74665e-05 1.3811632e-06 -7.8904406e-05 2.5881545e-05 6.1026418e-05 -9.396853e-05
00000000: d432 52b8 a42a cf36 a10d 56b8 8afe cfb7
00000010: 16eb a3b7 a0ae 9a38 4511 8cb7 d77b 7e37
00000020: 13a9 a337 74d0 da37 64d3 3538 75a7 1e38
00000030: 1eee 8137 dc10 68b8 8523 2db8 4fcf 58b7
00000040: d2d7 a438 380a fd38 8519 9938 768f 85b8
00000050: 2c0d d5b6 f7f7 4ab7 5cac 9cb8 dacb 8637
00000060: 2b0d 43b7 585f 7338 a2ad e237 da8f 45b8
00000070: b729 4e38 7f39 9d36 118e 2038 9c44 6938
00000080: 40b8 f838 8779 4eb8 5e79 2238 2167 b0b8
00000090: c7bb 73b8 b94d 5fb8 9b2d 7c38 f445 39b8
000000a0: 006e ef38 2e1b 8fb8 1483 f938 7acd dfb6
000000b0: 00ea bc38 905f 9ab7 d870 7cb7 3066 56b7
000000c0: 70ba 8738 c32e 0339 1ab2 5cb7 065d be37
000000d0: 4049 5637 9458 2438 1dd8 bc37 f970 aab7
000000e0: c25e 7137 4839 0536 8375 a238 6860 b935
000000f0: 7b79 a5b8 321c d937 9ef6 7f38 f810 c5b8

fc4.weight f4 [3, 64]
-0.15854311 0.087512925 0.11405977 0.06101474 -0.067886226 0.0629152 -0.09622957 -0.19461828
-0.047695115 -0.1887622 -0.01602656 0.10241053 -0.13709903 -0.07054223 0.0024866348 -0.1959721
0.023330996 0.09321062 0.090225935 -0.056508575 0.10847626 0.09161873 0.07202521 -0.099000335
-0.07769689 0.13905853 0.02040245 -0.0676039 0.06328888 0.0074031763 -0.17327283 0.08267607
0.035651293 -0.1628338 -0.015668133 -0.07193641 0.11924322 -0.12691686 -0.020151965 -0.116619505
0.13594012 -0.16569592 -0.14095204 0.12342418 0.047157697 -0.08140148 0.13823001 0.03767401
0.13427107 0.035610806 0.10305406 -0.029711599 0.07864104 -0.07382205 0.16508232 0.033497367
0.07648429 0.115158774 0.15941332 0.12328551 -0.21378112 -0.14983904 -0.09282677 0.1434252
0.041282386 -0.064262845 0.012215192 0.11865028 0.08421686 0.03454389 0.03546069 0.04898315
0.045569655 0.06061383 -0.15981555 0.04561788 0.05834906 -0.02180007 0.1643458 0.047339685
0.05195689 -0.09278343 0.035181567 -0.15688986 0.02190338 0.022206942 0.1553586 0.11343492
-0.018148074 -0.018816764 -0.20122951 0.16748714 -0.039458808 0.05708843 0.050955277 0.019951181
-0.10596306 -0.025783999 -0.08214688 0.06649317 0.12560375 0.16988699 0.05645861 0.12272806
0.09571432 0.08774256 0.07940794 0.01965185 -0.058538023 0.06476194 -0.06511455 -0.03588624
-0.0054105083 0.08679854 0.003653621 0.016204825 -0.06110848 0.13420396 0.117331244 0.005223022
-0.014676956 0.10545469 -0.033899277 0.08625995 -0.0076400833 -0.045726303 0.17594749 -0.07995084
0.08559444 -0.06592197 -0.112178475 -0.1515761 -0.22359785 -0.21384895 0.124772996 -0.09619965
0.11915654 -0.13028453 0.009718927 -0.17611094 0.11971481 0.104665644 -0.12627803 0.038699146
-0.2239116 0.014048673 -0.1747595 0.04027787 -0.16462626 -0.21226081 -0.08348624 0.119811915
0.15664074 0.12636387 0.08049848 0.14050856 -0.10250245 0.17920141 0.026443347 -0.2048494
0.07743192 0.06631259 0.10356105 0.14681938 -0.123949856 -0.20473345 0.17065504 0.048601184
-0.1539044 0.029016098 0.05775891 -0.10652549 0.11989041 0.11320357 0.102090634 -0.26169062
-0.13390847 -0.18416327 -0.15135598 -0.2635774 -0.06998249 -0.17223752 -0.13925992 -0.21906888
-0.13813499 -0.16564773 0.08384077 -0.14668924 0.045304596 0.01881102 -0.07000463 0.07934365
00000000: 2059 22be fa39 b33d 2b98 e93d 98ea 793d
00000010: ef07 8bbd afd9 803d 0214 c5bd 044a 47be
00000020: f45b 43bd e14a 41be 224a 83bc 9dbc d13d
00000030: b063 0cbe 7278 90bd cff6 223b e9ac 48be
00000040: a520 bf3c 36e5 be3d 60c8 b83d 8975 67bd
00000050: cd28 de3d 9aa2 bb3d f481 933d b0c0 cabd
00000060: 8c1f 9fbd 5c65 0e3e 0a23 a73c ea73 8abd
00000070: 9a9d 813d 5896 f23b 6f6e 31be 1252 a93d
00000080: 1707 123d e7bd 26be 755a 80bc 6653 93bd
00000090: ca35 f43d 7ef6 01be bc15 a5bc 35d6 eebd
000000a0: e333 0b3e 31ac 29be bb55 10be d1c5 fc3d
000000b0: 6e28 413d d2b5 a6bd 2b8c 0d3e 1050 1a3d
000000c0: 5b7e 093e a3dc 113d 020e d33d bd65 f3bc
000000d0: 8e0e a13d 0430 97bd 570b 293e 8934 093d
000000e0: cca3 9c3d 5dd8 eb3d 3f3d 233e 1d7d fc3d
000000f0: 70e9 5abe 686f 19be f61b bebd 0ede 123e
00000100: b817 293d 3d9c 83bd 3b22 483c ebfe f23d
00000110: e479 ac3d e57d 0d3d 3a3f 113d 8ea2 483d
00000120: 3fa7 3a3d 3546 783d b0a6 23be d0d9 3a3d
00000130: 6dff 6e3d 0f96 b2bc 444a 283e 42e7 413d
00000140: bfd0 543d 3d05 bebd 8c1a 103d bca7 20be
00000150: b86e b33c 55eb b53c 5316 1f3e 9150 e83d
00000160: 45ab 94bc 9d25 9abc 1c0f 4ebe c081 2b3e
00000170: 8f9f 21bd 8fd5 693d 7bb6 503d a970 a33c
00000180: 2903 d9bd f738 d3bc a03c a8bd 922d 883d
00000190: 459e 003e dbf6 2d3e 2541 673d d958 fb3d
000001a0: df05 c43d 5fb2 b33d a1a0 a23d ebfc a03c
000001b0: 91c5 6fbd e8a1 843d c75a 85bd 73fd 12bd
000001c0: a24a b1bb 6fc3 b13d 9771 6f3b fbbf 843c
000001d0: e34c 7abd c36c 093e 5d4b f03d e225 ab3b
000001e0: 9e77 70bc a1f8 d73d f8d9 0abd 0fa9 b03d
000001f0: aa59 fabb 814b 3bbd 942b 343e 44bd a3bd
00000200: 234c af3d 1902 87bd d4bd e5bd c436 1bbe
00000210: d6f6 64be 38fb 5abe fc88 ff3d 5204 c5bd
00000220: 5808 f43d 4f69 05be 223c 1f3c 6d56 34be
00000230: 0a2d f53d f15a d63d 074f 01be ff82 1e3d
00000240: 1549 65be 682c 663c 28f4 32be 68fa 243d
00000250: c993 28be e65a 59be d5fa aabd f35f f53d
00000260: 6e66 203e 8865 013e 63dc a43d 7ae1 0f3e
00000270: ceec d1bd 9380 373e b89f d83c 0bc4 51be
00000280: a094 9e3d e5ce 873d d117 d43d d257 163e
00000290: 6cd9 fdbd a5a5 51be 32c0 2e3e 0912 473d
000002a0: 1d99 1dbe 2bb3 ed3c 9b94 6c3d 092a dabd
000002b0: 1a89 f53d 46d7 e73d e514 d13d 50fc 85be
000002c0: 4d1f 09be 4c95 3cbe 10fd 1abe 9ef3 86be
000002d0: fb52 8fbd 085f 30be 279a 0ebe 9853 60be
000002e0: 4273 0dbe 8f9f 29be b6b4 ab3d b435 16be
000002f0: 5091 393d 9119 9a3c 965e 8fbd ec7e a23d

fc4.bias f4 [3]
0.08586935 -0.094884925 0.111933544
00000000: 45dc af3d 0753 c2bd 6a3d e53d

bn1.weight f4 [128]
0.8011758 0.8882159 0.82779694 0.84893554 0.7528262 0.8202026 0.8708591 0.9013834
0.909296 0.89236283 0.8894527 0.85971326 0.79566604 0.8554526 0.85830766 0.84379154
0.8633835 0.65190613 0.8719334 1.081741 0.7773348 0.8976146 0.83627 0.6531493
0.8106864 0.8770757 0.953555 0.881017 0.8435056 0.89043564 0.82039046 0.7220436
0.68737346 0.7503858 0.8979846 0.8295616 0.8459618 0.7640462 0.87054014 0.90817994
0.84495246 0.8336632 0.91790754 0.8437922 0.80848557 0.8901789 0.893045 0.8317377
0.8264723 0.8049757 0.82474965 0.73814994 0.7650267 0.8783326 0.756844 0.7775045
0.6726781 0.7963649 0.8729431 0.82203454 0.818083 0.75926393 0.87044746 0.7823832
0.77136075 0.82499856 0.8015566 0.8541303 0.9111123 0.75506264 0.8828081 0.8168898
0.8233303 0.76161873 0.76096153 0.6115899 0.7148799 0.86272323 0.7577612 0.8577919
0.8166872 0.914592 0.6764522 1.0097482 0.8160576 0.7800606 0.713152 0.61372507
0.74109054 0.8356123 0.83569586 0.9747089 0.8719621 0.842054 0.8125556 0.7503061
0.8376509 0.83953035 0.89432925 0.8083619 0.84280163 0.8946501 0.8102754 0.8473059
0.87374777 0.8495274 0.8599681 0.83568054 0.75560176 0.8598401 0.74151194 0.8310585
0.92356527 0.7610711 0.91657925 0.93802077 0.9508767 0.7692509 0.8579642 0.73185056
0.77594376 0.80903757 0.89616287 0.8647573 0.7881229 0.8961988 0.9691269 0.77373487
00000000: db19 4d3f 1e62 633f 80ea 533f d753 593f
00000010: 38b9 403f ccf8 513f 9ff0 5e3f 10c1 663f
00000020: 9fc7 683f e471 643f 2cb3 633f 2b16 5c3f
00000030: c5b0 4b3f f1fe 5a3f 0dba 5b3f b902 583f
00000040: b306 5d3f 52e3 263f 0737 5f3f 7d76 8a3f
00000050: 6aff 463f 12ca 653f ca15 563f cb34 273f
00000060: 2589 4f3f 0888 603f 2e1c 743f 558a 613f
00000070: fcef 573f 97f3 633f 1c05 523f d9d7 383f
00000080: b5f7 2f3f 4919 403f 52e2 653f 265e 543f
00000090: f490 583f 8898 433f b8db 5e3f 7b7e 683f
000000a0: ce4e 583f f46a 553f fdfb 6a3f c402 583f
000000b0: e9f8 4e3f c4e2 633f 999e 643f c3ec 543f
000000c0: b093 533f e312 4e3f cb22 533f 65f7 3c3f
000000d0: cad8 433f 68da 603f 87c0 413f 890a 473f
000000e0: a234 2c3f 92de 4b3f 3379 5f3f db70 523f
000000f0: e36d 513f 1f5f 423f a5d5 5e3f 444a 483f
00000100: e677 453f 1b33 533f d032 4d3f 49a8 5a3f
00000110: a83e 693f c94b 413f b6ff 613f b11f 513f
00000120: c6c5 523f 72f9 423f 60ce 423f 2891 1c3f
00000130: 5e02 373f 6edb 5c3f a3fc 413f 4098 5b3f
00000140: 6a12 513f b422 6a3f f92b 2d3f 6e3f 813f
00000150: 27e9 503f 0db2 473f 2191 363f 161d 1d3f
00000160: 1cb8 3d3f b0ea 553f 2af0 553f 8686 793f
00000170: e838 5f3f da90 573f a503 503f 1014 403f
00000180: 4a70 563f 76eb 563f c3f2 643f cef0 4e3f
00000190: d9c1 573f ca07 653f 356e 4f3f 0ae9 583f
000001a0: efad 5f3f a17a 593f df26 5c3f 29ef 553f
000001b0: 1e6f 413f 7b1e 5c3f bad3 3d3f 40c0 543f
000001c0: c66e 6c3f 8ed5 423f f0a4 6a3f 2122 703f
000001d0: a86c 733f a1ed 443f 8ba3 5b3f 8f5a 3b3f
000001e0: 40a4 463f 161d 4f3f ee6a 653f bc60 5d3f
000001f0: 6cc2 493f 496d 653f b318 783f 7d13 463f

bn1.bias f4 [128]
-0.507241 -0.47667423 -0.26138738 -0.62080735 -0.36314553 -0.5766532 -0.30382118 -0.39112917
-0.6817147 -0.6967533 -0.31383538 -0.49160507 -0.2872566 -0.52520084 -0.66995347 -0.289967
-0.49040654 -0.22752953 -0.6295743 -0.75096625 -0.31214687 -0.6300465 -0.24724458 -0.09671347
-0.40950912 -0.498744 -0.33329412 -0.65388113 -0.29997617 -0.29187983 -0.23840132 -0.4969042
-0.2852201 -0.5254178 -0.72725326 -0.40019467 -0.5364905 -0.32687044 -0.58801955 -0.7199722
-0.6273196 -0.49229616 -0.47299507 -0.5059916 -0.18215549 -0.40361446 -0.5693849 -0.402271
-0.4358302 -0.35645607 -0.86160666 -0.6196298 -0.4144933 -0.4697304 -0.3694179 -0.37532097
-0.37393275 -0.47893548 -0.57238406 -0.44740865 -0.44719195 -0.4391211 -0.5963683 -0.38895452
-0.49292213 -0.43272123 -0.63757837 -0.3987412 -0.7099817 -0.29602045 -0.44133604 -0.38033336
-0.31941763 -0.31251106 -0.3785894 -0.15063038 -0.34880507 -0.64741695 -0.45190746 -0.41853973
-0.4970679 -0.45331377 -0.3151123 -0.42834878 -0.28948542 -0.61368537 -0.21569757 -0.16187526
-0.052103892 -0.4228452 -0.47524378 -0.5937302 -0.53308976 -0.5232264 -0.30669606 -0.3375427
-0.24509785 -0.6182152 -0.42868668 -0.6248727 -0.5127719 -0.6672816 -0.6170443 -0.53395474
-0.525988 -0.37025416 -0.41362098 -0.39303526 -0.35165253 -0.69466805 -0.58800167 -0.6459298
-0.6015465 -0.45974743 -0.69967 -0.37320602 -0.5602056 -0.31829983 -0.5833451 -0.31316516
-0.60723585 -0.5153706 -0.47383633 -0.41315642 -0.37043124 -0.5513411 -0.45694003 -0.2858309
00000000: 8cda 01bf a50e f4be 91d4 85be 3bed 1ebf
00000010: 36ee b9be 8b9f 13bf 738e 9bbe 1542 c8be
00000020: db84 2ebf 6d5e 32bf 08af a0be a9b3 fbbe
00000030: 4c13 93be 9073 06bf 1282 2bbf 8e76 94be
00000040: 9116 fbbe 80fd 68be c82b 21bf 533f 40bf
00000050: b7d1 9fbe ba4a 21bf af2d 7dbe b611 c6bd
00000060: 2eab d1be 605b ffbe 87a5 aabe c164 27bf
00000070: 7a96 99be 4671 95be 7a1f 74be 3a6a febe
00000080: 5e08 92be c881 06bf 452d 3abf 51e6 ccbe
00000090: 7157 09bf 905b a7be 7388 16bf 1950 38bf
000000a0: 0498 20bf 3e0e fcbe 692c f2be aa88 01bf
000000b0: f886 3abe 8ea6 cebe 35c3 11bf 77f6 cdbe
000000c0: 2325 dfbe 6981 b6be 4192 5cbf 0fa0 1ebf
000000d0: 7738 d4be 8180 f0be 5824 bdbe 122a c0be
000000e0: 1d74 bfbe 0837 f5be c387 12bf bf12 e5be
000000f0: 58f6 e4be 7bd4 e0be 98ab 18bf 0c25 c7be
00000100: 4a60 fcbe a38d ddbe 5638 23bf ce27 ccbe
00000110: 5cc1 35bf fe8f 97be ccf6 e1be 0ebb c2be
00000120: b58a a3be 7301 a0be 78d6 c1be da3e 1abe
00000130: 9496 b2be 1ebd 25bf 6a60 e7be d74a d6be
00000140: af7f febe be18 e8be 6656 a1be 8850 dbbe
00000150: 6f37 94be 7c1a 1dbf d3df 5cbe a1c2 25be
00000160: e46a 55bd 2b7f d8be 2753 f3be b4fe 17bf
00000170: 9278 08bf 2af2 05bf 4407 9dbe 66d2 acbe
00000180: eefa 7abe 5a43 1ebf d27c dbbe a8f7 1fbf
00000190: 0545 03bf f8d2 2abf 9ef6 1dbf 42b1 08bf
000001a0: 26a7 06bf f491 bdbe 21c6 d3be eb3b c9be
000001b0: cd0b b4be c4d5 31bf 4787 16bf a85b 25bf
000001c0: f4fe 19bf 0464 ebbe 931d 33bf dc14 bfbe
000001d0: a269 0fbf 32f8 a2be 1b56 15bf 2f57 a0be
000001e0: cf73 1bbf 54ef 03bf ad9a f2be 3d89 d3be
000001f0: 2aa9 bdbe b124 0dbf 0bf4 e9be 6d58 92be

bn1.running_mean f4 [128]
-0.018782586 0.01429217 0.0073227743 0.007167717 0.0109928055 0.028746748 -0.0010690845 -0.0071169953
-0.021828614 -0.023123572 0.005694629 0.028654747 0.022857763 0.028253151 0.020639624 0.0014582769
-0.02495551 0.009746084 0.017134935 -0.024107428 -0.0023704802 0.007345787 0.0013996887 -0.0007823653
0.0006914977 0.003189981 0.008912739 -0.035483714 7.954641e-05 -0.005046526 -0.0013145541 -0.012017955
-0.02735171 -0.05901147 0.039370164 -0.007359317 -0.035248548 -0.0033869313 0.03078362 -0.017368896
-0.013987257 -0.0109548485 -0.0074503706 0.010622019 0.013105796 0.005737303 -0.029635664 -0.01028607
0.0036654691 -0.009759616 -0.025570832 -0.028034266 -0.029482368 0.022739982 -0.010304192 -0.02053516
0.0039419266 -0.03431514 0.015783098 0.0068102977 0.010708221 -0.016336637 -0.0041836468 0.019765358
0.009916363 0.006356203 -0.027145663 -0.02236076 -0.0021429588 -0.007777984 0.0028547072 -0.0034521106
0.008132558 -0.0068804645 0.0033592405 0.045089044 0.019677024 -0.0076911147 -0.0049018227 -0.011794707
0.007707073 -0.013333366 0.011552658 -0.031617776 0.011020209 -0.015560057 -0.009840025 -0.030319816
-0.0030535264 0.015132373 0.024327224 0.020915572 0.034509122 -0.028021364 0.02313566 0.005526346
0.012997192 -0.003382916 -0.008649756 -0.015549376 0.0027305651 0.0021173696 0.052567918 -0.009209082
0.03430137 0.01644289 0.026109995 0.033186767 -0.022950388 -0.0011736277 -0.00981227 -0.01083945
-0.010583237 0.011988569 -0.02976427 -0.028471487 -0.016007166 0.025060337 -0.009203122 -0.019824527
-0.00083274447 -0.019068329 0.03083342 0.01857846 -0.030824704 -0.032604206 0.013267591 -0.01208304
00000000: f0dd 99bc b529 6a3c e2f3 ef3b 2bdf ea3b
00000010: 2b1b 343c 4d7e eb3c 8620 8cba af35 e9bb
00000020: ecd1 b2bc a56d bdbc 039a ba3b 5cbd ea3c
00000030: 3440 bb3c 2773 e73c 6e14 a93c a723 bf3a
00000040: 7f6f ccbc 0aae 1f3c 905e 8c3c f17c c5bc
00000050: 0f5a 1bbb edb4 f03b c275 b73a a617 4dba
00000060: a045 353a 000f 513b bd06 123c 5f57 11bd
00000070: 27d2 a638 545d a5bb 1e4d acba f5e6 44bc
00000080: b110 e0bc 03b6 71bd 9c42 213d 6d26 f1bb
00000090: c860 10bd 47f7 5dbb ee2d fc3c 3749 8ebc
000000a0: cf2a 65bc f77b 33bc 3d22 f4bb fa07 2e3c
000000b0: b1b9 563c fcff bb3b 7ec6 f2bc e886 28bc
000000c0: 5e38 703b cce6 1fbc ec79 d1bc 1ea8 e5bc
000000d0: 0285 f1bc 3349 ba3c ead2 28bc 5a39 a8bc
000000e0: 472b 813b 088e 0cbd 8e4b 813c eb28 df3b
000000f0: 8971 2f3c 69d4 85bc f916 89bb f6ea a13c
00000100: 3e78 223c b247 d03b 9560 debc ea2d b7bc
00000110: e270 0cbb 75de febb 0a16 3b3b ce3c 62bb
00000120: 6c3e 053c 8575 e1bb b426 5c3b 4aaf 383d
00000130: b631 a13c bf05 fcbb 789f a0bb 963e 41bc
00000140: 9d8b fc3b 3174 5abc 5c47 3d3c a481 01bd
00000150: 1b8e 343c 9cef 7ebc 0e38 21bc 4361 f8bc
00000160: ac1d 48bb c6ed 773c e349 c73c 2257 ab3c
00000170: 7059 0d3d 0f8d e5bc ff86 bd3c 5a16 b53b
00000180: 2df2 543c eab3 5dbb b5b7 0dbc cfc2 7ebc
00000190: 48f3 323b 91c3 0a3b 7551 573d b1e1 16bc
000001a0: 987f 0c3d 3db3 863c a1e4 d53c d9ee 073d
000001b0: 7402 bcbc 69d4 99ba a5c3 20bc f397 31bc
000001c0: 5065 2dbc b46b 443c 33d4 f3bc 093d e9bc
000001d0: 7621 83bc 564b cd3c b1c8 16bc 0c67 a2bc
000001e0: 894c 5aba 2f35 9cbc 5e96 fc3c db31 983c
000001f0: 1784 fcbc fd8b 05bd 4f60 593c f1f7 45bc

bn1.running_var f4 [128]
0.64112175 0.3584128 0.30799958 0.6045486 0.53550076 0.56784725 0.36387998 0.291737
0.6183733 1.3290163 0.18362217 0.7604949 0.33462033 0.83447415 0.3653104 0.5530623
0.32041898 0.46281588 0.29002404 0.48092437 0.47146106 0.28941974 0.35205004 0.3157195
0.5366556 0.94061255 0.27778873 0.5455821 0.37672034 0.25801176 0.16788988 0.4316036
1.1695684 0.86073416 0.57338995 1.1202582 0.500136 0.48770705 0.55443144 0.97418934
1.16652 0.4746558 0.3112971 0.4870011 0.40247527 0.3768121 0.6643473 0.6555485
0.8007586 0.6109998 1.7032996 1.6602668 0.58008057 0.4551126 0.47645423 0.71290624
0.7649287 1.111138 0.6237039 0.58470815 0.70038444 0.41489264 0.13764489 0.8197925
0.33658254 0.6486885 0.796422 0.27625695 0.28909847 0.29589343 0.72052467 0.30754176
0.3229019 0.3558044 0.69473445 0.5856842 1.0451937 0.7611843 0.4507455 0.48123816
0.31365454 0.2755455 0.70000595 0.41654462 0.6856297 1.232145 0.5342672 0.89104646
0.77335316 0.27259442 0.6217403 0.35432702 0.686074 2.1085942 0.26560363 0.3584873
0.41468936 0.2747955 0.30499688 0.58238393 0.32097387 0.20029128 1.5881046 0.25018808
0.5556619 0.313366 0.6753988 0.68888015 0.5873909 0.40492517 1.0104342 0.4031525
0.2847469 0.7894094 0.38116986 0.42580983 0.5095115 0.41678047 0.58465934 0.4733801
0.712803 0.2871331 0.56168205 0.33750728 0.72728956 0.8159376 0.36211634 0.4023221
00000000: 8e20 243f e281 b73e 1fb2 9d3e b2c3 1a3f
00000010: 9416 093f 705e 113f 7a4e ba3e 8d5e 953e
00000020: b64d 1e3f 351d aa3f 7307 3c3e cbaf 423f
00000030: 5b53 ab3e 19a0 553f f709 bb3e 7e95 0d3f
00000040: f50d a43e 34f6 ec3e 087e 943e b83b f63e
00000050: 5863 f13e d32e 943e e73f b43e fca5 a13e
00000060: 4362 093f fccb 703f 533a 8e3e 45ab 0b3f
00000070: 7de1 c03e 1e1a 843e 53eb 2b3e 26fb dc3e
00000080: 6bb4 953f 1359 5c3f afc9 123f 9f64 8f3f
00000090: ea08 003f bdb4 f93e 38ef 0d3f 7964 793f
000000a0: 8750 953f 1606 f33e 5562 9f3e 3558 f93e
000000b0: 3d11 ce3e 84ed c03e aa12 2a3f 07d2 273f
000000c0: 84fe 4c3f 7c6a 1c3f b905 da3f 9f83 d43f
000000d0: 2980 143f 8504 e93e cff1 f33e 0681 363f
000000e0: 5ed2 433f c539 8e3f 0fab 1f3f 6faf 153f
000000f0: 654c 333f cf6c d43e c8f2 0c3e ecdd 513f
00000100: 8c54 ac3e 7310 263f 50e2 4b3f 8d71 8d3e
00000110: b704 943e 587f 973e 4e74 383f 1d76 9d3e
00000120: 6653 a53e ff2b b63e 1eda 313f 66ef 153f
00000130: e8c8 853f f9dc 423f 1dc8 e63e d964 f63e
00000140: 5497 a03e 4d14 8d3e 9733 333f 5645 d53e
00000150: 6e85 2f3f edb6 9d3f bcc5 083f 9f1b 643f
00000160: 79fa 453f 7f91 8b3e 5f2a 1f3f 5a6a b53e
00000170: 8ca2 2f3f 35f3 0640 33fd 873e a68b b73e
00000180: 2a52 d43e ffb1 8c3e 8d28 9c3e 1d17 153f
00000190: b056 a43e 2819 4d3e 0347 cb3f a718 803e
000001a0: dc3f 0e3f 8271 a03e f0e6 2c3f 735a 303f
000001b0: 405f 163f 5a52 cf3e e855 813f 016a ce3e
000001c0: 58ca 913e bc16 4a3f b228 c33e bf03 da3e
000001d0: 586f 023f 4064 d53e 3cac 153f e05e f23e
000001e0: 427a 363f 1c03 933e 65ca 0f3f c1cd ac3e
000001f0: a62f 3a3f 49e1 503f 5067 b93e 2afd cd3e

bn2.weight f4 [128]
0.786524 0.85434747 0.7821074 0.78211486 0.8637165 0.7561057 0.7243681 0.8648834
0.83843875 0.795395 0.79830766 0.7863748 0.81008726 0.83923846 0.7939269 0.7782297
0.69620174 0.8117655 0.74906975 0.73059845 0.7816179 0.7934925 0.7674043 0.77705055
0.8706726 0.80469245 0.7398929 0.7674117 0.85987693 0.7694257 0.8177866 0.8233921
0.8931049 0.8100719 0.9493445 0.7882544 0.7198183 0.8989816 0.73621815 0.947333
0.7742462 0.8858067 0.70699304 0.81155366 0.7129248 0.92377424 0.82941025 0.78435916
0.8351172 0.84793603 0.82181066 0.8228105 0.7696511 0.8439479 0.8462755 0.7638186
0.83995414 0.83714914 0.79560864 0.78288525 0.8230958 0.8314843 0.80683744 0.7399605
0.7263279 0.63556844 0.8754375 0.79501957 0.762516 0.76381934 0.8665407 0.80783784
0.75962585 0.81976706 0.8206039 0.77516556 0.78364223 0.86249006 0.77473354 0.77561253
0.7612278 0.76992476 0.70849985 0.76672524 0.7764377 0.7988782 0.82507086 0.7486441
0.85981697 0.8217985 0.81411093 0.8673987 0.8646026 0.7822596 0.73205346 0.8245895
0.75324297 0.94505733 0.7433565 0.79595155 0.8606406 0.8220064 0.8944068 0.85009325
0.73933285 0.8265244 0.69761634 0.84720945 0.7372396 0.78348035 0.8563401 0.75970095
0.7828298 0.7705706 0.81681526 0.77909565 0.80982155 0.7804673 0.72448885 0.7881278
0.90837306 0.773847 0.7737246 0.895782 0.8180969 0.7547715 0.7028032 0.75187933
00000000: a359 493f 84b6 5a3f 3138 483f ae38 483f
00000010: 861c 5d3f 2590 413f 3070 393f 0069 5d3f
00000020: eca3 563f 029f 4b3f e45d 4c3f dc4f 493f
00000030: e161 4f3f 55d8 563f cb3e 4b3f 103a 473f
00000040: 473a 323f ddcf 4f3f 09c3 3f3f 8008 3b3f
00000050: 1c18 483f 5322 4b3f 9c74 443f c9ec 463f
00000060: 66e4 5e3f 5300 4e3f 9f69 3d3f 1875 443f
00000070: e520 5c3f 15f9 443f 765a 513f d3c9 523f
00000080: 86a2 643f df60 4f3f 3e08 733f 0acb 493f
00000090: 0346 383f a823 663f cb78 3c3f 6a84 723f
000000a0: 0035 463f 3ac4 623f 7ffd 343f fbc1 4f3f
000000b0: 3d82 363f 787c 6c3f 3b54 543f c3cb 483f
000000c0: 3eca 553f 5612 593f 2f62 523f b5a3 523f
000000d0: db07 453f f80c 583f 83a5 583f 9e89 433f
000000e0: 3c07 573f 684f 563f 02ad 4b3f 2b6b 483f
000000f0: 68b6 523f 28dc 543f e68c 4e3f 0d6e 3d3f
00000100: a0f0 393f 9db4 223f ac1c 603f 6786 4b3f
00000110: 4034 433f aa89 433f 9cd5 5d3f 76ce 4e3f
00000120: d776 423f 41dc 513f 1913 523f 4071 463f
00000130: c79c 483f 26cc 5c3f f054 463f 8b8e 463f
00000140: d3df 423f ca19 453f 3f60 353f 1b48 443f
00000150: 9fc4 463f 4883 4c3f d837 533f 24a7 3f3f
00000160: f71c 5c3f 6361 523f 9369 503f d70d 5e3f
00000170: 9956 5d3f 2a42 483f db67 3b3f 4c18 533f
00000180: 88d4 403f 47ef 713f 9d4c 3e3f 7bc3 4b3f
00000190: f152 5c3f 036f 523f d8f7 643f b69f 593f
000001a0: eb44 3d3f 1a97 533f fc96 323f b8e2 583f
000001b0: bcbb 3c3f 2b92 483f 1b39 5b3f c37b 423f
000001c0: 8967 483f 1d44 453f ce1a 513f d072 473f
000001d0: 7750 4f3f b4cc 473f 1a78 393f bec2 493f
000001e0: 238b 683f d61a 463f d112 463f f851 653f
000001f0: cc6e 513f b438 413f e9ea 333f 2a7b 403f

bn2.bias f4 [128]
-0.54535997 -0.46212208 -0.56560045 -0.5253512 -0.20217386 -0.34464604 -0.36887428 -0.4313091
-0.37166435 -0.31527653 -0.46751264 -0.4717603 -0.3551662 -0.53130424 -0.42964697 -0.36667225
-0.54059464 -0.45849982 -0.40415558 -0.59187055 -0.29968214 -0.56213886 -0.46038452 -0.6082411
-0.41475278 -0.4947218 -0.55801225 -0.41705415 -0.413598 -0.45668063 -0.5631438 -0.45258713
-0.44329947 -0.37335482 -0.42598736 -0.53667504 -0.66925037 -0.4935481 -0.4726361 -0.3884449
-0.4201047 -0.26539102 -0.60465616 -0.4015823 -0.4504776 -0.4399394 -0.20216803 -0.5395983
-0.36842138 -0.6710696 -0.5392517 -0.5325603 -0.31994066 -0.40413222 -0.560076 -0.5149379
-0.3553951 -0.5231451 -0.6206787 -0.562236 -0.3929528 -0.6072088 -0.55468005 -0.37074703
-0.33287525 -0.567731 -0.38044295 -0.5838344 -0.5391275 -0.62759954 -0.27586508 -0.4722272
-0.6126345 -0.5260732 -0.25664917 -0.6176811 -0.3705176 -0.5688523 -0.48766539 -0.41140753
-0.45335484 -0.35639003 -0.60492074 -0.53652287 -0.5454772 -0.6880998 -0.8075305 -0.50893754
-0.5405334 -0.5517736 -0.40998107 -0.4955213 -0.1803955 -0.58589524 -0.43090954 -0.34441435
-0.42730525 -0.43758744 -0.40434796 -0.5762705 -0.4054563 -0.2217632 -0.4049075 -0.74750584
-0.5371452 -0.5735671 -0.5121617 -0.54782856 -0.43577635 -0.50487757 -0.68296564 -0.46866068
-0.5744644 -0.3755256 -0.34869993 -0.45106483 -0.32104415 -0.57819533 -0.45802948 -0.2774994
-0.652504 -0.42673314 -0.39739385 -0.44941533 -0.32934827 -0.46929458 -0.4963822 -0.3396953
00000000: b69c 0bbf 449b ecbe 31cb 10bf 6b7d 06bf
00000010: aa06 4fbe 7275 b0be 17dd bcbe 8cd4 dcbe
00000020: ca4a bebe ed6b a1be d15d efbe 918a f1be
00000030: 58d8 b5be 8e03 08bf b0fa dbbe 77bc bbbe
00000040: 6964 0abf 7dc0 eabe 7bed cebe d484 17bf
00000050: f06f 99be 55e8 0fbf 85b7 ebbe b0b5 1bbf
00000060: 7a5a d4be 2d4c fdbe e4d9 0ebf 1f88 d5be
00000070: 1ec3 d3be 0bd2 e9be 312a 10bf 80b9 e7be
00000080: 26f8 e2be 5d28 bfbe 041b dabe 8963 09bf
00000090: fe53 2bbf 56b2 fcbe 5cfd f1be 40e2 c6be
000000a0: f717 d7be 55e1 87be bfca 1abf 329c cdbe
000000b0: 00a5 e6be bd3f e1be 2305 4fbe 1d23 0abf
000000c0: baa1 bcbe 38cb 2bbf 660c 0abf df55 08bf
000000d0: 43cf a3be 6bea cebe 2461 0fbf f8d2 03bf
000000e0: 59f6 b5be d6ec 05bf cde4 1ebf b3ee 0fbf
000000f0: 1c31 c9be 0972 1bbf 83ff 0dbf 8ed2 bdbe
00000100: a06e aabe d256 11bf 6bc9 c2be 2c76 15bf
00000110: 4304 0abf 5daa 20bf 303e 8dbe c3c7 f1be
00000120: 9dd5 1cbf bcac 06bf 8567 83be 5920 1ebf
00000130: 7cb4 bdbe 4ea0 11bf 47af f9be 02a4 d2be
00000140: 201e e8be c178 b6be 16dc 1abf 9059 09bf
00000150: 65a4 0bbf 4f27 30bf 52ba 4ebf bb49 02bf
00000160: 6660 0abf 0941 0dbf 0ae9 d1be f8b4 fdbe
00000170: 99b9 38be 3bfd 15bf 2da0 dcbe 1457 b0be
00000180: c1c7 dabe 760b e0be b206 cfbe 7786 13bf
00000190: f897 cfbe e415 63be 0950 cfbe 8b5c 3fbf
000001a0: 5982 09bf 4bd5 12bf 071d 03bf 7e3e 0cbf
000001b0: 141e dfbe a83f 01bf d6d6 2ebf 4bf4 efbe
000001c0: 1910 13bf e444 c0be cc88 b2be f8f1 e6be
000001d0: e65f a4be 9c04 14bf d782 eabe 6714 8ebe
000001e0: 810a 27bf c47c dabe 3577 cbbe c419 e6be
000001f0: 56a0 a8be 6147 f0be cf25 febe 8bec adbe
